test_8.pth (torch, 587207 bytes, 10 tensors)

weight f4 [32, 3, 5, 5]
00000000: 2987 4ebd 079b 583b 048e 5abc 2227 423d
00000010: 8dfc a63d 5feb 10be 834c 86bd bc14 b93c
00000020: c5a8 5d3d b6ef e0bd f8fa b4bd d5cd 263d
00000030: 3331 da3d 0725 163e 927c 1abd ec3f e1bd
00000040: 2b1a b5bd 971b 713d df0f a63d f413 1a3d
00000050: 4c9a d3bd 4f4c a53d 1820 5f3e 990d ea3d
00000060: b0d7 e5bd 59df 1dbe 8b65 8fbd ffda 1a3e
00000070: e4fe 763d b2bb 0b3e a581 bfbc 658f efbc
00000080: 7fbb 2a3e 1fc6 0c3e 92f8 223e 6fdd 9fbd
00000090: 1876 f03d a39a 973d 2be2 353d 8f87 f43c
000000a0: b85b ff3b c563 683d ace7 533e 32a7 e73d
000000b0: 64f0 c13d bb90 c6bd 7dec 893d a2f7 843e
000000c0: d38e da3d d731 cdbc 3061 66be 68e0 37be
000000d0: 6e21 4dbd d678 5f3b 8bca 2ebe 3e96 3bbe
000000e0: c071 37bc e4e8 16bd f170 f6bd 0d18 20be
000000f0: acd5 0abe f2de 4abe 80d6 05be 8492 85bc
00000100: d499 fb3c c682 44be 093d 4dbe ecec d83d
00000110: f197 14be 03bf 75bc 12c7 98bd 9c07 14be
00000120: 3cbc cb3c 17c8 a8bd 6569 1dbc 5323 34be
00000130: 6238 93bd 60bd 583d dc08 24bd 1b52 eebd
00000140: ee8a f3bd f20f adbd 75e2 14be 2db2 c9bd
00000150: 0794 08be c6bd 463d 28e7 f0bd 37ff 01be
00000160: 610d 473d 93e4 13be 517e dcbd dabe e43b
00000170: efdf a4bd b7b6 a7bd 59ea 513d c260 ef3d
00000180: 0971 a1bd 250f 243e 76d4 683d 018a 8ebd
00000190: 55c7 e5bd a905 80bc 9c06 e53b c76c b2bc
000001a0: fb76 013d a4e9 c93d 31a8 06be ff25 8cbd
000001b0: 189c 29bd 1c14 4ebb 4ec4 ee3d b976 9cbc
000001c0: ac36 853d da86 cd3d a5be aeba 1b1b 1f3e
000001d0: 1f3d 323e 17b1 e13d 4f71 1d3e 5d28 e03d
000001e0: 6fc8 333e fafd 2e3e cd79 a13c 2ef8 5c3d
000001f0: 1374 193e cfc0 08be 7d2e e0bd 8e8b d3bd
00000200: 5757 8fbc 3497 853c b1e1 13be 5282 76ba
00000210: 96b6 273d d6c7 00be 0fc3 c13b a003 bebc
00000220: deab cebd 074d 293d b262 d63c 31a5 423d
00000230: 0160 5ebd e3b0 f9bc 06cf 943c 716c b8bd
00000240: cee2 a33d ae16 c53d a3b4 b23d 9df1 093e
00000250: 8465 073e 8bc7 103e d1e5 2dbe faea cdbd
00000260: ca0d 18bc 58fe 14be 77c1 03be 35de 8bbd
00000270: cfcd 1b3d 45b2 ccbd 8e52 8b3c f25e a3bd
00000280: e60a 2ebd 5ea8 a9bd 9fff c2bd ad3e 233d
00000290: d831 49bd 1641 e63d dc35 983d a163 983d
000002a0: acf7 1c3d f0e9 11bd c8db 433d 2631 c0bd
000002b0: 6d54 b53d 7746 eebc 7c75 753b 20ba 12be
000002c0: a316 06bd 0134 b6bc 2a19 c33b cb2d a9bb
000002d0: c63a f53d 83fd a6bd a153 343d a7a8 103d
000002e0: 32ac a73d b4a3 8a3d f344 0ebd d153 123e
000002f0: 7277 b63d bf78 83bd 80b6 0d3e 20df bdbc
00000300: 6f88 343e e044 173e a8d5 d33d 8c42 073e
00000310: 3579 f73d 3164 993d c929 56bd 0500 6d3c
00000320: 0a21 adbd 3751 bc3d 56c5 223d 7604 ddbc
00000330: 03ab e5bd b703 da3d 6899 a0bd d191 e4bd
00000340: 8813 f5bc 430b 87bd 590c 8b3d aef7 3abd
00000350: b3b1 92bd 2f0f 113e 7815 e7bd 16fd 703b
00000360: d199 9a3c 739a babb 4cb6 fd3d 4797 b33c
00000370: c6ec e23d 3d8b b4bd 15dd 0fbd 4ba4 dfbd
00000380: 3985 a73b eb4c d53d a23e 303d 55ff 813d
00000390: b972 a13c 645d 6dbd e3f2 803d 5430 363d
000003a0: af7e 183e 20c4 09bd ad16 cd3d c9e3 7a3d
000003b0: 7927 9bbb 9ce8 b3bd 7226 48bd b2ee 9e3d
000003c0: 94db 63bb e510 ae3d 619c 0fbe 1a16 09be
000003d0: c87c 21be 9bac 9f3c 9c24 aebd ad23 bd3d
000003e0: b55e 4d3d 4f9a 43bd f75a b63d c7fd debd
000003f0: cff0 c33c ef7b 073e af75 f33d 4b15 32bd
-0.050421868 0.0033051388 -0.013339523 0.0474006 0.08153639 -0.14152287 -0.06557562 0.022592895
0.05411603 -0.10983221 -0.08836931 0.04072364 0.10653915 0.14662562 -0.037716456 -0.1099852
-0.08842882 0.058864202 0.08108496 0.037616685 -0.10332164 0.08071195 0.21789587 0.11428375
-0.1122278 -0.15417232 -0.0700179 0.15122603 0.060301676 0.13645819 -0.023377249 -0.02924318
0.16673087 0.13747452 0.15915135 -0.07805907 0.117412746 0.074025415 0.044405144 0.029849796
0.007792916 0.056735773 0.20693845 0.11311187 0.09469679 -0.09695574 0.0673456 0.2597018
0.10671773 -0.02504818 -0.22498012 -0.17956698 -0.05008071 0.0034099123 -0.17069452 -0.18319032
-0.011196554 -0.036843196 -0.120332606 -0.15634175 -0.13558072 -0.1981161 -0.13070107 -0.016305216
0.030713 -0.19190511 -0.20042814 0.10592064 -0.14511086 -0.014999154 -0.07459845 -0.14456028
0.02487003 -0.08241289 -0.009607648 -0.175916 -0.071884885 0.052914977 -0.04004751 -0.11636754
-0.11891733 -0.08450307 -0.14539512 -0.098484375 -0.13337718 0.048520826 -0.117628396 -0.12695013
0.048596743 -0.14442663 -0.107662804 0.006980759 -0.080505244 -0.08189147 0.051248882 0.11688377
-0.07882888 0.16021402 0.056843244 -0.06959916 -0.1121966 -0.015627699 0.0069893133 -0.021780385
0.03160761 0.098590165 -0.13150097 -0.06843185 -0.04140863 -0.0031445092 0.11658536 -0.01909958
0.065045685 0.100354865 -0.0013331963 0.15537684 0.17406128 0.11020105 0.15375255 0.10945199
0.17556928 0.17089072 0.0197114 0.05394762 0.14985685 -0.133548 -0.10946367 -0.10329352
-0.017497702 0.01630745 -0.14441563 -0.00094035745 0.040945612 -0.12576231 0.0059131454 -0.023195088
-0.10091375 0.041333225 0.026170108 0.04752082 -0.054290775 -0.030479854 0.018165123 -0.090050586
0.08002244 0.096234664 0.0872586 0.13471074 0.13222319 0.1413862 -0.16982199 -0.10054584
-0.009280631 -0.1455015 -0.1286677 -0.06829492 0.03803807 -0.0999494 0.017007139 -0.07977094
-0.042490862 -0.082840666 -0.09521412 0.039854694 -0.0491198 0.11242883 0.07432148 0.07440878
0.038322136 -0.03562349 0.04781702 -0.09384374 0.088539936 -0.029086335 0.003745406 -0.14328814
-0.03273643 -0.022241594 0.0059539275 -0.0051629297 0.11974101 -0.08153822 0.044025067 0.03531709
0.081871405 0.06769505 -0.034733724 0.14289786 0.08909501 -0.06419515 0.1383915 -0.023177683
0.1763017 0.14772367 0.10343486 0.1320898 0.12083665 0.07489813 -0.052285943 0.014465337
-0.08453567 0.09195178 0.039738975 -0.026979666 -0.112142585 0.1064524 -0.0784176 -0.11160625
-0.02991654 -0.06593945 0.067894645 -0.045646362 -0.071628 0.14165948 -0.11283392 0.0036771945
0.018872174 -0.0056946813 0.12388286 0.02192272 0.11080317 -0.0881562 -0.03512295 -0.10920008
0.005112317 0.104150616 0.04302848 0.06347529 0.019708024 -0.057950392 0.06296327 0.044479683
0.14892076 -0.033634305 0.10014091 0.06125239 -0.00473493 -0.08784601 -0.04886479 0.07760371
-0.003476833 0.08499316 -0.14024498 -0.13387337 -0.15770257 0.019491484 -0.085030764 0.0923532
0.050139148 -0.047754582 0.08904069 -0.10888248 0.023918537 0.1323087 0.11887681 -0.043477338

bias f4 [32]
00000000: b328 7f3e d2d9 74bd 2307 783c 4910 1cbe
00000010: 7d6d ab3b 988e ebbd 0767 2ebe 7326 febd
00000020: 4847 59bd 035d b13d 814c 6e3e 11d8 99bd
00000030: cdb9 1e3e 6b91 84bd d719 a43d 35c0 cf3c
00000040: dbd1 89bd dcb3 0b3e ec3e b53e 657b 70bd
00000050: cdc3 603c d2b5 2c3e 9c84 18be 95bb 9d3d
00000060: 0078 a1bd c592 c2bd ee81 903e 5cf3 10be
00000070: c147 85be 9af7 96be 299a 84be a9ff 3abd
0.2491787 -0.059778042 0.01513842 -0.15240587 0.005231558 -0.11501807 -0.1703149 -0.12409677
-0.053046495 0.08660319 0.23271371 -0.075119145 0.15500565 -0.06473049 0.08012741 0.025360206
-0.0672948 0.1364283 0.35399568 -0.05871143 0.013718558 0.16866234 -0.14894336 0.07701794
-0.07884216 -0.0950065 0.28224128 -0.14155334 -0.26031306 -0.2948578 -0.25898865 -0.045653973

weight f4 [32, 32, 5, 5]
00000000: 9a8f 94bc 6345 fabc e593 dd3a 1768 bbbc
00000010: 5455 0d3b 7bbe dd3b 8d3c 373a 01fc 1a3c
00000020: f693 abbc 4b40 01bc dbcf 4d3d 6412 ef3c
00000030: edcb eaba c11d c2bc 5222 58bc 7519 3d3d
00000040: 14c7 11bd 5c7c 193b af82 303c d490 123c
00000050: 8d06 26bc 5793 a03b c2b1 3b3b fc65 ff3b
00000060: f8da 3b3c c5fd 583c 0f6f c1bc d45f b9bb
00000070: 6e41 203d e086 77bc 7159 5e3d 2264 073d
00000080: 6b66 3e3d 7a39 803d eb59 2d3d e108 f5bc
00000090: e882 1ebd f2f9 38bd c73e 52bd db34 7fbc
000000a0: a746 f4ba 0acf 2bbd 27a3 723c 11d4 d0bc
000000b0: 92b9 23bd 201b 8a3c d8f1 d33a d1a7 853c
000000c0: 89d5 31bd 5cb6 0abd f814 623a c833 3ebd
000000d0: b5a3 a93a 4729 113c c39b bd3c b9cd a9bb
000000e0: 0088 5b3d 543d 44bb e531 ea3b 728b fa3b
000000f0: 61e8 013d d41f 973c 72ce ce3c 899d 11bd
00000100: 093a df3c 1a3a a1bc 6a9c 54bd f787 9fbc
00000110: 9337 47bd 5ddd 0e3c 3572 46bc 07ba b3bc
00000120: 996d 213b f43d 95bb 461e 2bbc 2b2f fb3b
00000130: d077 ce3b 1653 023d 11d0 93bc 775a 993c
00000140: 35d2 503c 774b 69bb 3036 f9bc 1854 5a3c
00000150: 8173 1b3c a312 4f3c d8e7 8cbb 726b 1f3d
00000160: 8ea4 d3bc cb91 99bc 4e60 813c 0287 c03c
00000170: dd8f 49bc 740f 8ebc 28cf da3c 3291 c8bc
00000180: c4fd 5d3c 6f71 1138 43f3 533c 35c9 c4bc
00000190: e154 2d3d 5834 253d cb23 30bc c12d a2bc
000001a0: 09b8 cd3c e62a a23c 8173 593d cd85 273b
000001b0: effa 603b c018 2e3c c685 6c3c 5553 3fbd
000001c0: 6fe7 26bc b7b3 cb3a ac70 2ebc 5590 ae3c
000001d0: e881 973c 1900 a13c e6c5 103d 399d 853b
000001e0: bbc0 233c 57c2 83bb 60a8 b53c bb7f 973c
000001f0: 3842 2e3c 021d c9bc 5085 ebbc 7cb0 1cbc
00000200: 5835 0abd 8a10 8abb d9d1 9c3b 3505 0b3d
00000210: 0438 0d3d daa6 fe3c b4a2 163d 587b b23c
00000220: e755 40bc 6fe1 5f3d 4209 da3b 6af3 1e3d
00000230: 0457 a6bb cc7c 3dbc 3b59 a5bc 47d8 263d
00000240: 2a2b d53c f486 bb3c e1a0 033d a7bf 11bb
00000250: 0ec4 503d d646 423d 95d8 093c 8e3e 3ebd
00000260: 2b01 a8bc 480b adbc e946 3bbb 92da 263d
00000270: 0c54 9bba 7e00 43bc 9370 89bc b0ac 02bc
00000280: 453d 4e3d 7c98 913c d1ae 7f3c 1863 a83c
00000290: 6797 1c3d 9ba6 79bb 2f35 e23c 5ad1 a83c
000002a0: 7101 bebc 7607 133c ecf5 b23c d210 8c3c
000002b0: 4b92 143d 1062 a6bc 2250 e53c ef2d 103d
000002c0: ba4e 06bd 7712 233d 3993 03bc ee8b 173d
000002d0: 683b 3b3d c40e 0e3c 617d 183d 90e9 d83c
000002e0: 14f4 ec3c 5c33 2c3d 20e9 de3b 7f83 053d
000002f0: 0c25 103d 1335 24bc 567d de3c 11fa 74bc
00000300: 58fa 6ebb cbca 2d3c a2e8 e6bc 6072 f13c
00000310: d6f2 84bc 8ad2 c03c 8058 83bc b13e ea3b
00000320: f585 a63c ca45 833c d7de c73b c7a1 8bbc
00000330: 672e 9cbb eebe 8bbc 6bf3 373b fb6e 2ebd
00000340: 2404 92bc e10d e03b f55a 113a ac81 6b3d
00000350: ac94 3d3c 9b48 3d3d 2326 2d3d f6b8 9c3c
00000360: e182 353c a071 60bc 3d86 883b 0b4c 9fbc
00000370: 72eb 433d 3c44 353d ab19 813c 8b88 7dbc
00000380: eae5 d2bc 1be6 993c 3772 a8bc ac7a dbbc
00000390: 99ea 993b 2b3a 6abc 7281 39ba f9d1 c2bb
000003a0: 3eae 023b 9a70 913c 7119 443b 3660 0ebb
000003b0: 15ca 483d a3ca a4bb ddad b53c ded5 ff3c
000003c0: 2c1f d03c fc4c 4f3c 8d23 94ba 66bb 81bc
000003d0: 3dd1 0a3d 80fd 2c3d 9bf7 303d 3599 4a3d
000003e0: 4feb a23c b708 b13c d987 35bc 95bf bcbc
000003f0: 71e1 303d d67a a93a f1ae 61bc de4a 883d
-0.01813488 -0.030550664 0.0016905038 -0.022876782 0.0021565752 0.006767092 0.0006989919 0.0094594965
-0.020944577 -0.007888864 0.050247055 0.029183574 -0.0017913558 -0.023695828 -0.013191776 0.046166856
-0.035590246 0.0023420071 0.010773345 0.0089456625 -0.010133398 0.004900377 0.0028639887 0.00779414
0.01146578 0.013244097 -0.023612527 -0.0056571756 0.0391249 -0.01510784 0.054284517 0.03305448
0.046484392 0.06260963 0.04232208 -0.02991146 -0.03869906 -0.04516024 -0.0513294 -0.015576567
-0.0018636779 -0.041945495 0.014809406 -0.025491746 -0.039971896 0.016858637 0.0016170098 0.016315373
-0.043416534 -0.033865318 0.00086243404 -0.0464361 0.0012942465 0.008859939 0.023145562 -0.0051819948
0.053596497 -0.002994378 0.007147061 0.0076460177 0.031715754 0.018447794 0.025244925 -0.035550628
0.027249353 -0.019681025 -0.05190698 -0.019474013 -0.048636984 0.008719769 -0.01211219 -0.02193929
0.0024631976 -0.0045545045 -0.0104442295 0.007665535 0.006300904 0.03181752 -0.01804355 0.018719895
0.01274543 -0.003559796 -0.030421346 0.013325714 0.0094879875 0.012638721 -0.004300099 0.038920827
-0.025835302 -0.018746277 0.015792992 0.023501877 -0.012302366 -0.017341353 0.026710108 -0.024483297
0.013549272 3.4676337e-05 0.012936416 -0.024021724 0.042317275 0.040333122 -0.010750721 -0.019797208
0.025112169 0.019795846 0.05308867 0.002556193 0.0034329256 0.010626018 0.014436191 -0.04671033
-0.010187014 0.001554123 -0.01064698 0.021309057 0.018494561 0.019653367 0.03534498 0.0040775803
0.009994681 -0.00402097 0.022175014 0.018493524 0.010635905 -0.024549965 -0.028750092 -0.0095635615
-0.03374228 -0.0042133974 0.004785758 0.033940513 0.03447725 0.03108542 0.03677626 0.02178733
-0.011739231 0.05465835 0.0066539356 0.038806356 -0.005076291 -0.011565398 -0.02018415 0.040733602
0.026021559 0.0228915 0.032135848 -0.0022239478 0.050968222 0.047430836 0.008413454 -0.046446376
-0.02050837 -0.021123543 -0.0028576201 0.04073579 -0.001185061 -0.011901973 -0.016777312 -0.007975742
0.0503514 0.017772906 0.015605644 0.020555064 0.038230326 -0.003809369 0.02761325 0.02060764
-0.023194047 0.008973947 0.02184578 0.017097864 0.03627233 -0.020310432 0.027992312 0.035200056
-0.032789923 0.03981253 -0.008030706 0.03699868 0.04571095 0.008670513 0.037228946 0.026478559
0.02892498 0.042041168 0.006802693 0.032596108 0.03519158 -0.0100224195 0.027159374 -0.014952199
-0.0036465134 0.010607432 -0.0281871 0.029473484 -0.016229074 0.023537893 -0.016033411 0.0071485867
0.020327548 0.016024489 0.0060995626 -0.017044915 -0.004766274 -0.017058816 0.0028068672 -0.042586308
-0.01782424 0.006837592 0.00055448647 0.05749671 0.011571091 0.04621182 0.042272698 0.019131165
0.011078567 -0.013698965 0.004166393 -0.01944544 0.04783196 0.044254526 0.01575931 -0.015474449
-0.025744397 0.01878648 -0.020562274 -0.026791893 0.0046971557 -0.014296095 -0.0007076479 -0.005945441
0.0019940282 0.017753888 0.002992239 -0.0021724827 0.049020845 -0.005029039 0.022177631 0.03122991
0.025405489 0.012652632 -0.0011302099 -0.015836429 0.03389095 0.042233944 0.043204885 0.049462516
0.019887595 0.0216106 -0.011079752 -0.023040572 0.043183748 0.0012930285 -0.013774619 0.06654905

bias f4 [32]
00000000: 5484 aebd 1ed6 f6bd be9c 2ebb 396d ef3b
00000010: 81a9 8bbd 4e1c edbc 6d51 5bbc 2659 eebd
00000020: b886 37bc 0480 dbbd c19f 5dbd 9678 8fbc
00000030: ce5e dcbc c3ef afbd 8178 5dbd f5eb 0b3c
00000040: e1b1 8cbd eeee 4cbc e5c0 bebd 453e 9dbc
00000050: e150 843d fec4 efbc 57ef 65bd 6981 55bd
00000060: 062d 07bd 5fa7 8dbd 7c17 413c f223 3cbd
00000070: 8887 d1bd 16d6 3bbd 02d1 94bd ddf9 f73c
-0.08521333 -0.12052558 -0.0026643719 0.0073067215 -0.0681944 -0.02894416 -0.013386113 -0.116380975
-0.011201553 -0.107177764 -0.05410743 -0.017513555 -0.026900675 -0.08590653 -0.05407 0.008540143
-0.06869865 -0.012508137 -0.093141355 -0.019194731 0.06460739 -0.029268738 -0.056136455 -0.05212537
-0.033001922 -0.06916689 0.011785384 -0.045932718 -0.10230929 -0.045858465 -0.072664276 0.030270511

weight f4 [64, 32, 5, 5]
00000000: 476f 913c 7768 913c b8f9 ed3b cd6a b13c
00000010: c3f7 a7bc d993 373c 493f 753c 80ff 633b
00000020: bcc7 343d 9098 c43c d5ee 6bbc 22ea 17bc
00000030: 54c6 523d a402 f63b 96db 1bbc c154 d73c
00000040: 9ef3 cabc 0bb7 ec3b 3881 073d 151b ad3c
00000050: 0e17 adbc b2df 97bc 5829 033d 68d1 d3bb
00000060: 95c6 573b bbfa ee39 17e1 09bd 6e4a 0fbc
00000070: f3a7 d73c 467b bb3b ea1a 3d3c f1ff 19bd
00000080: c25d b83c 7ad9 c3bb 9979 b5bc ba41 43bd
00000090: 27e9 413c 8ace 233d 4cdd 8a3c 4e8d d63b
000000a0: 5f2d ee3c 6fb4 a33c 1de4 6bbd ba84 cbbc
000000b0: 2eb7 663d 8211 23bc 5086 d5bc 3c7d 373d
000000c0: ec86 443c 77fe f53c 4574 02bc 59e1 afbc
000000d0: ff45 083d a80a f13b 9a68 babc 089a ce3c
000000e0: c41b aabc 2ebf 113d 5a74 7b3b d3d6 90bc
000000f0: 321d 98bc e219 45bc 4772 7a3b 56b0 fc3c
00000100: 88e9 76bc 8653 d83c bd9a 193d f8a9 e8bc
00000110: 5381 aeba 9129 02bb 169a 00bd 9103 89bc
00000120: d849 e4bc e7e6 4cbb 1d67 e0bc dabd a1bc
00000130: 5461 abbb e3c9 14bc dc86 dcbc f4fc 6fba
00000140: e521 5c3c 17bf 84bb 0f31 8dbc da7d 9fbc
00000150: 3827 c73b a5cf 37bd 876d 7e39 b142 5ebb
00000160: 024a d33c 86e2 11bd 0e2c 8ab9 c31d 24bc
00000170: e62d 713c b8bc e6bc f1b7 b1bc 1912 bebc
00000180: 7bab 233c 2825 f5bc 320c 003c d669 fe3c
00000190: 3da0 bfbc d932 43bd 7e18 d7bc e22e d73b
000001a0: f0d4 0b3d 1db8 51bc e8c9 08bd ef9a 4eb9
000001b0: 9745 1a3c 7daa 56bc 8e4a b43c f282 92bb
000001c0: 9486 a4bc 0324 733a ff9d 973c 3ca2 133d
000001d0: 765b 01bd 8487 93bc f5e9 113d aebd c33c
000001e0: b4b0 37bc 74d1 47bc 3960 013c ea46 19bc
000001f0: c2ca 5f3c 3d17 50ba d169 0dbc 4bf4 10bc
00000200: d2cb d63c caab d03c 6159 a43a 3824 80bb
00000210: 2731 a6bb d9b2 2dbb f94b 47ba 73fc 28bd
00000220: 31fa 2fbd 89a6 083d ae1c 323c 8c21 673c
00000230: c79f 063c 8fdf d8bb 6a42 0c3d 0633 77bb
00000240: 33fa a03c 6573 d13c 0b59 0bbd 4727 8b3c
00000250: b770 423c 1fc7 2abc aadf df39 7e87 c2bc
00000260: 50f8 073d 6644 753b d525 bcbb 541e 073d
00000270: 7f7d 013d 3c9e b13c 297a 3abd b8b0 04bc
00000280: b15d 1b3d fe69 cabc f9c7 edbc b453 09bb
00000290: 9c8b ec3c fe06 3f3c 537d 083d 60c0 2f3d
000002a0: 4535 3e3c 618c 94bb 5731 e83b 3781 a6ba
000002b0: a622 85bc 1760 28bc f105 393d 4ddc 79bc
000002c0: d4ca 8cbb d3ba 9639 c06a 183d 414d 66bc
000002d0: de94 9abc 22a2 c7bc 7588 a9bb c711 213d
000002e0: 536f c23c 5e79 0d3b 776b ab3c 868f f13c
000002f0: ab68 533c 9013 003d 9303 403c d310 ffbc
00000300: 7de9 bbbc d27a 283a 3ab1 aabc a6c9 afba
00000310: 01c0 bfbc c1c5 adbb fb3e c93b a19c 233d
00000320: 708b b5bc b947 b9bc f3ec febc f779 32bc
00000330: 04ca f93c d9d1 94bc 14cc 9c3b b948 a23b
00000340: 9bfd 953c 4827 f6bc 0b1a dfbc 5c30 6e3c
00000350: ff5c aa3b aff9 fabc 3241 4fbb 3a38 a23b
00000360: c513 c23c 70b2 07bd cc4a a03c 13bb cc3c
00000370: 5b4f 813c 4e70 bbbc 7fd0 d93b f7f9 0e3d
00000380: a036 bc3c 85c2 9cbb 1c65 afbc f5f5 1bbd
00000390: 389e 193d 9126 5dbb b54e 8bbc 406e 69bc
000003a0: 0a50 cebc 5c6c 9fba a968 d33c 547b c9bb
000003b0: bbd1 2cbd 57a9 48b9 40f9 993b eee6 163c
000003c0: c33c 97bc c814 69bb dacb 293d 97e9 55bc
000003d0: d649 b63c cef8 8b3a 6fe0 763c b761 f1bc
000003e0: fd90 03bd 2a56 e13c 2cb6 0cbd 719a 72bc
000003f0: 41bd d6bc 483b 06bd 72bc e33b 1cfb f0bc
0.017753256 0.017750008 0.007262435 0.021657372 -0.020503884 0.011204683 0.014968702 0.003478974
0.044135794 0.023998529 -0.014400204 -0.00927213 0.05145867 0.007507639 -0.009512803 0.026285531
-0.024774369 0.007223969 0.033082217 0.021131078 -0.021129157 -0.018539283 0.03202185 -0.006464172
0.003292476 0.00045581706 -0.033661928 -0.008745773 0.026325202 0.0057214824 0.011542061 -0.0375976
0.022505645 -0.005976853 -0.022152709 -0.047670104 0.011835373 0.039991893 0.016951226 0.0065476066
0.029074369 0.019983498 -0.057590593 -0.024843562 0.056327038 -0.009952905 -0.026065022 0.044797167
0.0119950585 0.030028565 -0.007962291 -0.021469759 0.03326988 0.0073560067 -0.022754956 0.025219932
-0.020765193 0.035582714 0.0038368911 -0.017680561 -0.018568609 -0.012030097 0.0038215087 0.030845802
-0.015070327 0.026407015 0.037501086 -0.02840136 -0.0013313688 -0.0019861201 -0.031396948 -0.016725333
-0.027867243 -0.0031265558 -0.027392918 -0.019743849 -0.0052301083 -0.009081337 -0.026919775 -0.00091548194
0.013435815 -0.0040511 -0.017235307 -0.01946919 0.0060776733 -0.04487576 0.0002426413 -0.0033914263
0.025792126 -0.03561642 -0.00026354234 -0.010016861 0.014720416 -0.02816616 -0.021694155 -0.023201989
0.009989615 -0.029924944 0.007815408 0.031056326 -0.023391837 -0.047655914 -0.026256796 0.006566868
0.03413862 -0.012800244 -0.033395678 -0.00019703408 0.009416006 -0.013102171 0.022008207 -0.0044711763
-0.020083703 0.00092750805 0.018507956 0.03604339 -0.031581365 -0.018008955 0.03562351 0.023894157
-0.011211563 -0.012195934 0.007896476 -0.009355286 0.013659181 -0.0007938033 -0.008631186 -0.0088473065
0.026220236 0.02547254 0.0012538844 -0.0039105676 -0.0050717774 -0.0026504307 -0.00076025684 -0.04125638
-0.04296321 0.033361945 0.010871096 0.014107119 0.008216805 -0.006618447 0.034243025 -0.0037719621
0.019650554 0.02556772 -0.034020465 0.016986502 0.011867694 -0.010423451 0.00042700517 -0.023746248
0.033195794 0.0037424802 -0.0057418146 0.032987908 0.031613823 0.021681897 -0.045526657 -0.008098774
0.037931148 -0.024708744 -0.029026018 -0.0020954432 0.028875165 0.011659382 0.033322643 0.042908072
0.01160938 -0.004533336 0.00708596 -0.0012703304 -0.016251873 -0.010276816 0.04517168 -0.015250278
-0.00429664 0.00028749424 0.03721118 -0.014056505 -0.018869814 -0.024369303 -0.0051737376 0.039323594
0.023734724 0.0021587233 0.020925267 0.029487383 0.012903373 0.031268656 0.011719602 -0.031135952
-0.022938484 0.0006426993 -0.020836461 -0.0013411536 -0.023406984 -0.005303115 0.006141541 0.039944295
-0.022161216 -0.022617208 -0.031118846 -0.0108933365 0.030491836 -0.01816647 0.00478507 0.004952517
0.018309405 -0.030048028 -0.027234098 0.014537897 0.0051990743 -0.030636637 -0.0031624553 0.0049505504
0.023691067 -0.033129156 0.019566916 0.024991548 0.01578491 -0.0228807 0.006647169 0.034906354
0.022975266 -0.0047839307 -0.021410517 -0.03807636 0.037504405 -0.0033744911 -0.017005304 -0.014247477
-0.02518465 -0.0012163031 0.025806742 -0.006148735 -0.042192202 -0.0001913657 0.0046989024 0.009210331
-0.01846159 -0.0035565365 0.041454174 -0.01305618 0.022252005 0.0010679008 0.015068158 -0.02946554
-0.032120693 0.027506907 -0.03435342 -0.0148073295 -0.02621329 -0.03277138 0.0069499547 -0.029416613

bias f4 [64]
00000000: 2c4e 33bc 6a4f eabc 0c57 77bd 183f 0ebc
00000010: e346 00bd 200b 4dbd 27e9 95bd 9cd5 0cbd
00000020: 8ff3 72bd c193 5e3c 6432 4e3b 76bc 9ebc
00000030: 296b 75bd 91c3 ce3c 05f6 ae3c 59c2 2d3d
00000040: 048c e1bc 7f4b e5bc 9bd7 b8bc aa1e 633a
00000050: dfcc 2939 01b7 97bc 6aee c23a aa59 26bd
00000060: fa8a 19bd c52e 85bc ca3b 37bd 45a5 45bd
00000070: 69e9 b23c 1909 a43a 8d26 983c bb59 79bc
00000080: c323 063c 013f 8fbb 7c65 5cbd e92d fe3c
00000090: 6441 af3c 7870 f5bc a2d5 09bd 0737 a2bc
000000a0: f44c 39bd e65c 6abc 67ff bcbc 5a95 143d
000000b0: af76 cc3b 2250 cd3c 9757 febb f2d5 59bc
000000c0: 3527 a7bd eabd cabb 1bd2 3fbc 35aa 58bd
000000d0: fb95 ad3a 0a5c b9bb 4c79 17bd 576f 79bc
000000e0: a295 be3b c6ab dbbc fc7f f53c 0802 38bd
000000f0: 4a6f fbbc 589b 01bd 4890 1fbd f64f 7ebc
-0.010943931 -0.02860232 -0.06038575 -0.008682035 -0.031317603 -0.050059438 -0.07319861 -0.0343834
-0.059314307 0.013585032 0.003146314 -0.019376975 -0.05991665 0.025239738 0.021357546 0.042421672
-0.027532585 -0.0279901 -0.022563746 0.0008663932 0.00016193416 -0.01851988 0.0014872078 -0.040612854
-0.037486054 -0.016257653 -0.044734754 -0.048253316 0.021839814 0.0012514918 0.01857307 -0.015219147
0.008187237 -0.0043715243 -0.05380772 0.031027751 0.021393485 -0.029960856 -0.033651 -0.01980163
-0.045239404 -0.014304375 -0.023071004 0.036275245 0.006239734 0.025062624 -0.0077619064 -0.013295637
-0.08161775 -0.0061871903 -0.011707808 -0.052896697 0.001324355 -0.005656724 -0.036980912 -0.015224299
0.0058161775 -0.026815306 0.029968254 -0.044923812 -0.030692715 -0.031642288 -0.038955957 -0.015521994

weight f4 [64, 1024]
00000000: 0e92 b3bb 8ef3 0c3c a3f5 c1bc 0493 c63c
00000010: 63c7 9b3c a413 063d 88d5 76bc 7a93 30bc
00000020: aadc 4e3c 3888 a73b 1e94 37bd 0793 203c
00000030: 9e77 083d 390d b23c ecd8 a33a 9993 f5bb
00000040: 381b ccbc d48f 153d 57e4 813c 5a96 c6bc
00000050: 5fe9 933c b595 033d 2465 31bc c704 133c
00000060: 43c1 2a3c d966 f33c 4b18 4cbc f8da 263c
00000070: 2d0e 82bc 7884 a736 0e08 c63c 79be 0c3c
00000080: 210a 5f3c 3f4c a13c 3fd6 6f3b cc00 ea3c
00000090: 5ecd 283d 2793 953c 9c47 713c 2b57 0d3c
000000a0: a720 df3c 42ad b5bc b3d8 fc3b e20e c53c
000000b0: 3eec 4bbc 707a 12bb 036d 023d 9ec5 d4bc
000000c0: decd c23c 1a16 d8bb b67d 45bc 1642 0d3c
000000d0: 4aa2 91bc 0202 b63c 58c7 6abc 502f f1bc
000000e0: 938b 143c a3e2 c23c 6a6b fc3b 2198 1fbd
000000f0: bc96 02bd 83f5 9939 7c15 713c 16ee 8f3b
00000100: c9d5 35bc de39 b839 b542 ef3c b5dc 583c
00000110: 334a b13c 6e02 8abc 479a 01bb d437 77bc
00000120: 3e84 043c c359 153c 81e6 a73c 41c8 f2ba
00000130: edc5 cabc 5d29 d5ba 14b7 8bbc 08ca 3b3c
00000140: f283 0b3c 0be6 bb3c 649f d1bc 4ba0 473b
00000150: a7ce 65bc 21d2 4c3d 5544 603c bae1 ae3c
00000160: fa7f d4bc dfc6 d83c f333 a83c 23ef c4bc
00000170: f3c8 67ba 2834 7d3c b71c c13c c048 9fbc
00000180: b936 e5bc 119b b0b9 a931 e03c f0bc 24bc
00000190: e66c 563c 5480 303d b002 6f3c e257 b2bc
000001a0: bd0f 9ebb 2eb5 a5bc 546e 2d3b 7448 a03c
000001b0: a839 49bb f65f 883b 12fc c1bc c0a5 48bc
000001c0: 4fbb 383c f010 acbb f65e 12bc 52bf 563c
000001d0: 32f1 3d3c 685b 00bd c02c 46bc f2ee 9dbc
000001e0: 2169 c0bb 4667 673c ea07 29bc 6462 8c3c
000001f0: 27c9 bb3c 32a0 6cbc 0b7a 073b 6799 4b3c
00000200: fa1c 7ebc 8427 143d cb1d c13c 8124 f13c
00000210: c6b4 b33b d9ad 113b 501b 41bc e08a 3dbc
00000220: abb0 c83c 3ab9 873b db93 b1bc 7d19 303c
00000230: f5f6 113c 6f6b ec3c 497f 14bd 651c 15bd
00000240: 0659 a93c ad4a 33bb a5fd 513c 139c bfbc
00000250: 402e 62bc cf22 efba cdfd 1fba ad55 bdbc
00000260: 410e 95bb e441 0a3d 79d8 003d d180 f83c
00000270: e713 f83a 9bb9 913c f1f5 6bbc 43c8 ea3b
00000280: ce18 dd3c f928 053c 180f 41bc aa6b 9fbb
00000290: 297c 80bc 64d9 34bc 1061 d13c a321 12bb
000002a0: 6c72 063d df4e 8fbc ddea 7fba c41f 10bc
000002b0: d702 bd3b 13e0 35bb af41 d73c 64d5 c6bc
000002c0: 3b74 aebc 059a 8dbc 2cce b03a 0e92 22bb
000002d0: 0bd2 193b f026 0b3d 7a99 8ebc 9aaa c8bc
000002e0: 6daf 75bc 223a 343d f335 133c 191d 4a3c
000002f0: c0a4 dcbc 4902 fd3c d5bd cfbc e3d7 2c3a
00000300: af8a a53c 4628 543c 7781 c6bc 5090 903c
00000310: 36aa c63c e920 1e3d f27c f73c 1d97 f5ba
00000320: 7685 1e3c 65c9 153d 84af e0bc e7dd 1bbc
00000330: 9d26 dfbb 35a7 29bc 7858 a8bc 0fd9 8fbc
00000340: 0261 2c3d 3ff2 f83c ca16 ab3c 787c 863c
00000350: b78e f43c f47d 09bd b05a 2e3a b2bd ba3c
00000360: f3e5 053c 20e5 f03c c908 6e3b 0a37 843c
00000370: ecb4 873b 2f67 fc3c 81f4 573c 1a88 bebc
00000380: 431b b23c 932f 04bd 1857 adbc b4b3 95bc
00000390: d03b 94bc 81c9 7a3c 0272 81bb e982 ba3c
000003a0: c015 22bd c19a fabc b483 a7bc f6b9 b83c
000003b0: efa2 1d3c 3fa0 323c 3dc6 1e3c 84c0 80bc
000003c0: 83aa 20bd b19b 15bc 4d05 f73c c5ab 0dbb
000003d0: b67b 92bc a05f d8bc fd02 393c 1285 e8bc
000003e0: e259 b4bc 4d6e 2dbc b2eb c83a 1762 9cbc
000003f0: dcb2 a8bc c1c2 f0bb d712 ad3a 067e 9f3c
-0.0054800576 0.00860299 -0.023676699 0.024240024 0.019015973 0.032733575 -0.015065558 -0.010777349
0.012625853 0.005112674 -0.04481899 0.009800679 0.0333172 0.02173482 0.0012500561 -0.0074944017
-0.024915323 0.03651412 0.015855951 -0.024241615 0.018055616 0.032125194 -0.010827336 0.008973307
0.010422054 0.029712128 -0.012456964 0.010184042 -0.0158759 4.9924092e-06 0.024173763 0.008590334
0.013613255 0.019689677 0.0036596206 0.028564833 0.04121148 0.018258644 0.014726546 0.0086267395
0.02723725 -0.022177342 0.0077162622 0.024054948 -0.012446461 -0.002235081 0.031842243 -0.025973137
0.023779806 -0.0065944316 -0.012053898 0.008621713 -0.01777758 0.022217754 -0.014329754 -0.029441506
0.00906648 0.02378971 0.0077032344 -0.03896344 -0.031882033 0.00029365355 0.014714595 0.0043923957
-0.011098334 0.0003513833 0.029206613 0.013236214 0.021641826 -0.016846862 -0.0019775794 -0.015088994
0.00808817 0.009115639 0.020495655 -0.0018522815 -0.024752581 -0.0016262938 -0.017055072 0.011461742
0.008515345 0.022936841 -0.025588699 0.0030460532 -0.014026321 0.050005082 0.013688167 0.02134787
-0.02593993 0.026462017 0.020532584 -0.02403981 -0.00088418945 0.01545433 0.023573263 -0.01944387
-0.027980195 -0.0003368487 0.02736743 -0.010054812 0.013087487 0.043091133 0.014588043 -0.021770421
-0.0048236535 -0.020227995 0.0026463466 0.019565798 -0.0030704532 0.00416183 -0.023679767 -0.012246549
0.011275127 -0.0052510425 -0.008933773 0.013107138 0.01159315 -0.03133717 -0.01209563 -0.019278977
-0.0058719073 0.014123743 -0.010316828 0.01713676 0.022923065 -0.01444249 0.0020672109 0.012426711
-0.015509838 0.036170498 0.023573777 0.029436352 0.0054841964 0.0022228865 -0.011786297 -0.011568755
0.024498304 0.004141954 -0.021676948 0.010748264 0.008908977 0.028859822 -0.0362542 -0.036404032
0.020672332 -0.0027357743 0.012816821 -0.023389852 -0.013804972 -0.0018244627 -0.0006103188 -0.023112142
-0.0045488183 0.033754244 0.031456444 0.030334862 0.001892683 0.017788699 -0.014401899 0.0071649863
0.026989367 0.008127444 -0.011783384 -0.0048651295 -0.015684204 -0.011038158 0.025558978 -0.002229788
0.032823965 -0.017493663 -0.00097624754 -0.008796636 0.005768161 -0.0027751967 0.026276438 -0.024271674
-0.021295657 -0.017285356 0.0013489178 -0.0024806294 0.0023471143 0.03397268 -0.017407168 -0.024495412
-0.014995438 0.044000752 0.00898503 0.012336039 -0.026934028 0.030884879 -0.025359074 0.0006593449
0.020207731 0.012949055 -0.024231656 0.017646939 0.024251085 0.038605604 0.030210946 -0.0018737052
0.009675374 0.036569018 -0.027427442 -0.009513355 -0.006810023 -0.010354807 -0.020549998 -0.017559556
0.0420847 0.03038895 0.02088489 0.016416773 0.029853208 -0.033567384 0.0006651087 0.022795532
0.0081725 0.02940613 0.0036321154 0.016139526 0.0041414406 0.03081092 0.013180853 -0.023258258
0.021741515 -0.032271933 -0.021159694 -0.018274166 -0.018094927 0.015306831 -0.0039503584 0.022767501
-0.039571524 -0.03059137 -0.020448543 0.02254961 0.009621366 0.010902463 0.009690818 -0.015716799
-0.039225113 -0.009131358 0.030153895 -0.0021617275 -0.017881256 -0.026412785 0.011292216 -0.028383765
-0.022015516 -0.01058538 0.0015329032 -0.019089742 -0.0205931 -0.007347435 0.0013204467 0.019469272

bias f4 [64]
00000000: c8bf f9bc a9d6 0dbd f88a a73c f60f 6ebc
00000010: f8a2 f63b 9e26 b03b 8a66 9b39 aa60 6c3c
00000020: b136 1bbd c719 afbc 9a1b e33a 70b5 61bc
00000030: 1a29 cb3c 7ee9 673b 1807 e3bc a8f7 923c
00000040: 01e9 30bc 39bf 843c bc2d 38bc 7c55 4e3d
00000050: 1f37 693c 514a 773d d3cd 413d 237b afb9
00000060: e4ab 683b 1a6d 22bd 370d 193c b8cd 9abc
00000070: ad25 20bd 99eb 54bd c950 bf3c c575 58b9
00000080: 2db3 debc 2b88 f03c 9c94 06bd 7e47 f73c
00000090: a16d e1bc 3eb4 a23d dea2 68bb 6348 673c
000000a0: e8a2 84bb 33c8 923c aeb7 0cbd 1d23 203d
000000b0: ffff 333c f796 dfbc 903f 33bd 0fa0 91bc
000000c0: bc99 403d 9820 8c3c f5c5 4ebb 9c39 543c
000000d0: 0b1b 69bc 4e3a b23c 6426 1bbb 6a58 673d
000000e0: e3ca 8f3c 8966 b439 1aab 71bd fc81 dbbc
000000f0: c28d 073d c47e a3bb cd90 3dbd bc58 543c
-0.030486956 -0.034628544 0.020452008 -0.014530173 0.0075267516 0.0053756973 0.000296403 0.014427343
-0.037893955 -0.021374596 0.0017326951 -0.013776168 0.024799872 0.0035386975 -0.027713344 0.017940357
-0.01079774 0.016204463 -0.011241373 0.050374493 0.014234333 0.060373608 0.04731543 -0.00033470345
0.0035502845 -0.03965483 0.00934153 -0.018896922 -0.03909843 -0.051982496 0.023353951 -0.00020643238
-0.027185047 0.029361805 -0.03285657 0.030185457 -0.027518095 0.07944535 -0.0035497467 0.014116379
-0.0040477403 0.017917728 -0.034354858 0.039095987 0.010986327 -0.027293665 -0.04376179 -0.017776517
0.047021613 0.017105386 -0.0031551097 0.012953188 -0.014227639 0.021756317 -0.0023674006 0.056480803
0.017552799 0.0003440867 -0.059001066 -0.02679538 0.033094175 -0.004989477 -0.04628067 0.012960609

weight f4 [10, 64]
00000000: 02bd c7bd 2f0c 08bd 14dc 96bc 6bff 3bbd
00000010: 9d90 983d 2726 11be 8490 2d3e 134a 923d
00000020: eb4b a93d 5142 23be 07e0 92bd 64f1 003d
00000030: b0eb 953c 1571 683d 1d95 a5bb d3f5 d7bd
00000040: df80 f93b ea58 14be e69a d73c 2f94 b8bd
00000050: 3cac 00bb 8bf1 e2bd d5ec 51be c7a9 5abc
00000060: f10c 15be fec1 95bd 1cc9 86bd 0659 13bd
00000070: d7fd bcbd d32b b53d c25c f0bc 7059 0abe
00000080: 2e30 873d 9618 3c3e b2d3 95bd d241 94bd
00000090: 1e7e bf3c 3e9c dabd 7ce3 bbbd d28a 98bd
000000a0: 7c87 063d 1779 683e 8cf3 08be 9c82 4bbe
000000b0: 2605 323d 9de0 1a3e 865a 313e 4c66 4ebc
000000c0: a2bd f6bd 9234 213d 89f1 4abe 0635 de3d
000000d0: 3992 953d 2aa0 febd b932 243d f6e6 ecbd
000000e0: 9795 033e 8681 6cbe cba2 103e 272b 433e
000000f0: 590f 50be 63ae f0bd 8412 363e fa2d dcbd
00000100: 8958 1fbe bb2d d43d 6344 913e 9dab ad3d
00000110: 2cd9 d0bd 52ef 183e 8b2a d0bc 215f 7cbe
00000120: 5d8a 623e 6216 4b3e 874f 70be 16a4 4dbe
00000130: 12d6 80bd 439b 26bc 6b3f ef3d 200a 593b
00000140: 6371 2c3e ae55 5bbe 5e12 0d3e c73a f73d
00000150: b83e 73be caee a4bd 57fc 89bd bb18 a33d
00000160: 0a14 17be 6919 693d 9c5b e3bd 0c09 d9bc
00000170: 1d70 f1bd a376 a8bc 254f 41bd 43e0 1c3e
00000180: ff9a 1b3d 024b 66bc 387e b83c 4708 3f3e
00000190: ffdb d93d cd1f b9bd a845 783e 19ea 66bb
000001a0: 740f de3d 33c1 843d c3d9 563e 7627 c13d
000001b0: 7233 b23d e135 fe3c 285f 393e 23be 4b3e
000001c0: 20f1 11be 8b74 383d 4c79 863d f874 333e
000001d0: d33a cfbd 52d2 9e3d 82c4 25be be0a 10be
000001e0: 797e c93d 20bb 54bd 6518 f6bd 11c5 163d
000001f0: 1e89 a2be 70ea 463d 5508 b8bd 7254 4b3e
00000200: 76d5 da3d 237e ea3d dfd9 4ebd 9f23 c53d
00000210: ba02 9d3c bc22 32be 48c7 d03d 6849 9f3c
00000220: e260 d9bd aeac 16bd 8074 d8bd fdbf 573e
00000230: 7d4d f33b 6df4 aebd 7196 72bd b495 743b
00000240: a42f fbbd e7e7 b33d 0683 a63d 78ed 423e
00000250: 296e e53d 95e2 b4bd b8dc efbd 419e e03d
00000260: 6760 93bd aff5 d4bc 5518 ce3a d7a8 d8bd
00000270: ee35 e83d 66d1 073e 4580 12be 2aa3 91bd
00000280: 21d9 97bd c53c 2cbe 0b6e 2fbe 8c85 1fbe
00000290: 9889 b8bb 8a62 5fbd c876 d33c 6825 313e
000002a0: 42a1 0fbe b850 723e 90cd 99bc 0f71 26be
000002b0: 2871 86bd 1ed9 04be a155 99bd 2dc9 0fbe
000002c0: 146a 5dbd f128 88bd e114 f53d 2bd9 efbd
000002d0: 09f7 2dbe 1515 06be 4502 543e eb3a fa3d
000002e0: a970 86bc ec52 babd 1179 933d dc7c cc3d
000002f0: cbef 053e 05b9 153e e9e9 523d e44c 9e3d
00000300: eb80 32bb 23b4 b43a c07f 173a b512 c6bd
00000310: d31b 3d3b 5543 89bd 016a 14be a524 ef3d
00000320: c2f3 fe3d db33 71bd ec7f 4a3d 97ab be3d
00000330: 276e fc3d affd ba3c 3958 d6bd 591d 6e3d
00000340: 8063 e8bc ec39 0f3e fb5b aebd 93f8 143e
00000350: ac84 cbbc 6137 133e f48e 323e c028 b8bd
00000360: b311 5c3e db83 bc3d 2cdd 33be 1449 423e
00000370: 3bc0 adbc 6160 e7bd 6ffa d8bd 851c 27bd
00000380: 5124 aebd f482 8f3d 9855 99bd 56ef c8bc
00000390: f5bc d3bd fd88 c33b 59f4 7a3c c2ae 46be
000003a0: a88b a9bd 5060 c13d 087f 15bd bbf9 adbd
000003b0: ab89 00be 4ec2 b23d 8cc8 debd 8f1c 893a
000003c0: e707 d3bd 3027 eebd 5ec4 233e cd0c 9abc
000003d0: e072 9bbd 308b eebd 3ea1 f6bd a907 1c3e
000003e0: 1707 6e3d 89b4 41bd ca2b 06be 599c f5bc
000003f0: d09e 023e 1afc 7fb8 46b2 2e3d 7e8c db3d
-0.09752847 -0.033214744 -0.018415488 -0.045897882 0.07449458 -0.1417471 0.1694966 0.07143035
0.08266433 -0.15943266 -0.07171636 0.031480208 0.018300861 0.05674847 -0.005053176 -0.10544934
0.0076142396 -0.14487043 0.026318979 -0.09012639 -0.001963391 -0.11081227 -0.205005 -0.013346142
-0.14555718 -0.07312392 -0.06581327 -0.03597357 -0.092281036 0.088462494 -0.029341105 -0.1351068
0.066009864 0.18368754 -0.07315768 -0.07239117 0.023375567 -0.10674332 -0.091742486 -0.07448353
0.03284405 0.22702442 -0.13374156 -0.19874042 0.04346194 0.15124746 0.17319688 -0.012597632
-0.12047888 0.039356776 -0.19818701 0.10849957 0.073032804 -0.124328926 0.040087435 -0.1156749
0.12850033 -0.23096284 0.141246 0.1905943 -0.20318355 -0.117520116 0.177805 -0.10750957
-0.15561117 0.10360285 0.28372487 0.08479998 -0.10197672 0.14935043 -0.025410911 -0.24645664
0.22123094 0.19832757 -0.23467837 -0.20082125 -0.06290831 -0.010168853 0.11682018 0.0033117607
0.16840129 -0.21419403 0.13776538 0.12071758 -0.23754394 -0.08053358 -0.06737583 0.07963701
-0.14753738 0.056909 -0.111014575 -0.026493572 -0.11788962 -0.020564383 -0.04719462 0.15319924
0.037989613 -0.014055969 0.022521123 0.18655501 0.10637664 -0.09039269 0.24245322 -0.0035234748
0.10842791 0.06482162 0.20981507 0.09431355 0.08701219 0.03103155 0.18102705 0.1989675
-0.14252138 0.04503302 0.06566104 0.17525089 -0.10118642 0.07754959 -0.16188243 -0.14066598
0.09838576 -0.05193627 -0.12016372 0.03680903 -0.31745237 0.04856342 -0.08985964 0.19856432
0.10685246 0.1144984 -0.050500747 0.09625935 0.01916634 -0.17396063 0.1019426 0.019444183
-0.10614182 -0.036785774 -0.105690956 0.21069331 0.007425009 -0.08542714 -0.059225503 0.0037320675
-0.12264946 0.08784466 0.081304595 0.190359 0.11202652 -0.088322796 -0.11712021 0.109676845
-0.07196122 -0.025996057 0.0015723804 -0.10579079 0.11338411 0.13263473 -0.14306743 -0.07111199
-0.07414461 -0.16820057 -0.17131822 -0.15578288 -0.005631637 -0.054537334 0.025813475 0.17299426
-0.14026359 0.23663604 -0.018774778 -0.16254066 -0.065645516 -0.12973449 -0.074870355 -0.14041586
-0.054056242 -0.06648434 0.11966873 -0.117113434 -0.16988768 -0.1309398 0.20703991 0.12218269
-0.016411142 -0.09097847 0.07200826 0.099847525 0.13079755 0.1462136 0.051492605 0.077295095
-0.0027237486 0.0013786595 0.0005779229 -0.09671537 0.0028855696 -0.06702296 -0.14493562 0.11676911
0.12448837 -0.058887344 0.049438402 0.09310072 0.123256974 0.022826044 -0.10466046 0.058133457
-0.028367758 0.13986939 -0.08513638 0.14547949 -0.024843536 0.14376594 0.17437345 -0.089921474
0.21491127 0.09204837 -0.17564839 0.1897319 -0.021209827 -0.1129768 -0.105946414 -0.040798683
-0.085030206 0.07007399 -0.07487029 -0.024528187 -0.10338775 0.005967258 0.015317046 -0.19402602
-0.082785904 0.09442198 -0.0364981 -0.08494898 -0.12552516 0.08728467 -0.10878095 0.0010460782
-0.103042416 -0.11628568 0.15992877 -0.018804932 -0.0759027 -0.11647642 -0.12042473 0.15237297
0.05811223 -0.047291312 -0.13102642 -0.029981779 0.12755895 -6.1031526e-05 0.042650484 0.10720156

bias f4 [10]
00000000: 3028 ecbc 3b56 7b3d 1602 853c bdd4 76bd
00000010: 9598 123e a0ea 8abd 656f 323c 006f ccbd
00000020: ea05 6dbd 9a56 453c
-0.028827757 0.061361533 0.016236346 -0.060261477 0.14316018 -0.067830324 0.010890816 -0.09982109
-0.05786697 0.012044573
