test_5.pth (torch, 587207 bytes, 10 tensors)

weight f4 [32, 3, 5, 5]
00000000: c6c0 efbc a74e 9f3c 8865 9abc 4655 453d
00000010: efb7 c43d c685 e4bd ecbc 50bd 7241 363c
00000020: 6087 4c3d 1c1f c8bd 3103 68bd 17ea 673d
00000030: ef35 c23d 862d 0c3e 3a1d 14bd 057d 93bd
00000040: b0b6 8dbd 06d9 083d 2a14 8e3d 7aff 2e3d
00000050: 0251 96bd 47fe b63d b6a2 3d3e 0533 d43d
00000060: 4da6 cdbd f8ae 0ebe 7663 77bd 96b2 0f3e
00000070: 12f8 643d ccd9 113e c38e a8ba 2e4a bfbc
00000080: fb39 173e ba6c 013e fff5 253e 8cdd 5fbd
00000090: e3a0 fd3d 15e0 5f3d 5d0a e43c ac32 b83c
000000a0: 03d9 133d a4a2 863d a6ad 323e 3603 c33d
000000b0: aec2 b93d 0153 9bbd 933f 893d 3717 633e
000000c0: 849c bb3d d2ee adbc f886 5cbe 4a64 33be
000000d0: 627f 75bd 0562 0e3a 0814 2dbe 71e4 28be
000000e0: 80f6 07bc a404 53bd 905a 01be 0f9c 1dbe
000000f0: 5a21 e6bd 5b5a 43be cd39 11be 680c c2bc
00000100: 1af2 db3c 1790 26be 48ed 40be 81da ac3d
00000110: f5c1 1bbe 4962 66bc fc01 5cbd 843b 12be
00000120: 0b02 90bb b0ab b7bd 33a1 79bb 897e 23be
00000130: 47ee 7bbd e9ba 703d 54e4 e9bc b5ef e4bd
00000140: 727c cfbd 81ef 77bd 712f ffbd d10b 9cbd
00000150: 0b41 f0bd 8388 713d c48e c6bd e83a e2bd
00000160: 0471 773d 2569 05be 1a98 d4bd 6a85 5b3b
00000170: 11d7 aebd f516 acbd f264 493d b64f e03d
00000180: 5f82 c1bd c787 0f3e 1847 313d fabe 9cbd
00000190: 619e e5bd a397 b1bc fb8c 70bb c189 d8bc
000001a0: 5d14 ab3c ebcf c23d 54ba 04be 9d94 8ebd
000001b0: e09e 24bd f999 d9bb 4259 d43d c908 bdbc
000001c0: 6e07 693d abd2 b53d 85d6 09bc ac91 103e
000001d0: 6625 1b3e 8d9d b13d b1a8 093e 7cf1 bc3d
000001e0: 7fbc 1f3e e816 123e 1cb3 53bc 310f ed3c
000001f0: b015 083e 3b41 f7bd 6f53 d3bd 25c9 ccbd
00000200: bb03 12bc c17c 913c 1274 0abe e61e 473c
00000210: 89ce 563d d879 e4bd f711 723c fe5e 9bbc
00000220: e447 b6bd a024 4f3d 4f11 073d ed7f 6b3d
00000230: 40ca 48bd 3126 08bd f63d 803c 03da b3bd
00000240: 593c aa3d ca27 c43d 3653 a23d f73e fc3d
00000250: b8a0 033e 3318 143e c686 10be 98cc b0bd
00000260: d858 82bb bdad 02be f362 d9bd 95f4 71bd
00000270: fc54 713d 0759 a5bd a34f fa3c 20d5 6cbd
00000280: 0a2b 3ebd 0685 8fbd 34e4 bebd 317e e93c
00000290: 6d7e 09bd 1984 d13d 20f7 8f3d 9da6 6b3d
000002a0: e19c b13c fb93 06bd 6139 323d 715d bdbd
000002b0: 8ec5 ae3d d4ca 9cbc 88bc 283c 9caa 06be
000002c0: 11f0 13bd bbe5 0ebd 147f d03b 8216 9d39
000002d0: e47b e53d 08ad a0bd 5acc 373d 9dc8 003d
000002e0: 112f b23d 532e 4b3d dffc 15bd c646 053e
000002f0: 7112 833d 92a8 7dbd cb33 f43d 3edc 15bd
00000300: 34ff 193e ad79 fb3d 343c c83d f6e1 f83d
00000310: 795a ed3d 77ec 873d 3209 40bd daa9 823c
00000320: 3589 8bbd b7c0 c03d c86f 103d 857f 9fbc
00000330: e124 d0bd 44e6 d93d 22be 8cbd 580a d0bd
00000340: 0b64 c1bc 3bca 58bd 111f 7e3d 34d4 14bd
00000350: c875 8ebd 5a35 083e dcf6 c8bd 70f2 d4b9
00000360: 3b10 ab3c 4110 50bc a774 f23d 0a28 033d
00000370: 908f e93d 54a1 a0bd c53a debc b1b5 b3bd
00000380: f27b b03c ae54 e53d 5451 583d 180d 743d
00000390: 7a77 513c 319f 71bd 237b 913d 95c0 403d
000003a0: 67f5 123e a9da 14bd a6ba c13d f173 923d
000003b0: 70c2 833b 9ff8 97bd b861 0bbd a874 a73d
000003c0: a919 df3a 2db4 bc3d 45ee 01be cd55 e6bd
000003d0: 5ac5 0cbe d453 b73c 8eb4 9fbd a292 bd3d
000003e0: 14e0 743d 183b eebc 7093 bd3d d009 d4bd
000003f0: 9019 603c 0025 ef3d f3a0 de3d 6ac4 20bd
-0.029266726 0.019446684 -0.018847242 0.048177026 0.09605395 -0.11158328 -0.05096142 0.011124002
0.04993379 -0.09771559 -0.05664367 0.05661973 0.09482943 0.13689241 -0.036160685 -0.0720158
-0.069196105 0.033410095 0.0693744 0.04272411 -0.0733967 0.08935218 0.185191 0.10361294
-0.10041485 -0.13933933 -0.060397588 0.14032969 0.05590064 0.14243239 -0.0012859929 -0.023350801
0.14768212 0.12639132 0.16207121 -0.054654643 0.12384202 0.05465706 0.027836973 0.0224851
0.03609563 0.0657399 0.17449054 0.09522097 0.09070335 -0.07584191 0.06701579 0.22176825
0.09160712 -0.021232042 -0.21535861 -0.17518726 -0.059935935 0.0005431476 -0.16902173 -0.16493393
-0.008298516 -0.051518098 -0.12632203 -0.15391563 -0.1123683 -0.19077437 -0.14182205 -0.023687556
0.026848841 -0.16265903 -0.18840516 0.08440114 -0.15210707 -0.014061519 -0.05371283 -0.14280516
-0.004394775 -0.08968294 -0.0038090467 -0.15966238 -0.061506536 0.058772 -0.028551258 -0.11178533
-0.10131158 -0.060531143 -0.124602206 -0.07619441 -0.11731156 0.05896808 -0.09695199 -0.11046392
0.060410514 -0.1302839 -0.103805736 0.003349627 -0.085371144 -0.08402816 0.049168535 0.10952704
-0.094486944 0.14016639 0.04328069 -0.076536134 -0.11211849 -0.021678751 -0.0036705125 -0.026432874
0.020883733 0.095123135 -0.12961704 -0.069619395 -0.040190578 -0.0066406694 0.10368587 -0.023075478
0.05689185 0.08878072 -0.008412962 0.1411807 0.15150985 0.086726286 0.13443257 0.09225747
0.1559925 0.1426655 -0.012921121 0.028937908 0.13289523 -0.120729886 -0.10318648 -0.09999303
-0.008912022 0.017759683 -0.1352084 0.012153363 0.05244306 -0.11156052 0.014774791 -0.018966194
-0.08900431 0.050572038 0.03297549 0.057495046 -0.049021006 -0.033239547 0.015654545 -0.08781817
0.08312292 0.09577902 0.079260275 0.12316697 0.12854278 0.14462356 -0.14113912 -0.08632773
-0.003977876 -0.12761588 -0.10614576 -0.059071142 0.058918938 -0.08073621 0.030555552 -0.05782044
-0.046427764 -0.07007794 -0.0932087 0.028502556 -0.033567835 0.10230274 0.07029557 0.05753194
0.021681251 -0.03285597 0.043511752 -0.09246338 0.08533774 -0.019139685 0.010298856 -0.1315102
-0.036117617 -0.034887057 0.006362805 0.00029962143 0.11205271 -0.07845503 0.04487262 0.03144132
0.087003835 0.049604725 -0.03661811 0.13015279 0.06400002 -0.06192834 0.11923941 -0.036586992
0.15038759 0.12279067 0.09777108 0.12152474 0.11589522 0.06636899 -0.04688377 0.015950132
-0.068132795 0.094117574 0.035262853 -0.019469986 -0.10163284 0.10639623 -0.068722025 -0.10158223
-0.023607275 -0.052927237 0.062041346 -0.036335185 -0.06956059 0.13301602 -0.0981271 -0.0004061642
0.020881763 -0.012699188 0.11838656 0.032020606 0.114043355 -0.07843271 -0.027127633 -0.08774889
0.021543477 0.11197792 0.052811936 0.0595828 0.012784833 -0.058989707 0.071035646 0.04705866
0.14351426 -0.036341343 0.094594285 0.0715102 0.0040209815 -0.074204676 -0.03402874 0.08176547
0.0017021197 0.09214053 -0.12688549 -0.11246834 -0.13747159 0.02237884 -0.0779811 0.092564836
0.05978401 -0.029080912 0.09256637 -0.10353434 0.01367797 0.11676979 0.108705424 -0.039249815

bias f4 [32]
00000000: 21e2 803e 428a 85bd d8c0 b53c 5036 0dbe
00000010: d5a0 65bb 026d cfbd a44c 0bbe 4fd9 febd
00000020: 759e 34bd 4031 cc3d 3da8 413e b25e 97bd
00000030: 20e6 023e 4b23 b9bd a0e3 903d 9053 673c
00000040: 122d 9ebd 2c5d 063e cee3 973e 86a8 26bd
00000050: e3b3 c73b 0a18 0a3e ab7a 11be 29ae 323d
00000060: 0480 93bd a211 b3bd 90c1 7a3e 60da e0bd
00000070: 20a4 69be d772 85be 122a 69be eabb 31bd
0.25172523 -0.06520511 0.022186682 -0.1379025 -0.003503849 -0.101282135 -0.13603455 -0.12443792
-0.04409643 0.09970331 0.18911834 -0.073911086 0.12783098 -0.09039935 0.07074666 0.014119044
-0.0772344 0.1312148 0.2966599 -0.04068806 0.006094442 0.13485733 -0.1420695 0.043623123
-0.072021514 -0.087435976 0.244879 -0.10979152 -0.22816515 -0.26064178 -0.22769955 -0.0433921

weight f4 [32, 32, 5, 5]
00000000: 1fdb 90bc 5837 ccbc 73a3 1a3c 97ba 7ebc
00000010: c7d8 c63b 63a9 033a 52a5 803a f241 153c
00000020: 4fe7 9abc ca3b 00bc 9915 373d 8c55 f63c
00000030: 2fb9 3cbb 9c8e a3bc 60da 15bc ddfb 2d3d
00000040: 4ae9 06bd 6a9b 703b 775f 5a3c bf87 6f3c
00000050: e076 36bc 84e8 323c cd1a 003c 2a10 503c
00000060: f159 903c 6e7a 803c 2460 b5bc 5ad9 81bb
00000070: 4c48 1e3d d462 8ebc ece0 323d fdd1 c23c
00000080: 020c 223d 70a7 5f3d cf9c 063d b969 e7bc
00000090: 0d55 0bbd 867d 19bd 1db8 2cbd c958 2dbc
000000a0: 0321 9d3b ee55 0cbd 3911 bd3c b912 a3bc
000000b0: be65 0ebd ab07 b13c d743 c63b 4706 ae3c
000000c0: 2f40 25bd 7405 0fbd c0dd 193c 14cf 24bd
000000d0: 7314 d83b 4b86 503c 4f0b db3c 1f7d 29bc
000000e0: b368 423d f7d1 0cbc fbd2 a03a 12de c33a
000000f0: 436e 023d 5dd5 aa3c 6be1 f63c d8ab f1bc
00000100: d252 fa3c 90d5 40bc 339c 2fbd bf34 3abc
00000110: 6b27 1fbd 1fa8 7b3c d4c8 f9bb 43d0 96bc
00000120: 1453 dc3b 2f54 2eba 29e3 2dbc 96b2 e23a
00000130: c8d8 073b 8e39 f23c bb58 a2bc 61ba 913c
00000140: 6235 913c 3c68 093b 73dc c7bc 09a5 a23c
00000150: e458 7f3c fb89 833c 4e38 37bb bd08 243d
00000160: 1292 ccbc a276 93bc 57ba b03c a740 f63c
00000170: e7cc c7bb f340 59bc 3820 eb3c 8eea 6bbc
00000180: 0c4d b93c 1db2 ec3b 149f a33c dd7c 89bc
00000190: 4c74 293d 2b71 1f3d d4fe 68bc 917c dabc
000001a0: 7e98 a23c bbcf 903c e488 513d 8951 1f3b
000001b0: 9737 90b9 35af fd3b bdaf b33c bb05 25bd
000001c0: 1db7 d639 f31f 143c 6989 e3bb 2c8f b43c
000001d0: 78ec 7a3c 7814 9a3c 4a38 063d 78d4 68ba
000001e0: 474c 5d3c 0969 cfbb 9206 b93c 97bf 913c
000001f0: 1796 9f3b 96a4 8fbc 0446 babc c95f 2dbb
00000200: 5fa6 e1bc f8c1 9137 f663 c33b 902b 0e3d
00000210: ada0 0e3d f788 f43c 2b4d 143d bc86 843c
00000220: d7a2 93bc b641 413d e947 03bb 2a1b fd3c
00000230: 8a2b 4dbb 17f7 21bc b666 9ebc 6071 2d3d
00000240: a62a e03c a635 9c3c 30b6 de3c ddec 14bc
00000250: 68c1 3b3d b9f8 313d cd7b 7a3c 335e 21bd
00000260: 1416 4cbc d321 67bc 9b5d cd39 a811 243d
00000270: 3566 e0ba 3e07 33bc 119e 8cbc 7948 43bc
00000280: 01a0 413d ba94 663c 265d 673c 9472 943c
00000290: 9cab 0f3d a541 29bb 448f f93c 8eaa c43c
000002a0: 61fe a9bc 024f 433c edb6 be3c b985 a03c
000002b0: f03a 203d d7f1 9fbc 36e4 e53c 5598 153d
000002c0: 91ad fabc dc1c 243d 128c 00bc cd4e 123d
000002d0: 5c68 2e3d 25f9 b93b 8e1c 0a3d 5354 bd3c
000002e0: 8ac2 d43c 0a99 1a3d d3cf 2a3b 1c0e ec3c
000002f0: 766f f43c 756e 57bc 92da 023d f947 1ebc
00000300: d2a4 a53a af32 693c c530 cabc c0c9 0a3d
00000310: f5ea 3dbc 3a3e d93c aef6 59bc 6182 4a3c
00000320: e6c5 a53c f054 8d3c 3f47 f53b fb4f 60bc
00000330: 6250 03bb e129 08bc d016 263c 3c1a 19bd
00000340: 27ee 48bc fb91 643c d245 033b d652 603d
00000350: dee4 cd3b 72e8 263d dc1f 1f3d 8f9a a33c
00000360: ca81 183c ecb1 68bc 8fb9 bc3b 2d15 97bc
00000370: a55a 4e3d 8918 403d 0e4a a43c 6866 3ebc
00000380: 3aa2 a7bc 3a67 8a3c abd3 8dbc 2151 bfbc
00000390: a29d 1f3c 28ed 7ebc 0293 06bc 294f babb
000003a0: b733 25ba 203c 973c d3b3 273a 2acf 28bc
000003b0: 39de 403d 86f1 21bc 6af5 b33c 8c87 fb3c
000003c0: 1475 963c 9abb 593c a308 94bb 5c87 94bc
000003d0: d8ce 103d 7325 143d a8b0 3a3d 2f8d 4d3d
000003e0: 5882 983c 7dd8 bd3c 9ed2 8abc d482 e7bc
000003f0: e814 1d3d 5cd8 7bbb 6646 b2bc b839 343d
-0.01768261 -0.024928734 0.009438383 -0.015547416 0.0060683223 0.0005022494 0.0009814894 0.009109961
-0.018909125 -0.007826755 0.04469833 0.030070089 -0.0028796901 -0.019965462 -0.009146303 0.042476524
-0.032937326 0.0036713728 0.013328425 0.014619767 -0.01113674 0.010919694 0.00781889 0.012699166
0.017621012 0.015683379 -0.02214057 -0.003962678 0.038643166 -0.01738111 0.043671533 0.02378177
0.039562233 0.05460304 0.032864388 -0.028248655 -0.034016658 -0.037473224 -0.04216777 -0.01058025
0.004795195 -0.034261636 0.023079501 -0.019906389 -0.034764998 0.021610102 0.0060505676 0.021243228
-0.040344413 -0.03491731 0.009391248 -0.040236548 0.0065942346 0.01272733 0.02673879 -0.010344773
0.04746313 -0.008594981 0.0012269908 0.0014943501 0.031843435 0.020853693 0.030136785 -0.029500887
0.03055707 -0.011769667 -0.042873573 -0.011365115 -0.03885595 0.015359907 -0.0076228175 -0.018409854
0.006723771 -0.00066501176 -0.010613241 0.0017295654 0.0020728577 0.02956846 -0.0198177 0.017789068
0.01772565 0.002096667 -0.02439711 0.019854086 0.015585158 0.016057005 -0.0027957144 0.040047396
-0.024971996 -0.018000904 0.021573229 0.030060126 -0.0060974243 -0.013260114 0.028701887 -0.014399184
0.022619747 0.007223381 0.019973315 -0.016783172 0.041370675 0.038926285 -0.014220912 -0.026670726
0.019848105 0.017677179 0.05115594 0.0024310073 -0.00027507238 0.0077418336 0.021934384 -0.040288668
0.0004095369 0.00904082 -0.006943871 0.022040926 0.015315168 0.018808588 0.032768525 -0.0008881758
0.0135069555 -0.00632966 0.02258614 0.017791552 0.004870187 -0.017534535 -0.022738464 -0.0026454797
-0.027545152 1.737567e-05 0.005962844 0.034709513 0.0348212 0.029850466 0.036206406 0.016177528
-0.018021984 0.047181807 -0.0020031875 0.030896742 -0.003130647 -0.009885571 -0.019336086 0.04234445
0.027364086 0.01906855 0.027186483 -0.009089676 0.045838743 0.04345009 0.0152883055 -0.039396476
-0.012456436 -0.014107185 0.00039170388 0.0400559 -0.0017120304 -0.01092702 -0.017165216 -0.011919134
0.047271732 0.014073545 0.014121329 0.018121041 0.03507577 -0.002582648 0.030463822 0.024007108
-0.02075118 0.011920692 0.023280585 0.019595014 0.039118707 -0.019524498 0.028062921 0.03652223
-0.030600341 0.040066585 -0.007845895 0.03571968 0.042579994 0.0056754523 0.033718638 0.023111498
0.02597167 0.037743606 0.0026063814 0.028815322 0.029838305 -0.013148894 0.031946726 -0.009660714
0.0012637621 0.014233275 -0.024681458 0.03388381 -0.011591663 0.02651893 -0.013303442 0.012360186
0.020235967 0.017252415 0.0074853 -0.013690944 -0.0020036926 -0.008310766 0.010137275 -0.037378535
-0.012263811 0.01395082 0.002003063 0.0547665 0.0062833866 0.04074902 0.038848743 0.01997116
0.009308288 -0.014202576 0.005759425 -0.018442715 0.050379414 0.0468984 0.020054843 -0.011621095
-0.020463098 0.016894925 -0.017312845 -0.023354115 0.009742172 -0.015559472 -0.00821376 -0.005685706
-0.00063019566 0.018461287 0.00063973403 -0.010303298 0.047086928 -0.009884244 0.021967608 0.030704282
0.018366374 0.013289357 -0.004517631 -0.01813095 0.03535351 0.036168527 0.04557863 0.05018347
0.01861684 0.023174519 -0.016946133 -0.028260626 0.038350016 -0.003842852 -0.021762084 0.044000357

bias f4 [32]
00000000: 2b2d 7dbd 99d9 afbd 1c40 22bc 73d8 b83c
00000010: 773e 36bd 5bc4 9dbc c00b fcbb b8cb c0bd
00000020: e871 fc3a b43b 83bd 6412 0cbd d43b 98bc
00000030: 7929 89bc b3a8 a6bd f415 25bd 67f0 873c
00000040: 7f7b 82bd e966 18bc a755 85bd 7997 a8bb
00000050: c55b 563d 8e9b bdbc 3871 42bd db2c ddbc
00000060: 17b6 09bd 428d 75bd 17e2 a33c 5c26 3cbd
00000070: 251d a0bd df53 42bd b9b0 8abd 9b30 f73c
-0.061810654 -0.08586425 -0.00990298 0.022564149 -0.044493165 -0.019258669 -0.0076918304 -0.09413856
0.0019260021 -0.06407872 -0.034197226 -0.018583216 -0.016743409 -0.081376456 -0.04030414 0.016594125
-0.06371211 -0.009301879 -0.065104775 -0.00514501 0.052333612 -0.023145463 -0.047471255 -0.026998928
-0.03362092 -0.059949167 0.020005269 -0.04593502 -0.07818059 -0.047443267 -0.067719884 0.030174544

weight f4 [64, 32, 5, 5]
00000000: 67ed 7b3c 0aea 7f3c 61df 413c 0732 d73c
00000010: f54a 94bc 5aec 143c ee73 c63c cef0 f33b
00000020: 4e70 253d cfce db3c c9ad a9bb 9767 ecbb
00000030: e68e 363d fdd9 873b ffde d2bb c80a cd3c
00000040: c947 d9bc 88d6 cd3b 30fb c63c 6341 473c
00000050: 15b7 afbc 4638 d2bc 9cb0 c03c 78ba 1cbc
00000060: ada6 d23b 7a5c 013c e595 02bd 2bad 13bb
00000070: df06 d53c ed5c 59ba e836 a63c b4db 02bd
00000080: 5c5b 0f3c da9d 90bc 219f abbc 4a82 20bd
00000090: f756 263c 2537 003d b07e a33c afca 323a
000000a0: 455f b73c 37e3 a13c d523 38bd 9f11 02bd
000000b0: bd99 363d a27a 2fbc 70d1 d6bc 3e4e 1b3d
000000c0: 3b1e 783b 2d3b 1b3d 9f01 9abb d1bc 9fbc
000000d0: ae65 023d e198 de3b 1e27 93bc f7c0 d03c
000000e0: ab13 d1bc b224 073d 677b 153c e168 46bc
000000f0: f110 b3bc fdb9 43bc a8ef 343a e976 e03c
00000100: 9ceb 65bc dbd6 ae3c 6d8e 033d 5010 ecbc
00000110: fd21 633b 0b9e b3b9 dfba 0cbd 4938 8cbc
00000120: bc91 c9bc fbf2 2e3a b3a4 d0bc 30d2 62bc
00000130: cc40 95ba ee65 e9bb 528c dfbc 107e 1d3b
00000140: 5bb5 b03c 7f63 afba 26c0 4fbc 82b3 67bc
00000150: 63b0 163c 7cd9 16bd cfb3 1d3b 4fda 12b9
00000160: b512 033d df2f 02bd 1192 893b 2637 d3bb
00000170: 4645 ca3c 927e d1bc c031 8fbc eea1 cbbc
00000180: c70b 463c 42c7 fdbc e943 b23b 8155 0f3d
00000190: 72cf 9fbc 0b43 26bd 94a1 a6bc 934b 293b
000001a0: f4c3 023d 149e 00bb 2da8 90bc 3115 01bc
000001b0: 6ab5 bb3b 7b4d 36bc 37b7 d13c 0c23 563a
000001c0: 36d3 d5bc 7010 623b 34b1 473c d00c 083d
000001d0: a3fa 09bd 5398 6ebc 2587 0a3d e9cd ad3c
000001e0: b99d 75bc 8ce4 90bc 5874 0f3c 5415 13bc
000001f0: 1662 a43c 5044 96bb 61fe 23bc 3c43 e3bb
00000200: 7260 f13c e1d1 e13c 5c18 1b3b 5afb 9e3b
00000210: 00b4 863b f223 abba 8ee3 84bb d1c2 09bd
00000220: 36cd 13bd 2fc8 063d 78eb 413c a739 a33c
00000230: 8d79 153c 4dea 13bc d288 103d fb25 603a
00000240: 718d aa3c a3f1 b23c 6c43 1cbd 3087 633c
00000250: e4ce 093c 6cf8 55bc c0e1 c9bb afcd ccbc
00000260: 5c3b f13c 086c ce3b 4baa 2bba 70e7 053d
00000270: aed1 f83c 799d a93c 6b7a 1dbd 9c98 36bc
00000280: e30c 013d 6a0f aebc a4ff 77bc 1090 a5ba
00000290: a461 793c 8b94 8d3c 4526 1a3d ba75 2d3d
000002a0: f0ca 2f3c b83d b739 2279 0a3c 3bc3 bb39
000002b0: 221f 2bbc e45b 4ebb 7d8a 223d 5c8d 2abc
000002c0: fd90 193a dc2e 7f3b 674d 193d 3203 8cbc
000002d0: fc8d 53bc d5a5 c4bc b739 1ebc 8bef 0d3d
000002e0: 73fb 9d3c 803e c13a 575b a93c b3f1 e53c
000002f0: a27a 143c d848 e03c ac23 143c 8a35 04bd
00000300: 42d7 bbbc 9557 683b cac6 b2bc ab38 d4bb
00000310: aff5 d1bc b3c1 75bb 6cee af3b 1b90 243d
00000320: ffd0 9fbc aaea 70bc 3e2c c7bc 73b9 59bc
00000330: 3a15 0d3d 4265 08bc 2371 743c 82ea 753a
00000340: 3cf5 723c 6401 95bc a7da adbc e955 763c
00000350: 34de 6bba f129 aebc a5c3 a73b 3452 953b
00000360: b264 c33c 7f83 bfbc 9d3a bb3c fad7 d43c
00000370: 5ea4 4b3c 0132 b0bc bf12 0f3c cde0 0b3d
00000380: 55a9 053d 7788 10bc fd84 8bbc 8117 04bd
00000390: 9a89 273d 00ad f93b 9eb3 81bc 74a5 fe3b
000003a0: be6f 87bc 817e 79ba d7ac 283d 1bdd 20bb
000003b0: e5ef e4bc 3924 d7bb 5cf6 163c 3d59 bd3c
000003c0: f0a4 92bc 509e e0bb 0928 163d 9619 e9bb
000003d0: 2cbc d43c c094 afba 9e95 ba3b 6de2 debc
000003e0: 1e72 0cbd 4ba6 e73c 816b ffbc 8188 79bc
000003f0: 69d3 c1bc edcb f5bc 7e54 223c 7f5a e4bc
0.015376425 0.015619764 0.011833043 0.026268972 -0.018102149 0.009089554 0.024225201 0.0074444776
0.040390305 0.026832012 -0.0051781875 -0.0072144973 0.044569872 0.0041458593 -0.0064352746 0.025029555
-0.026523488 0.0062816776 0.024289697 0.0121615855 -0.021449605 -0.025661599 0.023521714 -0.009565942
0.0064285607 0.007895583 -0.03188123 -0.0022533636 0.026004253 -0.000829174 0.020289853 -0.031947806
0.008749809 -0.017653394 -0.020949902 -0.039186753 0.01015257 0.03130259 0.01995787 0.00068203633
0.022384295 0.019761665 -0.044956047 -0.031755086 0.04458021 -0.01071039 -0.026222914 0.037916414
0.0037859816 0.03789823 -0.0046999003 -0.019499214 0.03183525 0.006793127 -0.017962988 0.025482638
-0.025522074 0.03299398 0.00912366 -0.012109966 -0.021858664 -0.0119461985 0.00069021666 0.02740045
-0.014033224 0.021342685 0.03211825 -0.028816372 0.003465771 -0.00034259292 -0.0343579 -0.017116683
-0.024605624 0.000667378 -0.02546916 -0.013844058 -0.0011387109 -0.0071227467 -0.02728859 0.0024031438
0.021570852 -0.0013381093 -0.012680089 -0.014141919 0.009197327 -0.036828503 0.0024063473 -0.00014004971
0.032000262 -0.031783935 0.0041983207 -0.006445783 0.024691235 -0.025573049 -0.017479777 -0.024857488
0.012087769 -0.030978803 0.0054402244 0.034993652 -0.019508097 -0.04059128 -0.020340718 0.00258324
0.031925157 -0.0019625472 -0.017658317 -0.007878588 0.0057284134 -0.011126871 0.025600059 0.00081686745
-0.02610169 0.003449466 0.012188245 0.033215344 -0.03368629 -0.014562684 0.03382029 0.02121635
-0.014991217 -0.017687105 0.008755766 -0.008977253 0.020066302 -0.00458578 -0.010009379 -0.006935505
0.029464934 0.027565898 0.0023665642 0.004851741 0.004110813 -0.0013056977 -0.004055447 -0.033633057
-0.036084376 0.032905754 0.011835925 0.019924952 0.009123218 -0.00902803 0.035286732 0.00085505814
0.020819398 0.021843737 -0.038150236 0.013887212 0.008411143 -0.013059717 -0.0061609447 -0.025000421
0.02944725 0.0062994994 -0.0006548508 0.03269142 0.03037342 0.020704972 -0.038446825 -0.011144783
0.03150643 -0.021247584 -0.015136633 -0.0012631435 0.015221033 0.017282745 0.037634153 0.0423486
0.010729536 0.00034950464 0.008451732 0.00035812877 -0.010444434 -0.0031487877 0.039682854 -0.010409679
0.0005858092 0.0038937842 0.037427332 -0.017091367 -0.01291227 -0.024004856 -0.009657315 0.034652274
0.01928494 0.0014743358 0.020673437 0.028069353 0.009062441 0.027378485 0.009041708 -0.03227762
-0.022929791 0.0035452594 -0.021823306 -0.006476482 -0.025629846 -0.0037499487 0.0053689983 0.040176492
-0.019508837 -0.014704386 -0.024313089 -0.013288843 0.03444407 -0.008324923 0.014919552 0.00093809527
0.014828976 -0.01818914 -0.021222426 0.015035131 -0.00089976494 -0.021260234 0.005119758 0.0045569185
0.023851726 -0.023378132 0.022855097 0.025981892 0.012429325 -0.021508219 0.008732497 0.034149934
0.03263219 -0.008821598 -0.017031187 -0.032248978 0.04090271 0.0076195 -0.015832718 0.0077711884
-0.016532775 -0.0009517447 0.041180458 -0.0024545852 -0.027946422 -0.0065655974 0.00921401 0.023113841
-0.017900914 -0.00685481 0.036659274 -0.007113646 0.025968634 -0.0013395771 0.0056941053 -0.027207578
-0.034288518 0.028277537 -0.031179192 -0.015230299 -0.023660379 -0.030004466 0.00990784 -0.027875183

bias f4 [64]
00000000: 6375 d5bb 07a6 a9bc a700 41bd e91d a93b
00000010: 64cf c4bc 40ee fcbc 3cfa 75bd 4137 05bd
00000020: 2dcb 6ebd d195 6f3c c925 483c a271 8abc
00000030: bb3b 44bd 68e9 033d 8f20 883c 58dc 363d
00000040: 7f3c bbbc c603 cfbc 163b 63bc 5f44 0a3c
00000050: add9 88bb 9a1d 97bc 2dd4 533c 3b3f fdbc
00000060: b10d fbbc 410a 6cbc 7081 14bd 5fcb 1bbd
00000070: 662d de3c 9038 d73b 900e 063d 9fe6 1dbc
00000080: f213 883c 1712 2eba 6a98 0abd b8e0 e23c
00000090: 63d8 c83c cbf9 83bc 067f 88bc 523a e3bb
000000a0: fc9a 1bbd 39e5 e6bb 36d4 92bc fa38 273d
000000b0: 31f3 863c 61e6 ba3c 6246 793b 672e 16bc
000000c0: 9dd5 9dbd 1c49 be3a 77ce 3cbc d81e 53bd
000000d0: fd9c e23b 97c6 43bb d743 1abd 82a2 1cbc
000000e0: be56 293c 3363 a1bc e0b6 073d 6c18 1bbd
000000f0: dd70 a7bc 92a1 d2bc 26f4 debc 3861 05bc
-0.0065142377 -0.02070905 -0.047119763 0.0051610363 -0.024024673 -0.030875325 -0.060053095 -0.032523397
-0.058299232 0.014623121 0.01221604 -0.016899887 -0.047908526 0.032205015 0.016617088 0.04464373
-0.022855995 -0.025270354 -0.013869068 0.0084391525 -0.0041763396 -0.018446732 0.012929005 -0.03091394
-0.030646177 -0.014406742 -0.036256254 -0.038035747 0.027121257 0.006568022 0.03272873 -0.009637504
0.016611073 -0.0006640269 -0.03383676 0.027695045 0.024517244 -0.016110322 -0.016662132 -0.0069344426
-0.0379896 -0.0070463684 -0.017923456 0.04082582 0.016473385 0.022814931 0.0038036336 -0.009166337
-0.07706759 0.0014517638 -0.011523834 -0.051543087 0.006915687 -0.0029873007 -0.037662353 -0.009560229
0.010335622 -0.019700622 0.033133388 -0.037865087 -0.02043956 -0.025711808 -0.027216028 -0.008140855

weight f4 [64, 1024]
00000000: 52c4 37bc fe4c 093c 61eb c5bc 87d6 b43c
00000010: d71d 8f3c d1a7 033d 576e 8abc 778d 1dbc
00000020: 8521 7f3c 7d04 5b3c 57a9 35bd 40e4 483c
00000030: 37d7 f33c 0422 bd3c 1612 223b 8044 33bc
00000040: 96de d4bc 1d85 093d 88c2 4d3c 432e 9ebc
00000050: 1ae2 b83c baf6 233d 28f6 acbb 7591 843c
00000060: f2af 293c d246 fa3c 7dcd 13bc 42d1 f93b
00000070: 1c12 95bc e780 5cbb 6349 c33c 8f9a 313c
00000080: 8b8b 323c cad8 bf3c 5534 e73a 9981 e83c
00000090: d5e1 1d3d d273 823c 2521 1e3c 9766 013c
000000a0: e04e eb3c d8b3 adbc 2405 783b b85a ae3c
000000b0: 06b1 57bc adb1 623a d1aa 013d 3e67 ddbc
000000c0: 0ddf d63c d1f3 e2bb 9978 10bc f069 453c
000000d0: c28e 93bc 8a67 8e3c cd79 9abc 4aa3 e7bc
000000e0: 61f0 453c 8212 743c f798 0a3b 87b5 1ebd
000000f0: e45b c7bc 7f9e 703b f826 733c 835f 3f3c
00000100: 64e9 11bc 0d53 b9bb 5e7e af3c 827b 923c
00000110: 66ac d23c 0d10 78bc 078a 2c3b 7fb7 56bc
00000120: 676f 0f3c 7222 173c 1d29 a43c c6ab a7ba
00000130: 2862 bdbc 545c 49ba c132 90bc 00be 6e3c
00000140: 19e1 463c 7987 c43c f467 a0bc 425f 793b
00000150: ad4f 90bc 2aee 2a3d 05d2 223c 3693 b03c
00000160: 38cb dcbc ff05 d03c b2b1 b63c 1714 abbc
00000170: 31b5 a83b 243e 873c d9a0 ce3c 7770 3fbc
00000180: 1690 cdbc 80aa 4bbb d949 c93c f933 1dbc
00000190: 3cc2 4b3c c528 183d 7ba5 1f3c 5435 dcbc
000001a0: c601 f0bb 856d b3bc 5214 943a 4d44 933c
000001b0: f24f 78ba 075d 903b 0b0f cabc 1086 66bc
000001c0: 0036 293c e26b c2bb 45f1 1ebc b103 2f3c
000001d0: f6f3 1e3c 0bff ebbc 5de2 53bc 6e0c bcbc
000001e0: 9ace 6ebb f2de 6b3c 5249 43bc dd16 943c
000001f0: 8190 ad3c 4358 81bc a43c 9eba 8de1 113c
00000200: e454 8cbc b0a2 fe3c 906b b63c 479f f03c
00000210: 2ea8 a43b 5f6d 673b a5eb 17bc b193 0abc
00000220: 7d9c da3c 621a 023c 957a a4bc cae7 333c
00000230: e50c 403c ce15 ff3c 96ed febc c0f9 06bd
00000240: 0619 a83c a37d 04bb 9855 5b3c d3d2 bdbc
00000250: 3b6c 69bc ed7f b3bb 41a7 6fbb 188c bdbc
00000260: 6f1d e7bb e87b d33c 2592 cd3c 7e9b f33c
00000270: 2894 283b beb2 8a3c 1b23 7abc 3359 223c
00000280: b1c5 c63c d6de e43b d184 86bc 4e81 a6bb
00000290: 87f6 85bc f57b 81bc 627d 8d3c 9d8f 77bb
000002a0: 64ec 083d 3dff 5dbc 6fdc 4c37 59ee 61bc
000002b0: a722 ea3b fe60 5bbb a647 c23c 50da d0bc
000002c0: 82c2 b3bc 3918 87bc 8885 3a3b 94ae 36bb
000002d0: 6b95 c23a 6b15 043d 7f46 73bc 92b5 d6bc
000002e0: 8dd0 84bc 8934 213d a5f3 a83b 378d 043c
000002f0: 5c9d e4bc 7079 e03c 7027 cfbc 09a3 89b8
00000300: 6079 ca3c 7c3c 783c 4053 acbc e661 863c
00000310: 057a b13c 0d01 193d bd24 b63c e14c 78bb
00000320: 0d5e 193c 7b26 143d f971 f5bc 6dc9 2bbc
00000330: 2c1a 06bc dfaa 40bc c5dd aebc a1c3 9bbc
00000340: ba75 203d 707f e63c b2bd a63c 202b 823c
00000350: 9f52 da3c b0f8 02bd e60b db38 6844 bc3c
00000360: 1755 de3b 2e3b f43c b298 723b b200 633c
00000370: 35ef e539 33cc f63c 24ac 6d3c 0e14 b8bc
00000380: b1b6 b93c 572e ecbc 0225 93bc 11bb 81bc
00000390: 90bd 8dbc acea 243c bb98 b8bb beb6 bf3c
000003a0: 597d 15bd 6ee9 09bd 9570 babc e3cf a43c
000003b0: cd4b 1f3c 813e d23b 7af4 173c 7ab8 6fbc
000003c0: 3782 17bd 2ecc 9bbb 1a96 023d 56dd 34bb
000003d0: f853 83bc 9b7c d6bc a4e5 5c3c d97e 01bd
000003e0: 6aca bfbc c53a f7bb 08b1 b33a ccba acbc
000003f0: 0bb6 9bbc ce76 6fbb 9de4 303b d810 ad3c
-0.01121624 0.008380173 -0.024160089 0.02207495 0.017470283 0.032142464 -0.016898317 -0.009616247
0.0155719565 0.013367769 -0.04435095 0.01226145 0.029765708 0.023087509 0.0024730018 -0.010941625
-0.025985043 0.033574212 0.012558587 -0.019309169 0.022568751 0.04003022 -0.0052783675 0.01618264
0.01035689 0.030551348 -0.00902116 0.0076238224 -0.018197112 -0.0033646168 0.023838704 0.010840072
0.010897527 0.023418803 0.0017639498 0.02838211 0.03854545 0.015924368 0.009651457 0.0078979945
0.028724134 -0.02120392 0.003784486 0.021283492 -0.013164764 0.00086476916 0.031657044 -0.027026769
0.026229406 -0.006926038 -0.008817815 0.012049183 -0.018012408 0.017383356 -0.018856907 -0.028276104
0.012081237 0.014896991 0.0021148303 -0.038747337 -0.024335809 0.0036715565 0.014840834 0.011680487
-0.008905742 -0.0056556524 0.021422561 0.017881159 0.025716972 -0.015140546 0.0026327388 -0.013105272
0.008754588 0.009224521 0.020039136 -0.0012792281 -0.023118094 -0.00076812995 -0.017602326 0.014571667
0.012138628 0.02399038 -0.019580819 0.0038051163 -0.017616117 0.041731037 0.009937768 0.02155457
-0.026952371 0.025393484 0.022301529 -0.020883603 0.005148553 0.016509123 0.025223183 -0.011684529
-0.02509312 -0.0031076968 0.024571346 -0.009594911 0.012436446 0.037148256 0.009744043 -0.026880898
-0.00732443 -0.021902809 0.001129756 0.017976904 -0.0009472362 0.004405621 -0.024665376 -0.014070049
0.010327816 -0.005933271 -0.009701078 0.010682032 0.0097017195 -0.028808137 -0.012932387 -0.022955146
-0.0036439062 0.014396416 -0.011919336 0.018077308 0.021187069 -0.015789157 -0.0012072516 0.008903873
-0.017130323 0.031083435 0.022268087 0.029372824 0.0050249314 0.0035312993 -0.009272491 -0.008458064
0.026685948 0.00794086 -0.020077983 0.010980556 0.011721824 0.031138327 -0.03111915 -0.032953024
0.020519745 -0.0020216487 0.013387106 -0.023171818 -0.014246996 -0.0054778964 -0.0036568197 -0.023138091
-0.0070530693 0.025815919 0.025094101 0.02973723 0.0025723074 0.016930934 -0.015267159 0.009908962
0.024264188 0.006984572 -0.016420754 -0.0050813323 -0.016352905 -0.015806178 0.017271701 -0.003777481
0.033428565 -0.013549623 1.2210671e-05 -0.013789737 0.007145244 -0.003347456 0.023715805 -0.025494725
-0.021943334 -0.016491042 0.0028460938 -0.0027875053 0.0014845555 0.03224699 -0.014848351 -0.026209626
-0.016212726 0.039356742 0.005155998 0.008090309 -0.027907066 0.027401656 -0.02528736 -6.563037e-05
0.02471608 0.015151139 -0.02103579 0.016404103 0.021664629 0.037354518 0.022234315 -0.003788762
0.009360802 0.03616951 -0.029961573 -0.010485035 -0.008184951 -0.011759489 -0.021345982 -0.019014182
0.039174773 0.028136939 0.020354126 0.015889704 0.026650725 -0.031975448 0.0001044495 0.022981837
0.006785046 0.029813375 0.0037017283 0.013855146 0.00043856507 0.030126667 0.014506374 -0.0224705
0.022670122 -0.02883069 -0.017961983 -0.01583627 -0.017302305 0.010065716 -0.0056334413 0.023402568
-0.036496494 -0.03366988 -0.022758761 0.02011866 0.009722662 0.0064161425 0.009274596 -0.014631385
-0.036989417 -0.0047545647 0.03188143 -0.0027597747 -0.01603125 -0.026182463 0.013482485 -0.031615112
-0.023411948 -0.0075448477 0.0013709376 -0.021085165 -0.019007703 -0.003653932 0.0026991733 0.021126196

bias f4 [64]
00000000: dfc9 d8bc 5052 f5bc 351c b43c bdea 3ebc
00000010: e2c1 af3b 704c 6c3a d9b1 99bb 688e 5c3c
00000020: e60a 0cbd 27e6 8abc 34e6 c03a fcf7 4cbc
00000030: 0ff4 ca3c 4239 e03a b366 d5bc d08b 783c
00000040: 7878 19bc 1361 9f3c ce29 1ebc ee4b 553d
00000050: 226c 173c bdd4 6c3d 9b9e 3a3d b090 a33a
00000060: 5e7e 013c a18e 15bd c0cd 283c eaa6 5cbc
00000070: b912 15bd ac46 50bd 700e 8d3c dbfc 1e3b
00000080: 0909 c6bc 6240 d53c 3037 0dbd 294c e53c
00000090: f68c d5bc f26a 953d ed34 42bb a196 863c
000000a0: 670e babb 407b 953c 576b fabc c2c0 1f3d
000000b0: 3019 1a3c 221d b8bc 6177 35bd 6130 61bc
000000c0: fc47 363d 44ce 3b3c 6b28 9c3a ee14 423c
000000d0: 6ce6 70bc 3232 af3c 20f7 29bb 5aed 543d
000000e0: 6c6e 8c3c 6411 4bbb 92ba 6abd c028 d5bc
000000f0: 9a63 ff3c 2fcd 7dba 3fc4 32bd 2b90 af3c
-0.026463447 -0.029946476 0.021986106 -0.011652646 0.005363689 0.00090140756 -0.0046903905 0.013461687
-0.03419008 -0.016955448 0.0014717043 -0.012510296 0.02477458 0.0017106908 -0.026049947 0.015170053
-0.009367101 0.019455468 -0.009653522 0.052074365 0.009242089 0.05782007 0.045561414 0.0012479033
0.007903663 -0.036512975 0.010302961 -0.01346753 -0.03639481 -0.050848648 0.017218798 0.00242596
-0.02417423 0.026031677 -0.03447646 0.027990418 -0.026068192 0.07295789 -0.0029633597 0.016429247
-0.0056779864 0.018247247 -0.030568762 0.039002188 0.009405419 -0.02247483 -0.0443033 -0.013744445
0.044502243 0.011462752 0.0011913901 0.01184581 -0.014703374 0.02138624 -0.0025934651 0.05198417
0.017142497 -0.0030985707 -0.057306834 -0.026020408 0.031175423 -0.0009681759 -0.043644186 0.02143105

weight f4 [10, 64]
00000000: bc1c eabd be08 b1bc a328 21bc 6fe6 16bd
00000010: 9873 b93d 9bf9 c6bd 2e7f 1b3e 77f3 663d
00000020: b66f aa3d cb89 11be e789 7fbd 6e75 d3bb
00000030: 6e4c ad3c dc9c 6f3d 12a2 51bc 08bd 97bd
00000040: 46cf b53c 8c3b 0bbe 874e db3c eb96 b3bd
00000050: 294e 8abc 34f7 e9bd 917f 30be 4df1 00bd
00000060: aa08 1fbe 9c9b 6fbd d638 98bd 946c 44bd
00000070: 207a dbbd 9858 a73d ae7f dbbc a00d debd
00000080: b9c1 803d 8dff 2c3e 60f7 23bd 1372 49bd
00000090: 5608 a93c 541b d9bd 72a9 a7bd 87b8 88bd
000000a0: 393b fb3c 78b6 443e ce4d 05be 5710 21be
000000b0: f2e7 7a3d 8aee f33d 0d5c 2a3e 9800 5e3c
000000c0: 1828 02be d14b 263d 6e9e 2dbe e2ec d03d
000000d0: ab38 983d 9c1e fbbd f3c0 ed3c 6dca e7bd
000000e0: 1d6d ea3d 41ec 47be 3ee5 003e 730a 253e
000000f0: 190b 34be 088f cabd c958 1f3e 65fd 9dbd
00000100: ad62 0fbe 7156 d93d 5f6b 823e 896a a23d
00000110: 1b9f a1bd 8efd f73d 710d 1abc 2e15 59be
00000120: 29ad 463e 6e5f 2b3e 686f 5ebe 177d 2cbe
00000130: 27f9 6abd 11b4 113a cfb3 d03d 900b 58bc
00000140: 6e1a 143e d865 3ebe ab2b fd3d 59fc d33d
00000150: 9809 4dbe 2446 b1bd 335a 91bd b1ee 8e3d
00000160: e4e4 07be 8b6c 313d 22b0 cabd c891 0bbd
00000170: f05a e2bd b236 abbc 9c5e 26bd f6d0 003e
00000180: 34f4 043d cd1c 4dbc ceea 503c d6d4 203e
00000190: 0314 c13d 8c53 afbd 5c2f 5a3e 1937 72bc
000001a0: c6f2 ce3d 4908 9f3d e589 303e 86e7 863d
000001b0: a39d a33d 580b 1b3d 01cf 293e aece 253e
000001c0: cc34 13be df17 373d 7301 4f3d 1fe3 2a3e
000001d0: eeda babd f36e 5d3d b936 01be dfc9 fcbd
000001e0: 8af7 bb3d 7d94 82bd 77a6 cfbd e60f 543d
000001f0: 6d16 97be 5f7d 313d b206 82bd 30d6 363e
00000200: cbbe d23d bbce d03d 6657 24bd 4676 bf3d
00000210: 1187 0d3d 783a 27be 15ff ae3d a2d1 c33c
00000220: be65 a4bd a242 ccbc 29d5 a7bd 1d47 3e3e
00000230: 2e8a 1d3c 5e53 a6bd d6a7 52bd 03e5 863c
00000240: e2ff c5bd 6de3 aa3d 1788 a43d 8450 293e
00000250: 7b9c a13d 329f b4bd b762 d2bd 5881 cb3d
00000260: efc9 92bd 299f 47bc ed78 063b 8112 dabd
00000270: 852a bc3d 6a3c 023e e387 01be 5d5c 21bd
00000280: 8945 6dbd 5eba 0bbe 4168 0abe 323e 13be
00000290: 6b6c 61bb 543a 88bd c81e fd3c fce4 253e
000002a0: 3300 02be 53a9 483e d3db 74bc 062a 0cbe
000002b0: b73a 27bd 864c e8bd 2de9 87bd cac7 d6bd
000002c0: 4424 3dbd cf28 8cbd 9206 043e c230 efbd
000002d0: cf24 0ebe 60bb dcbd b2fa 373e 3d4f bc3d
000002e0: c616 9abc 849f acbd 29d4 823d acfb a53d
000002f0: cd9f ff3d e11d 063e 9fba 423d 1fe8 d03d
00000300: e389 dc3b aca0 4a3b a8ac ee3b c18e bebd
00000310: 41b3 9bbc 23a0 97bd 6c27 14be d7f2 de3d
00000320: 442e e73d ce8c 6bbd fdb1 483d 4f13 c73d
00000330: 942c 033e 1bb9 1a3c dacc d0bd 691b 933d
00000340: 5535 e6bc 76d2 133e ef24 b1bd 2bf9 0c3e
00000350: 20b5 22bd cb2b 0e3e ec86 313e 54fc afbd
00000360: 29f1 523e 43ca c43d c50e 27be 7060 3b3e
00000370: 4f81 c8bc 9cef c1bd 2836 dfbd a832 a0bc
00000380: 2968 8bbd e483 8a3d 598d 8dbd 9218 18bd
00000390: a8d7 d8bd 2e24 273b 37c6 c63c fd9a 28be
000003a0: 3cbc b7bd 25f9 923d 4b26 1cbd fce5 92bd
000003b0: 2828 f4bd 5913 ac3d b4de e2bd 57ac cebb
000003c0: 13ad afbd 7eb8 00be 6c33 323e a8d5 02bd
000003d0: 8d5a 9abd c777 efbd 8e4c fbbd 24e9 0c3e
000003e0: 6450 4a3d 1e01 5cbd b7a0 01be 1bf2 36bd
000003f0: e326 0c3e 2dfd 2ebc b8e9 373d 03c5 e23d
-0.11431262 -0.021610614 -0.009836349 -0.036840852 0.09055251 -0.09715577 0.15185234 0.05638453
0.083220884 -0.1421272 -0.062387373 -0.0064532077 0.021154609 0.058499202 -0.012794988 -0.07409102
0.022193562 -0.13596934 0.026770843 -0.0876902 -0.016882973 -0.114241034 -0.17236163 -0.031480122
-0.15530649 -0.05849801 -0.074327156 -0.04795511 -0.10716653 0.08171195 -0.02679428 -0.108424425
0.0628695 0.1689436 -0.040030837 -0.049181055 0.020633858 -0.106009156 -0.08186616 -0.06675821
0.030667888 0.19210231 -0.13017961 -0.1572889 0.061256357 0.11910732 0.16636677 0.013549946
-0.12710607 0.040599648 -0.16954967 0.10201432 0.074326836 -0.12261698 0.02902267 -0.113179065
0.11446593 -0.19523717 0.12587449 0.16117267 -0.17582358 -0.09890562 0.15561213 -0.07714347
-0.14002486 0.106121905 0.25472543 0.07930476 -0.07891675 0.121089086 -0.009402619 -0.21199486
0.19401993 0.16735622 -0.21722186 -0.16844593 -0.057366516 0.0005558143 0.10190546 -0.01318635
0.14463207 -0.18593538 0.12361845 0.10350866 -0.20023191 -0.086559564 -0.07097282 0.069791205
-0.13270909 0.043316405 -0.09896876 -0.034074575 -0.11052501 -0.020900104 -0.04061757 0.12579712
0.032459453 -0.012519074 0.012751294 0.1570619 0.09427645 -0.08560857 0.21307129 -0.014783644
0.10104899 0.07765252 0.17240103 0.06587128 0.07989051 0.037852615 0.16582872 0.16192123
-0.14375609 0.0447005 0.05053849 0.16688202 -0.09123789 0.054060888 -0.12618531 -0.12343191
0.09178074 -0.06375978 -0.101391725 0.051772974 -0.29509297 0.043332454 -0.06348933 0.17855144
0.10290297 0.10195681 -0.040122412 0.09348731 0.034552637 -0.16330898 0.08544747 0.023903672
-0.08027218 -0.024934117 -0.08194954 0.18581815 0.009615464 -0.0812137 -0.051429592 0.016466623
-0.096679464 0.08344159 0.080337696 0.1653462 0.078911744 -0.088194266 -0.102727346 0.0993678
-0.07167422 -0.012183943 0.0020518855 -0.106480606 0.091877975 0.12718359 -0.12649493 -0.039394725
-0.057927642 -0.13645312 -0.13516332 -0.14379194 -0.0034396898 -0.0665175 0.030898467 0.16200632
-0.12695388 0.19595842 -0.014944988 -0.13687906 -0.04082748 -0.11342721 -0.066362716 -0.104873255
-0.046177164 -0.06843721 0.12893131 -0.11679222 -0.13881229 -0.107779264 0.17966726 0.09194801
-0.018809687 -0.08428863 0.063881226 0.08104643 0.124816515 0.13097335 0.047541257 0.102005236
0.0067303046 0.0030918522 0.007283766 -0.09304572 -0.019006373 -0.074035905 -0.14468163 0.10886162
0.11288121 -0.05750733 0.048997868 0.0972048 0.12809974 0.009443547 -0.10195322 0.071829624
-0.028101603 0.14435753 -0.08649623 0.13766925 -0.039723516 0.13883893 0.17336625 -0.0859305
0.20599808 0.09608891 -0.16314228 0.18298507 -0.024475722 -0.0946953 -0.10899001 -0.019555405
-0.06806976 0.067634374 -0.069117256 -0.037132807 -0.10588008 0.0025503743 0.024264438 -0.16465373
-0.0897145 0.07176427 -0.038122457 -0.07172772 -0.11921722 0.08402128 -0.110776335 -0.0063071656
-0.08577933 -0.12570378 0.17402428 -0.03194204 -0.075368024 -0.116927676 -0.12270461 0.13760811
0.049393073 -0.053712003 -0.12658964 -0.044664484 0.13686709 -0.010680479 0.044900626 0.11072733

bias f4 [10]
00000000: 5016 03bd 22e9 8f3d 0588 be3c 7cf5 60bd
00000010: c5f4 073e c2b1 6ebd 0e29 b2bb 9cf0 c8bd
00000020: adce 82bd 7a84 7c3c
-0.0320037 0.070268884 0.023258219 -0.054921612 0.13276966 -0.05827499 -0.005437023 -0.098115176
-0.063870765 0.015412444
