test_3.pth (torch, 587207 bytes, 10 tensors)

weight f4 [32, 3, 5, 5]
-0.010070324 0.0337926 -0.025776988 0.04493882 0.1017375 -0.08655049 -0.038071487 -3.519995e-05
0.04367685 -0.09273723 -0.032737292 0.06982831 0.084985115 0.12838289 -0.037694953 -0.046580683
-0.05415928 0.012322379 0.058230724 0.04120921 -0.05295229 0.09683935 0.15845567 0.09315863
-0.097243726 -0.12186051 -0.04852757 0.13278554 0.052723695 0.14607774 0.020163832 -0.015189497
0.13308018 0.1178856 0.16373684 -0.033988178 0.13219622 0.04110684 0.01678988 0.017755207
0.05706749 0.075199954 0.14981331 0.0809496 0.08473855 -0.059656672 0.06931662 0.19203709
0.078667454 -0.022527492 -0.20025077 -0.1664526 -0.065533206 -0.00024334765 -0.16600321 -0.14509045
-0.0020470147 -0.06260913 -0.1309184 -0.15127 -0.09027976 -0.18128404 -0.14882278 -0.027764834
0.026208747 -0.13765545 -0.17500982 0.069412954 -0.1568132 -0.013668696 -0.033523433 -0.13640915
-0.025094941 -0.09448327 -0.00031705186 -0.14077225 -0.04687723 0.067496434 -0.015773736 -0.10237652
-0.080970116 -0.037891384 -0.10526103 -0.055565264 -0.10005598 0.071560025 -0.080261275 -0.09763043
0.07096548 -0.1187341 -0.099464625 0.0035404852 -0.087662645 -0.084896125 0.04687151 0.103998296
-0.10277498 0.12898791 0.034600668 -0.08462558 -0.11092957 -0.02456609 -0.011724224 -0.02988048
0.014464587 0.09443599 -0.12813683 -0.07059933 -0.038920853 -0.007956195 0.09310743 -0.029669058
0.047344588 0.078122646 -0.017005706 0.12666382 0.13320573 0.06706727 0.11716273 0.07459786
0.13637432 0.1209183 -0.0366776 0.008338029 0.11377408 -0.11764405 -0.10493492 -0.1051961
-0.009523408 0.014374669 -0.13282955 0.015396923 0.05474166 -0.10646299 0.017471196 -0.021662526
-0.08882857 0.049122047 0.031393107 0.057724856 -0.052329205 -0.040559355 0.007900278 -0.09240542
0.07791919 0.088205546 0.06969997 0.11221596 0.12119364 0.138518 -0.11518319 -0.07009832
0.00603022 -0.11143651 -0.08511683 -0.04385709 0.07792653 -0.064198606 0.04327746 -0.038920738
-0.04218716 -0.060065053 -0.09199139 0.023486122 -0.023061186 0.097568005 0.067397214 0.04480263
0.01075537 -0.03179818 0.04004578 -0.091618985 0.08188437 -0.014441773 0.015831301 -0.12135451
-0.03588751 -0.040960263 0.0067763543 0.0056299325 0.111736804 -0.07520822 0.045563873 0.029030714
0.09098761 0.040793702 -0.03952193 0.118549876 0.047059797 -0.06313443 0.10535377 -0.048385207
0.12900987 0.10388428 0.090828 0.11129775 0.11026565 0.05691318 -0.047673985 0.015827375
-0.055854023 0.09643552 0.032890502 -0.015811605 -0.09436106 0.11040828 -0.06224519 -0.09595214
-0.020364603 -0.04482731 0.061115224 -0.032529972 -0.07215884 0.12609312 -0.09167379 -0.0037761237
0.018981492 -0.022071294 0.11184552 0.035352625 0.1139952 -0.07437894 -0.025861222 -0.078160875
0.030961342 0.11359494 0.05247601 0.05309593 0.0064725284 -0.06272929 0.06993618 0.042711176
0.13473554 -0.042794585 0.090270974 0.07327187 0.007057812 -0.07100808 -0.029825864 0.08494273
0.0034183161 0.097151674 -0.11947868 -0.10219634 -0.12690139 0.022797253 -0.07583596 0.09426949
0.064097926 -0.022545565 0.09561636 -0.10187969 0.0076271896 0.10901241 0.10288986 -0.037391517
00000000: 00fe 24bc 1c6a 0a3d 432a d3bc c511 383d
00000010: c05b d03d 6241 b1bd d9f0 1bbd a9a3 13b8
00000020: 7fe6 323d 04ed bdbd 8a17 06bd 2502 8f3d
00000030: ad0c ae3d ce76 033e 0666 1abd 63cb 3ebd
00000040: 1fd6 5dbd cee3 493c 5783 6e3d fdca 283d
00000050: 80e4 58bd b653 c63d 3442 223e f4c9 be3d
00000060: b827 c7bd 0192 f9bd d8c4 46bd eff8 073e
00000070: cdf4 573d 6795 153e 9f2e a53c 5edd 78bc
00000080: 2c46 083e 016e f13d a1aa 273e 3037 0bbd
00000090: 725e 073e a55f 283d ee8a 893c 5e73 913c
000000a0: 9abf 693d 6f02 9a3d a968 193e e7c8 a53d
000000b0: 688b ad3d 8e5a 74bd dff5 8d3d 5fa5 443e
000000c0: 671c a13d 938b b8bc 8a0e 4dbe 8d72 2abe
000000d0: 4636 86bd 232b 7fb9 bffc 29be 9792 14be
000000e0: 3527 06bb 3739 80bd 790f 06be 86e6 1abe
000000f0: 98e4 b8bd 86a2 39be 0065 18be 1473 e3bc
00000100: bab3 d63c 8df5 0cbe c635 33be 6128 8e3d
00000110: a493 20be abf2 5fbc de4f 09bd d7ae 0bbe
00000120: e893 cdbc 7280 c1bd fb39 a6b9 9a26 10be
00000130: 5702 40bd 923b 8a3d ec37 81bc c8aa d1bd
00000140: a9d3 a5bd ff33 1bbd 1893 d7bd 6798 63bd
00000150: 26ea ccbd 108e 923d 0660 a4bd 76f2 c7bd
00000160: 5956 913d dd2a f3bd 1cb4 cbbd 7c07 683b
00000170: 7988 b3bd 05de adbd 57fc 3f3d 0ffd d43d
00000180: b07b d2bd 6815 043e 6eb9 0d3d 2d50 adbd
00000190: 0b2f e3bd d33e c9bc f616 40bc e9c7 f4bc
000001a0: e0fc 6c3c a867 c13d 4d36 03be 6296 90bd
000001b0: 796b 1fbd b35a 02bc 1caf be3d 860c f3bc
000001c0: 66ec 413d c4fe 9f3d 8d4f 8bbc 29b4 013e
000001d0: 1567 083e 915a 893d 03f3 ef3d c3c6 983d
000001e0: b6a5 0b3e 03a4 f73d 403b 16bd 3a9c 083c
000001f0: 6302 e93d 5def f0bd 1fe8 d6bd 0e71 d7bd
00000200: 1108 1cbc bb83 6b3c 7804 08be 6043 7c3c
00000210: ca38 603d 4509 dabd c11f 8f3c 9c75 b1bc
00000220: c1eb b5bd 3334 493d 0f96 003d e670 6c3d
00000230: 2657 56bd 9121 26bd 2b70 013c 0e3f bdbd
00000240: 1994 9f3d 1ca5 b43d dcbe 8e3d 7bd1 e53d
00000250: 5f34 f83d aad7 0d3e 2ae5 ebbd b58f 8fbd
00000260: 2799 c53b d338 e4bd bc51 aebd 7ea3 33bd
00000270: f297 9f3d 8f7a 83bd b543 313d 5a6b 1fbd
00000280: 72cc 2cbd c606 76bd fb65 bcbd f865 c03c
00000290: d0ea bcbc bcd1 c73d 8d07 8a3d f682 373d
000002a0: 4b37 303c cf3e 02bd 0b07 243d bca2 bbbd
000002b0: feb2 a73d 309d 6cbc a5b0 813c b788 f8bd
000002c0: c8fe 12bd f3c5 27bd 2e0c de3b 4c7b b83b
000002d0: 44d6 e43d c406 9abd 2fa1 3a3d d2d1 ed3c
000002e0: b657 ba3d 4c17 273d bfe1 21bd 47ca f23d
000002f0: c6c1 403d a04c 81bd b8c3 d73d 912f 46bd
00000300: 2a1b 043e 48c1 d43d 0804 ba3d 13f0 e33d
00000310: f5d2 e13d cb1d 693d cc45 43bd 69a8 813c
00000320: 30c7 64bd fc7f c53d 31b8 063d 5787 81bc
00000330: 5f40 c1bd bc1d e23d d0f4 7ebd 8e82 c4bd
00000340: abd3 a6bc d79c 37bd f553 7a3d 263e 05bd
00000350: 04c8 93bd 8e1e 013e 78bf bbbd d878 77bb
00000360: 137f 9b3c dcce b4bc 440f e53d eacd 103d
00000370: 5176 e93d fc53 98bd eada d3bc cf12 a0bd
00000380: a4a2 fd3c 77a4 e83d 16f1 563d 1e7b 593d
00000390: 8117 d43b 3778 80bd b33a 8f3d eaf1 2e3d
000003a0: 1df8 093e 6049 2fbd fddf b83d 900f 963d
000003b0: 3845 e73b af6c 91bd 5f55 f4bc 74f6 ad3d
000003c0: d405 603b 75f7 c63d 3db1 f4bd 514c d1bd
000003d0: 70f2 01be 4ec1 ba3c e24f 9bbd 5d10 c13d
000003e0: c645 833d 7ab1 b8bc 83d2 c33d 4da6 d0bd
000003f0: 81ed f93b e641 df3d ebb7 d23d d927 19bd

bias f4 [32]
0.23996909 -0.086665474 0.017909275 -0.12127148 -0.019047959 -0.08625366 -0.102848284 -0.11245824
-0.030249069 0.11570902 0.14108086 -0.078706 0.10089574 -0.11430565 0.05730589 0.011179731
-0.08641184 0.11512552 0.24266388 -0.009183811 -0.0022766793 0.09487576 -0.12838842 0.02088133
-0.050806694 -0.0678305 0.19959828 -0.07289628 -0.19069447 -0.23263012 -0.184303 -0.042180672
00000000: 75ba 753e ab7d b1bd 79b6 923c 2f5d f8bd
00000010: 770a 9cbc c2a5 b0bd 1fa2 d2bd 8150 e6bd
00000020: e5cc f7bc daf8 ec3d 8077 103e 9c30 a1bd
00000030: 6da2 ce3d 1519 eabd 95b9 6a3d 312b 373c
00000040: b1f8 b0bd eec6 eb3d e17c 783e b277 16bc
00000050: 5734 15bb 394e c23d 4178 03be 530f ab3c
00000060: ae1a 50bd b8ea 8abd 7e63 4c3e a54a 95bd
00000070: 6945 43be 9736 6ebe edb9 3cbe a4c5 2cbd

weight f4 [32, 32, 5, 5]
-0.018119067 -0.020994952 0.012207511 -0.010489117 0.009886169 -0.004669871 0.00051658513 0.0072026365
-0.017827338 -0.007812686 0.040034678 0.030874465 -0.0042790566 -0.019085662 -0.008482651 0.039114527
-0.030384928 0.0027581195 0.011921037 0.014741315 -0.012324095 0.014484799 0.008321166 0.012587482
0.019346787 0.015433964 -0.022142494 -0.004579985 0.03773695 -0.018586177 0.035007484 0.016355278
0.033440363 0.048533887 0.026432283 -0.025948307 -0.02904483 -0.030650312 -0.035657264 -0.006739447
0.010559784 -0.027497886 0.028272254 -0.016394902 -0.03046341 0.02699233 0.012070744 0.025808606
-0.036028642 -0.030875532 0.013919426 -0.03649179 0.009646558 0.014308538 0.027951347 -0.013481586
0.043594 -0.0118118 -0.002388856 -0.002231593 0.03279387 0.022669833 0.03390039 -0.026232893
0.0315938 -0.0050467406 -0.035901025 -0.004712185 -0.031757202 0.019514767 -0.0017110307 -0.012878678
0.011693929 0.004362949 -0.008074519 -0.0009854033 0.00035831786 0.028844764 -0.020460334 0.017148692
0.021144165 0.005691848 -0.02076706 0.023514735 0.01849021 0.01575106 -0.0049526286 0.038234618
-0.025375297 -0.018139081 0.024015587 0.032987706 -0.0020552673 -0.010321579 0.03011161 -0.009850209
0.026822079 0.0114495745 0.022978747 -0.014954385 0.041058388 0.03686447 -0.014455853 -0.029003728
0.017766388 0.015266496 0.047840375 0.002256945 -0.0017816678 0.005737651 0.028464459 -0.035693422
0.0077742944 0.016434554 -0.0016596183 0.025269184 0.013089263 0.018551452 0.03425135 0.0011447647
0.017014252 -0.007559845 0.023255883 0.020636298 0.0059369253 -0.013439801 -0.018048357 0.0019207135
-0.023265995 0.003582279 0.0053275554 0.034813445 0.03484219 0.028904386 0.035987206 0.011761867
-0.021906426 0.04215525 -0.0084299585 0.025422135 -0.0028224455 -0.009277336 -0.019603696 0.041229296
0.02598204 0.016532633 0.024652725 -0.014073846 0.04160304 0.039790228 0.017410249 -0.0362253
-0.009894573 -0.0117542865 0.002420435 0.03719384 -0.0033700224 -0.013233404 -0.019835474 -0.015069324
0.04319429 0.011152834 0.010995824 0.0136945015 0.030669834 -0.0038153606 0.03163482 0.02365334
-0.023420839 0.0101949405 0.023269 0.020725125 0.038555548 -0.02215568 0.026177851 0.03621163
-0.030082483 0.039398972 -0.008940751 0.03507156 0.039517604 0.0025505791 0.030128285 0.020705773
0.024700973 0.032236625 -0.002687022 0.023684418 0.024053559 -0.01667934 0.033166073 -0.008343005
0.002142087 0.013398582 -0.024101423 0.03516867 -0.010893901 0.026301267 -0.013943978 0.014452426
0.021172468 0.01775481 0.009045968 -0.011884922 -0.00060209015 -0.002780238 0.014482438 -0.03378179
-0.008885073 0.017926516 -0.00013609226 0.049242146 -0.0010373293 0.033794098 0.034268677 0.018225351
0.006364428 -0.016231976 0.0047426824 -0.019653657 0.048998915 0.045014154 0.019245628 -0.012529922
-0.021953108 0.01642323 -0.014233257 -0.022148322 0.014438333 -0.01282032 -0.013353415 -0.0056869215
-0.0032382526 0.019398043 0.001392136 -0.016945917 0.04580609 -0.013839408 0.020032538 0.029382719
0.01329891 0.014453941 -0.007997685 -0.021616248 0.034738235 0.03195207 0.046180356 0.04759666
0.015171134 0.023686068 -0.018571746 -0.02911749 0.036607876 -0.0048621795 -0.023270793 0.0315661
00000000: 706e 94bc 9bfd abbc 0302 483c 8cda 2bbc
00000010: 99f9 213c b805 99bb 716b 073a 1804 ec3b
00000020: a30a 92bc c800 00bc 67fb 233d 72ec fc3c
00000030: 5437 8cbb 8959 9cbc d1fa 0abc 8e36 203d
00000040: d0e9 f8bc 91c1 343b 7450 433c 8e85 713c
00000050: 00eb 49bc a651 6d3c 8055 083c ba3b 4e3c
00000060: 277d 9e3c bdde 7c3c 2d64 b5bc b313 96bb
00000070: 0f92 1a3d 0a42 98bc 0264 0f3d 81fb 853c
00000080: c3f8 083d 78cb 463d 8488 d83c 8b91 d4bc
00000090: 6cef edbc 5d16 fbbc 5a0d 12bd 94d6 dcbb
000000a0: f202 2d3c 3f43 e1bc 379b e73c 9a4e 86bc
000000b0: 678e f9bc 051f dd3c 5fc4 453c 926c d33c
000000c0: c592 13bd afee fcbc 4e0e 643c 6a78 15bd
000000d0: 990c 1e3c 5c6e 6a3c 39fa e43c dfe1 5cbc
000000e0: 9f8f 323d 4886 41bc 5a8e 1cbb eb3f 12bb
000000f0: dd52 063d 16b6 b93c 23db 0a3d 5de6 d6bc
00000100: 8068 013d 215f a5bb f40c 13bd ac68 9abb
00000110: d713 02bd 6fdd 9f3c aa44 e0ba 1701 53bc
00000120: e597 3f3c 12f7 8e3b fd4a 04bc a628 81ba
00000130: 9cdc bb39 db4b ec3c 6e9c a7bc 6a7b 8c3c
00000140: 8736 ad3c af82 ba3b ae1f aabc f9a1 c03c
00000150: c878 973c 5e08 813c a949 a2bb e79b 1c3d
00000160: dbdf cfbc 6998 94bc 56bc c43c 1e1e 073d
00000170: aab1 06bb d71b 29bc a0ac f63c c562 21bc
00000180: fab9 db3c ff96 3b3c ed3d bc3c 3d03 75bc
00000190: d72c 283d 33ff 163d 3ed8 6cbc 3a99 edbc
000001a0: d18a 913c 5320 7a3c 45f4 433d 41e9 133b
000001b0: da86 e9ba e802 bc3b 4c2e e93c 4433 12bd
000001c0: 82bf fe3b c2a1 863c 8d87 d9ba 5201 cf3c
000001d0: 5974 563c 37f9 973c 254b 0c3d ee0b 963a
000001e0: 7961 8b3c 94b8 f7bb 1f83 be3c 740d a93c
000001f0: 8a8a c23b 9c32 5cbc 26da 93bc 73c0 fb3a
00000200: 5498 bebc abc4 6a3b c692 ae3b 8b98 0e3d
00000210: afb6 0e3d e4c8 ec3c 5267 133d d9b4 403c
00000220: 1b75 b3bc fcaa 2c3d cf1d 0abc 1542 d03c
00000230: c7f8 38bb f8ff 17bc ee97 a0bc 0de0 283d
00000240: 4ad8 d43c 726f 873c 83f4 c93c fd95 66bc
00000250: f367 2a3d 14fb 223d f09f 8e3c fb60 14bd
00000260: d91c 22bc 0d95 40bc 29a0 1e3b 9158 183d
00000270: 98db 5cbb ebd0 58bc 017e a2bc 53e5 76bc
00000280: 7fec 303d 60ba 363c d427 343c e75e 603c
00000290: 4e3f fb3c 210b 7abb 8393 013d a6c4 c13c
000002a0: 0fdd bfbc ae08 273c a19e be3c bdc7 a93c
000002b0: 6cec 1d3d d47f b5bc ef72 d63c a552 143d
000002c0: 8a6f f6bc d160 213d 3a7c 12bc 32a7 0f3d
000002d0: 36dd 213d 9e27 273b 98cf f63c 279f a93c
000002e0: b259 ca3c 8d0a 043d c018 30bb d305 c23c
000002f0: f80b c53c 1ca3 88bc 26d9 073d 19b1 08bc
00000300: 4262 0c3b ba85 5b3c 5970 c5bc 060d 103d
00000310: 557c 32bc c175 d73c 4875 64bc dec9 6c3c
00000320: e271 ad3c 8972 913c 8a35 143c fab8 42bc
00000330: 96d5 1dba a734 36bb bf47 6d3c c65e 0abd
00000340: b292 11bc a1da 923c fdb3 0eb9 22b2 493d
00000350: fff6 87ba ae6b 0a3d 505d 0c3d 554d 953c
00000360: b18c d03b ecf8 84bc 8168 9b3b b500 a1bc
00000370: 16b3 483d c360 383d 02a9 9d3c 4d4a 4dbc
00000380: 01d7 b3bc 028a 863c 9b32 69bc 6670 b5bc
00000390: c28e 6c3c 520c 52bc 48c8 5abc 5b59 babb
000003a0: dd38 54bb a5e8 9e3c 5578 b63a 2ad2 8abc
000003b0: 2b9f 3b3d afbe 62bc 471b a43c 07b4 f03c
000003c0: ace3 593c 39d0 6c3c b908 03bc 8f14 b1bc
000003d0: ae49 0e3d 2ce0 023d 9d27 3d3d b7f4 423d
000003e0: 5990 783c 4909 c23c c623 98bc cd87 eebc
000003f0: 24f2 153d eb52 9fbb 64a2 bebc 744b 013d

bias f4 [32]
-0.04069386 -0.06108184 -0.015335366 0.032735847 -0.03466533 -0.013345691 -0.01857211 -0.076362796
0.010534623 -0.032184456 -0.02069321 -0.025824364 -0.018325433 -0.074482486 -0.037467744 0.021350885
-0.054186724 -0.014548528 -0.03816994 -3.9121787e-05 0.038449086 -0.019204864 -0.044204243 -0.0076730596
-0.03733943 -0.049777206 0.013980524 -0.04221225 -0.05713563 -0.048683897 -0.06839935 0.028725859
00000000: 9bae 26bd f430 7abd 3041 7bbc 0616 063d
00000010: 3cfd 0dbd e3a7 5abc 8a24 98bc 1964 9cbd
00000020: 6999 2c3c d9d3 03bd cf84 a9bc 9e8d d3bc
00000030: 381f 96bc 468a 98bd c777 19bd 0de8 ae3c
00000040: e6f2 5dbd f35c 6ebc 1558 1cbd b316 24b8
00000050: ca7c 1d3d 8553 9dbc 820f 35bd 4a6e fbbb
00000060: 3bf1 18bd 2fe3 4bbd 910e 653c c1e6 2cbd
00000070: 0d07 6abd c468 47bd f514 8cbd 7e52 eb3c

weight f4 [64, 32, 5, 5]
0.01292285 0.014258538 0.012537382 0.025965042 -0.019848315 0.008005689 0.027522631 0.008804792
0.037554935 0.027382862 -0.00032102488 -0.0059080254 0.04137782 0.002935018 -0.004224176 0.024906896
-0.0257575 0.009025332 0.02420241 0.010054746 -0.023047155 -0.031332873 0.016961152 -0.012259776
0.0075938855 0.014890471 -0.026931651 0.00039711 0.023834053 -0.004798543 0.027967293 -0.029376216
-0.00079911907 -0.02657827 -0.023470556 -0.035420105 0.009766126 0.024742395 0.019551333 -0.0038526533
0.020773299 0.024210671 -0.03603355 -0.030770404 0.037732814 -0.012033347 -0.02733504 0.03601807
0.00016827293 0.03549023 -0.0027329102 -0.01951683 0.03012248 0.004894154 -0.015929686 0.026940744
-0.026866691 0.031481933 0.010416581 -0.00867668 -0.022352217 -0.011313543 0.0017527941 0.027586995
-0.013594911 0.018370455 0.028291006 -0.029934086 0.004957465 0.00033303333 -0.034965243 -0.016831463
-0.021534419 0.0035344497 -0.023682164 -0.010739111 -0.0004216291 -0.00820949 -0.028690184 0.0016095
0.025129832 -0.0015417202 -0.013871725 -0.013671024 0.00819385 -0.034541965 0.0025490962 -0.0018488695
0.032539487 -0.03294283 0.004865991 -0.0053363713 0.026294695 -0.025992308 -0.018317252 -0.024711363
0.01504311 -0.029769097 0.002672403 0.034805644 -0.016901372 -0.036629144 -0.018672675 -0.0005948871
0.03001048 0.0027455026 -0.011726905 -0.010651516 0.0013946103 -0.0122343935 0.029280145 0.0034734858
-0.028163686 0.0016816674 0.0078081763 0.033672642 -0.032708053 -0.012209439 0.03202263 0.018183824
-0.016398937 -0.019463776 0.010929201 -0.009617477 0.020969003 -0.0062823514 -0.010980851 -0.005250634
0.030851394 0.026362883 0.00511891 0.010222227 0.007611037 -0.0035139895 -0.0087165935 -0.027683591
-0.032427624 0.030399695 0.00969094 0.019963667 0.008706129 -0.011508929 0.034932785 0.0051061567
0.022489361 0.020804117 -0.039008502 0.013371489 0.007290098 -0.014628169 -0.008240568 -0.025395757
0.030010672 0.009210008 0.0037229978 0.032415185 0.028396057 0.022000467 -0.032554526 -0.0077213147
0.030477315 -0.018247895 -0.006250997 -0.00065272424 0.00778064 0.018695248 0.03640752 0.039866433
0.007564976 -0.0029339606 0.0059980834 -0.0014384321 -0.008515063 0.0013598683 0.03880813 -0.0067217494
0.0033950966 0.004027406 0.036885705 -0.017682083 -0.008144914 -0.022871256 -0.012425206 0.03147892
0.017152753 0.002488244 0.021564458 0.027836194 0.007007969 0.024506833 0.009244412 -0.031723894
-0.020762917 0.0053746556 -0.023187263 -0.0076639475 -0.025187278 0.0002574227 0.007955008 0.039007924
-0.015248619 -0.009926917 -0.02342416 -0.016898174 0.03360291 -0.0015892579 0.019248296 -0.0018828614
0.0129464455 -0.015465711 -0.017116409 0.016330639 -0.0048228134 -0.020563401 0.005945664 0.0053612106
0.026521701 -0.019375369 0.023011087 0.022743527 0.011360417 -0.01883779 0.013076333 0.032305043
0.033992045 -0.010724962 -0.014552557 -0.029736996 0.037357323 0.0074736974 -0.015449165 0.015011276
-0.011919999 -0.007713463 0.04378144 0.0013200224 -0.024052322 -0.008192123 0.0041877218 0.027564254
-0.014822271 -0.009593153 0.034519862 -0.0077594086 0.027418887 -0.00023741866 0.0012408373 -0.028339043
-0.03398558 0.029820178 -0.028651359 -0.013969442 -0.023548085 -0.029585576 0.010087755 -0.025224967
00000000: 5dba 533c a59c 693c 9769 4d3c a4b4 d43c
00000010: ef98 a2bc 4b2a 033c 2477 e13c f941 103c
00000020: 34d3 193d 0652 e03c 3b4f a8b9 1c98 c1bb
00000030: ca7b 293d 6e59 403b f56a 8abb 8c09 cc3c
00000040: 6501 d3bc fcde 133c 2244 c63c a9bc 243c
00000050: 63cd bcbc e656 00bd 1df2 8a3c 3add 48bc
00000060: 21d6 f83b 29f7 733c c49f dcbc 3433 d039
00000070: a23f c33c 193d 9dbb aa1b e53c 64a6 f0bc
00000080: f97b 51ba acba d9bc 5345 c0bc ac14 11bd
00000090: 1a02 203c 90b0 ca3c 1e2a a03c cc7c 7cbb
000000a0: c42c aa3c 7555 c63c ea97 13bd 3712 fcbc
000000b0: b98d 1a3d 8427 45bc bced dfbc af87 133d
000000c0: 6c72 3039 345e 113d a01a 33bb c2e1 9fbc
000000d0: 6bc3 f63c 245f a03b f97e 82bc d6b2 dc3c
000000e0: 8917 dcbc 33f3 003d 4faa 2a3c a228 0ebc
000000f0: ff1b b7bc 705c 39bc 03be e53a 1ffe e13c
00000100: 31bd 5ebc a37d 963c 8ac2 e73c 5438 f5bc
00000110: 3b72 a23b fa9a ae39 b737 0fbd 23e2 89bc
00000120: f368 b0bc 3aa2 673b 1901 c2bc 19f3 2fbc
00000130: 1a0e ddb9 1981 06bc ad07 ebbc dcf5 d23a
00000140: 14dd cd3c 8c13 caba 3b46 63bc 6efc 5fbc
00000150: 7f3f 063c e07b 0dbd bd0e 273b c455 f2ba
00000160: 2048 053d 10ef 06bd e472 9f3b badc aebb
00000170: f967 d73c d2ed d4bc 100e 96bc 7c6f cabc
00000180: 6077 763c 52de f3bc 7b23 2f3b 5d90 0e3d
00000190: bf74 8abc 7108 16bd 70f7 98bc 33f2 1bba
000001a0: 8ad8 f53c e4ed 333b 3422 40bc b283 2ebc
000001b0: 5bcb b63a c472 48bc eadc ef3c 6ca3 633b
000001c0: 88b7 e6bc 656b dc3a bbdb ff3b 53ec 093d
000001d0: e1f8 05bd 190a 48bc 292a 033d 3ef6 943c
000001e0: 1057 86bc 7f72 9fbc 6410 333c 9f92 1dbc
000001f0: 30c7 ab3c 2fdc cdbb 07e9 33bc 830d acbb
00000200: 10bc fc3c f9f6 d73c 88bc a73b 217b 273c
00000210: 0266 f93b f64a 66bb 0bd0 0ebc b3c8 e2bc
00000220: d4d2 04bd c808 f93c c0c6 1e3c d88a a33c
00000230: 27a4 0e3c f28f 3cbc ae15 0f3d 8c51 a73b
00000240: 9c3b b83c 656d aa3c 61c7 1fbd 1714 5b3c
00000250: c6e1 ee3b fdaa 6fbc 7303 07bc c30a d0bc
00000260: f1d8 f53c 93e5 163c 8afd 733b c9c5 043d
00000270: d99e e83c 533a b43c e557 05bd 1503 fdbb
00000280: 90ab f93c 9c7c 95bc 2ad5 ccbb 951b 2bba
00000290: bdf4 fe3b c726 993c 0d20 153d fc4a 233d
000002a0: 9ee3 f73b b147 40bb 928b c43b c689 bcba
000002b0: c382 0bbc 9c3d b23a 46f5 1e3d 1f42 dcbb
000002c0: 4580 5e3b 55f8 833b 7715 173d 04da 90bc
000002d0: 3f72 05bc 805c bbbc 1793 4bbc 0af0 003d
000002e0: ee83 8c3c cf11 233b f2a7 b03c bb08 e43c
000002f0: 1ba3 e53b 8ec2 c83c e075 173c eaf0 01bd
00000300: fe16 aabc e11d b03b 37f3 bdbc da21 fbbb
00000310: 8d55 cebc b1f6 8639 b955 023c c6c6 1f3d
00000320: 58d5 79bc 82a4 22bc 06e4 bfbc 0a6e 8abc
00000330: 34a3 093d a54e d0ba 9aae 9d3c 58ca f6ba
00000340: 541d 543c e563 7dbc b637 8cbc d5c7 853c
00000350: b108 9ebb 9474 a8bc d8d3 c23b 18ad af3b
00000360: 0a44 d93c 18b9 9ebc bf81 bc3c a250 ba3c
00000370: 0b21 3a3c b551 9abc 1e3e 563c 4b52 043d
00000380: 3e3b 0b3d c0b7 2fbc d96d 6ebc 009b f3bc
00000390: fe03 193d ebe5 f43b 7f1e 7dbc dbf1 753c
000003a0: 194c 43bc 38c1 fcbb 2b54 333d 9a04 ad3a
000003b0: 6009 c5bc 4138 06bc 2839 893b 6ece e13c
000003c0: 1cd9 72bc 9a2c 1dbc b364 0d3d a342 febb
000003d0: 939d e03c 96f3 78b9 97a3 a23a 4827 e8bc
000003e0: 7734 0bbd 7249 f43c 41b6 eabc 16e0 64bc
000003f0: eae7 c0bc 735d f2bc 1c47 253c 97a4 cebc

bias f4 [64]
-0.0053071487 -0.016006226 -0.03638165 0.020430781 -0.01768128 -0.011548721 -0.048344087 -0.03282879
-0.054766197 0.017876392 0.01952821 -0.015619715 -0.039300036 0.03564562 0.013238025 0.039664917
-0.017723966 -0.028997418 -0.0049634688 0.012671144 -0.007448261 -0.01302141 0.028290635 -0.018963313
-0.026652483 -0.015598803 -0.029939678 -0.035531346 0.030061351 0.010856366 0.0462 -0.006799522
0.022064464 -0.0006821676 -0.017348502 0.023781983 0.024571033 -0.004232704 -0.0016294058 0.006836588
-0.030605005 4.4085496e-05 -0.012929924 0.042569734 0.0180796 0.01861624 0.013766812 -0.012139338
-0.065035716 0.009376918 -0.012782473 -0.048728477 0.0119179785 0.00014390847 -0.03890605 -0.007021506
0.013242846 -0.019911433 0.034868706 -0.037067678 -0.010274043 -0.018308587 -0.017536296 -0.00068699854
00000000: 97e7 adbb 7d1f 83bc ed04 15bd 745e a73c
00000010: 55d8 90bc d936 3dbc 7304 46bd 7b77 06bd
00000020: 8552 60bd 8371 923c a0f9 9f3c d5e9 7fbc
00000030: 13f9 20bd 2401 123d 4de4 583c ae77 223d
00000040: da31 91bc fe8b edbc 98a4 a2bb a19a 4f3c
00000050: 8b10 f4bb c157 55bc c3c1 e73c f358 9bbc
00000060: 4f56 dabc 1f92 7fbc 0e44 f5bc 5189 11bd
00000070: 3943 f63c e6de 313c 363c 3d3d 86ce debb
00000080: 89c0 b43c 7ed3 32ba 721e 8ebc 6fd2 c23c
00000090: 3149 c93c 7fb2 8abb c991 d5ba 7505 e03b
000000a0: 59b7 fabc 71e8 3838 08d8 53bc 9a5d 2e3d
000000b0: ab1b 943c 1681 983c 328e 613c 13e4 46bc
000000c0: 7231 85bd a5a1 193c 946d 51bc 8397 47bd
000000d0: a043 433c 23e6 1639 f35b 1fbd a914 e6bb
000000e0: 86f8 583c 4d1d a3bc 7dd2 0e3d 47d4 17bd
000000f0: 7654 28bc e4fb 95bc 47a8 8fbc b117 34ba

weight f4 [64, 1024]
-0.014354376 0.0067724516 -0.021376325 0.024116926 0.017009163 0.029276075 -0.0143289715 -0.008759698
0.014087309 0.013910341 -0.03850776 0.0141377 0.026440661 0.024174396 0.00557981 -0.011405269
-0.02373807 0.029378796 0.0072054453 -0.017023213 0.024528386 0.040158436 -0.0035756517 0.01838501
0.009199695 0.030416247 -0.0044116573 0.0072862343 -0.019540118 -0.0053810533 0.026220422 0.012304955
0.008015387 0.022004273 -0.0009306612 0.025261864 0.03580626 0.011254777 0.0032238476 0.0054080174
0.02900126 -0.023208017 -0.001757465 0.020269658 -0.013955226 0.00025938515 0.028026525 -0.027287878
0.027335871 -0.004564119 -0.006592509 0.012529895 -0.017748637 0.015140053 -0.023290193 -0.026560243
0.014491227 0.009854012 -0.002603566 -0.03641771 -0.01676905 0.0066711777 0.017464535 0.01824311
-0.006505362 -0.012258136 0.017268293 0.020025844 0.02700172 -0.018312525 0.0029991884 -0.013058189
0.010463334 0.0103994375 0.02299524 -0.0023722416 -0.02292389 0.0007531338 -0.017016333 0.016881255
0.016426722 0.023910882 -0.017434677 0.0040062345 -0.02005434 0.033651043 0.0047835647 0.023541268
-0.031995602 0.020006908 0.02118666 -0.020442508 0.009869934 0.013567053 0.026022235 -0.005722696
-0.022528084 -0.0056550065 0.022139253 -0.008458047 0.013298956 0.029768549 0.005080204 -0.02816335
-0.0069160555 -0.024695395 -0.00047562833 0.017650316 -0.00217879 0.0044830106 -0.025607305 -0.015676636
0.011609405 -0.0047583017 -0.009069232 0.011660627 0.010085293 -0.028090794 -0.011910834 -0.024668979
-0.0010709645 0.01599235 -0.010604375 0.018105598 0.021706572 -0.013471132 0.00053186796 0.008826191
-0.02031509 0.024767967 0.021636996 0.027602868 0.002249986 -0.00037915015 -0.0093167275 -0.0070080445
0.026968705 0.007659404 -0.020049183 0.0135855 0.011345555 0.030610885 -0.028701775 -0.030333083
0.021528238 0.00039696053 0.015425367 -0.022843381 -0.014377072 -0.0066755973 -0.0035266734 -0.02515501
-0.007171462 0.025446242 0.024410343 0.030464308 0.0040887087 0.01694347 -0.016090853 0.013468608
0.025168523 0.005057252 -0.019218953 -0.0030373682 -0.016442752 -0.018236874 0.01233321 -0.0039074286
0.030027213 -0.012699666 -0.002873043 -0.01892455 0.0071021705 -0.0025512695 0.023158863 -0.027533008
-0.023327682 -0.016407588 0.0041257087 -0.0025755349 0.0020402502 0.030660355 -0.014198239 -0.027664207
-0.015096249 0.03643545 0.0013292001 0.007182838 -0.027456122 0.025691714 -0.02616895 -0.0007573784
0.02609293 0.012844717 -0.020853607 0.01586972 0.022188338 0.031729523 0.018415904 -0.0033917187
0.0063452306 0.032336626 -0.032781817 -0.009650904 -0.011842618 -0.015832813 -0.023177322 -0.02123208
0.036597032 0.026758507 0.019822303 0.015446174 0.024912827 -0.028224606 0.00043976205 0.025006684
0.0068097045 0.029903531 0.005410699 0.013758074 -0.00212003 0.029146152 0.016263627 -0.021544304
0.023589358 -0.02352201 -0.013987582 -0.013220256 -0.0126891835 0.014762546 -0.0034905865 0.027157119
-0.030063497 -0.035143528 -0.026138902 0.021162087 0.011240982 0.0029020465 0.009004082 -0.012103843
-0.030928604 -0.0021722603 0.033684306 0.0013246903 -0.014093932 -0.027269742 0.015509613 -0.030880047
-0.026296504 -0.0061765076 0.0034800686 -0.021752533 -0.019175714 -4.2955835e-05 0.0059679244 0.022516862
00000000: 9e2e 6bbc 71eb dd3b 671d afbc dc90 c53c
00000010: cd56 8b3c 61d4 ef3c 10c4 6abc d684 0fbc
00000020: 75ce 663c 33e8 633c 50ba 1dbd d0a1 673c
00000030: 169a d83c 6209 c63c d7d6 b63b 2add 3abc
00000040: 5776 c2bc cdab f03c a81b ec3b 4474 8bbc
00000050: c1ef c83c 2c7d 243d 7b55 6abb 299c 963c
00000060: 51ba 163c 7e2b f93c aa8f 90bb 5dc1 ee3b
00000070: 9912 a0bc 8c53 b0bb 36cc d63c b99a 493c
00000080: f852 033c 4e42 b43c 9ef7 73ba f8f1 ce3c
00000090: 96a9 123d f565 383c 3047 533b bd35 b13b
000000a0: 0d94 ed3c bd1e bebc bd5a e6ba 8e0c a63c
000000b0: 76a4 64bc 16fe 8739 e297 e53c d48a dfbc
000000c0: 7aef df3c 9b8e 95bb f905 d8bb 304a 4d3c
000000d0: 9765 91bc fc0d 783c 13cb bebc de94 d9bc
000000e0: 9d6c 6d3c b972 213c 97a0 2abb bd2a 15bd
000000f0: 3f5f 89bc e599 da3b c911 8f3c 9372 953c
00000100: ef2a d5bb 59d6 48bc 3c76 8d3c 3d0d a43c
00000110: b632 dd3c 2604 96bc 088e 443b 04f2 55bc
00000120: 676e 2b3c 6762 2a3c 8360 bc3c 9c77 1bbb
00000130: e2ca bbbc f46d 453a d665 8bbc 8f4a 8a3c
00000140: 5591 863c c1e0 c33c 2bd3 8ebc bb46 833b
00000150: 0049 a4bc add5 093d 73bf 9c3b 9ed9 c03c
00000160: d20d 03bd 87e5 a33c a58f ad3c 0c77 a7bc
00000170: 81b5 213c 5848 5e3c 952c d53c 7485 bbbb
00000180: d18c b8bc a24d b9bb 615d b53c 9f93 0abc
00000190: dde3 593c 2cdd f33c d777 a63b d3b6 e6bc
000001a0: 14a0 e2bb ff4d cabc c15d f9b9 6597 903c
000001b0: 08ca 0ebb 38e6 923b 69c6 d1bc 4a6c 80bc
000001c0: 6035 3e3c 87eb 9bbb 1e97 14bc 370c 3f3c
000001d0: c93c 253c aa1e e6bc a925 43bc 9916 cabc
000001e0: 9b5f 8cba 6402 833c f9bd 2dbc 3152 943c
000001f0: fbd1 b13c 06b6 5cbc 0e6d 0b3a ba9b 103c
00000200: d56b a6bc 31e6 ca3c 1240 b13c 691f e23c
00000210: 8074 133b acc8 c6b9 30a5 18bc bda3 e5bb
00000220: 79ed dc3c bdfb fa3b 2f3e a4bc b895 5e3c
00000230: b5e2 393c aec3 fa3c fc1f ebbc 167d f8bc
00000240: fd5b b03c 241f d039 aeba 7c3c 0b22 bbbc
00000250: d08d 6bbc f8be dabb c31f 67bb e111 cebc
00000260: 95fe eabb a374 d03c 33f8 c73c 4990 f93c
00000270: 93fa 853b 08cd 8a3c f7d0 83bc 70ab 5c3c
00000280: 382e ce3c 4eb7 a53b 1171 9dbc 950e 47bb
00000290: f3b2 86bc 7f65 95bc 3b11 4a3c e309 80bb
000002a0: a1fb f53c 4312 50bc aa49 3cbb a807 9bbc
000002b0: 53b9 e83b 3333 27bb a8b7 bd3c e78c e1bc
000002c0: b219 bfbc 3569 86bc f430 873b 4eca 28bb
000002d0: b8b5 053b 6d2b fb3c bb9f 68bc 0ca0 e2bc
000002e0: 4256 77bc 573d 153d 8e38 ae3a 035e eb3b
000002f0: a9eb e0bc 6e77 d23c 4460 d6bc ce8a 46ba
00000300: d7c0 d53c a672 523c 2fd5 aabc 3701 823c
00000310: 51c4 b53c d1f6 013d f3dc 963c 9947 5ebb
00000320: a7eb cf3b 6973 043d 3a46 06bd d31e 1ebc
00000330: 8a07 42bc d1b3 81bc 5ede bdbc e6ee adbc
00000340: c5e6 153d a834 db3c 6262 a23c f311 7d3c
00000350: fc15 cc3c 4a37 e7bc dd8f e639 d1da cc3c
00000360: f123 df3b 40f8 f43c 3c4c b13b 8b69 613c
00000370: 34f0 0abb e9c3 ee3c 4c3b 853c ae7d b0bc
00000380: 783e c13c 3bb1 c0bc 2c2c 65bc c699 58bc
00000390: 4be6 4fbc 9bde 713c 53c2 64bb 9b78 de3c
000003a0: b947 f6bc a9f2 0fbd 4021 d6bc 1d5c ad3c
000003b0: 192c 383c 4330 3e3b db85 133c 324f 46bc
000003c0: fc5d fdbc 7b5c 0ebb 8ef8 093d 3ba1 ad3a
000003d0: 3cea 66bc cb64 dfbc 081c 7e3c 27f8 fcbc
000003e0: c46b d7bc 4d64 cabb dd11 643b 5e32 b2bc
000003f0: 6316 9dbc 7a2b 34b8 948e c33b 4875 b83c

bias f4 [64]
-0.0218565 -0.026491934 0.024371002 -0.007221849 0.003912031 -0.0076880604 -0.0070750425 0.0121951485
-0.031247472 -0.012515905 2.9338651e-05 -0.01075953 0.023683222 -0.00047582752 -0.01911957 0.008460469
-0.009779118 0.020906067 -0.0037251108 0.05205578 0.0032399949 0.049521852 0.035982806 0.0037812325
0.0089737605 -0.033667386 0.013872508 -0.0091624195 -0.03027317 -0.043950908 0.012298749 0.0016549465
-0.016817003 0.018624125 -0.037042085 0.023883749 -0.02217669 0.063045606 -0.0041834386 0.022504527
-0.0069174846 0.0234883 -0.024735874 0.036027923 0.01148902 -0.014468467 -0.042378955 -0.011784065
0.042907573 0.0065981657 0.0028081897 0.010056972 -0.013707327 0.019929716 0.00088116975 0.04104597
0.016706573 -0.011242345 -0.051968373 -0.019931579 0.026296927 0.0043637636 -0.040099174 0.027835807
00000000: 670c b3bc 9d05 d9bc b2a5 c73c 43a5 ecbb
00000010: 7f30 803b 20ec fbbb c2d5 e7bb 29ce 473c
00000020: b3fa ffbc 830f 4dbc 461c f637 bd48 30bc
00000030: 5103 c23c 7d78 f9b9 a5a0 9cbc c79d 0a3c
00000040: 9838 20bc 3343 ab3c fd20 74bb 7138 553d
00000050: 1856 543b 6dd7 4a3d b562 133d 8ece 773b
00000060: ae06 133c d0e6 09bd 8449 633c f91d 16bc
00000070: 70ff f7bc de05 34bd b180 493c caea d83a
00000080: d0c3 89bc 9f91 983c 71b9 17bd daa7 c33c
00000090: e4ab b5bc 0e1e 813d 3a15 89bb 6a5b b83c
000000a0: 11ac e2bb 896a c03c e3a2 cabc 0492 133d
000000b0: 713c 3c3c 260d 6dbc 8e95 2dbd f311 41bc
000000c0: dabf 2f3d 6d35 d83b 9b09 383b ffc5 243c
000000d0: b294 60bc a543 a33c 4dfe 663a d21f 283d
000000e0: 39dc 883c d031 38bc cadc 54bd 8d47 a3bc
000000f0: a76c d73c e7fd 8e3b 083f 24bd eb07 e43c

weight f4 [10, 64]
-0.11362054 -0.019294582 -0.0065472457 -0.022408519 0.10050423 -0.07171954 0.13220234 0.06031981
0.0797678 -0.1251733 -0.044125106 -0.023400642 0.022286562 0.07041448 -0.030662801 -0.06316222
0.02056282 -0.10453058 0.019580366 -0.09602622 -0.032331884 -0.11998822 -0.15233326 -0.046861846
-0.14970334 -0.042017948 -0.0681724 -0.055700406 -0.10693458 0.085100204 -0.027807975 -0.08526987
0.07299999 0.14292844 -0.014541899 -0.029210052 0.01677647 -0.11279833 -0.08810468 -0.060753964
0.035652563 0.15164268 -0.12181394 -0.13849682 0.075493515 0.10352783 0.14583856 0.028280126
-0.119405195 0.042085562 -0.14467362 0.081514195 0.08522219 -0.12003239 0.017298948 -0.12680624
0.09313066 -0.157979 0.11341214 0.15485096 -0.14782079 -0.08425673 0.14012863 -0.051333424
-0.12029437 0.098110475 0.23020507 0.06765562 -0.07169925 0.085293286 -0.009265034 -0.17794909
0.17665505 0.14510573 -0.19158278 -0.1384588 -0.038636364 0.0049916916 0.09947923 -0.015187126
0.12100575 -0.16359504 0.11838481 0.09803497 -0.18355931 -0.084106274 -0.06766672 0.056273166
-0.11444391 0.0372223 -0.09177259 -0.035549838 -0.10098616 -0.008935799 -0.021090318 0.11034818
0.03512342 -0.0117444815 0.0013301568 0.12547977 0.08089223 -0.08147516 0.19313115 -0.019594215
0.07909337 0.08632489 0.14186773 0.04468413 0.08069621 0.045142855 0.14324903 0.1250579
-0.12395724 0.027629634 0.051920526 0.1525829 -0.08198967 0.035148304 -0.104925476 -0.1100216
0.091332726 -0.0694562 -0.09160368 0.054418836 -0.25265628 0.03758303 -0.057309087 0.16262732
0.09291784 0.0996075 -0.034079686 0.086866885 0.04969096 -0.14700581 0.09086375 0.022321718
-0.073827684 -0.028416421 -0.07919857 0.16149515 -0.004466266 -0.07571807 -0.048204675 0.0313016
-0.084843725 0.07064019 0.08086528 0.16072348 0.07057478 -0.09534902 -0.095424086 0.09375219
-0.08460421 -0.012502138 -0.008042889 -0.119263195 0.074885435 0.11466576 -0.11856854 -0.030906362
-0.062395304 -0.1205747 -0.1253914 -0.12810709 0.0026562058 -0.06289837 0.033661615 0.15423152
-0.11073962 0.1831721 -0.022762781 -0.12883185 -0.03214979 -0.11347259 -0.052702423 -0.08808581
-0.049607005 -0.05768354 0.12529244 -0.10017311 -0.12743913 -0.102679856 0.16546592 0.0882994
-0.01261269 -0.08513915 0.05189635 0.07572921 0.109241106 0.120656006 0.043726563 0.10556509
0.011886493 0.011583059 0.008032231 -0.082862735 -0.03530035 -0.0700485 -0.14951041 0.1037483
0.11100739 -0.047215693 0.042012017 0.10119563 0.12568502 0.010903427 -0.10526153 0.07231156
-0.02736747 0.15142119 -0.09246912 0.124221876 -0.051975857 0.13565625 0.16828644 -0.08567403
0.20104301 0.09433572 -0.15164407 0.18504687 -0.030188553 -0.08823604 -0.12192176 -0.005025178
-0.057301443 0.06703419 -0.06203745 -0.043132324 -0.10384773 -0.0024891659 0.029575419 -0.1450332
-0.086961515 0.047789935 -0.031347 -0.067516394 -0.12549658 0.087400675 -0.11458686 0.0013478905
-0.08804515 -0.12498425 0.17537397 -0.04278496 -0.07739938 -0.1114228 -0.12931262 0.13106379
0.04505812 -0.055150867 -0.118819535 -0.049511068 0.13049625 -0.011731849 0.05221252 0.1181464
00000000: e3b1 e8bd ac0f 9ebc 478a d6bb 1292 b7bc
00000010: 29d5 cd3d b2e1 92bd 0d60 073e e811 773d
00000020: 4d5d a33d 6e2d 00be 87bc 34bd b4b2 bfbc
00000030: 4f92 b63c 7835 903d 8e30 fbbc 325b 81bd
00000040: 5c73 a83c 2114 d6bd 0167 a03c 65a9 c4bd
00000050: 706e 04bd 62bc f5bd 40fd 1bbe 35f2 3fbd
00000060: d54b 19be 031b 2cbd f99d 8bbd 1c26 64bd
00000070: 8400 dbbd 0449 ae3d 8dcd e3bc f8a1 aebd
00000080: 0581 953d d55b 123e 2541 6ebc eb49 efbc
00000090: cf6e 893c d002 e7bd 3a70 b4bd 26d9 78bd
000000a0: 6c08 123d 3848 1b3e 9679 f9bd 1cd2 0dbe
000000b0: 589c 9a3d 6606 d43d b456 153e b9ab e73c
000000c0: b68a f4bd e961 2c3d 5225 14be eaf0 a63d
000000d0: f988 ae3d 8bd3 f5bd 86b6 8d3c 7fd9 01be
000000e0: 4abb be3d 3fc5 21be a044 e83d 4091 1e3e
000000f0: 555e 17be cb8e acbd e17d 0f3e ff42 52bd
00000100: e55c f6bd 25ee c83d e1ba 6b3e 088f 8a3d
00000110: 0ed7 92bd 3fae ae3d 5fcc 17bc 4938 36be
00000120: 10e5 343e 9996 143e 472e 44be 25c8 0dbe
00000130: 2a41 1ebd 5891 a33b c4bb cb3d 6cd3 78bc
00000140: ddd1 f73d 7585 27be bc73 f23d 8fc6 c83d
00000150: f9f6 3bbe e93f acbd d994 8abd b17e 663d
00000160: 9261 eabd 6976 183d 45f3 bbbd b59c 11bd
00000170: d5d1 cebd 7567 12bc 9ac5 acbc 3afe e13d
00000180: 93dd 0f3d ed6b 40bc a858 ae3a c57d 003e
00000190: d3aa a53d 73dc a6bd 2cc4 453e 0c84 a0bc
000001a0: b4fb a13d 1bcb b03d c645 113e b506 373d
000001b0: 0e44 a53d b7e7 383d e0af 123e 2e0f 003e
000001c0: 4bdd fdbd 8b57 e23c 9eaa 543d b13e 1c3e
000001d0: 33ea a7bd abf7 0f3d 2be3 d6bd 0153 e1bd
000001e0: a70c bb3d 0d3f 8ebd b69a bbbd 49e6 5e3d
000001f0: 2a5c 81be aaf0 193d efbc 6abd c787 263e
00000200: b54b be3d 04ff cb3d 2497 0bbd 44e7 b13d
00000210: c088 4b3d b188 16be c616 ba3d 09dc b63c
00000220: f832 97bd 8ec9 e8bc dc32 a2bd fc5e 253e
00000230: c159 92bb 1312 9bbd 4472 45bd 1b36 003d
00000240: 8cc2 adbd ceab 903d b29c a53d b294 243e
00000250: 8389 903d 5946 c3bd b46d c3bd 2601 c03d
00000260: f944 adbd c4d5 4cbc 52c6 03bc 4340 f4bd
00000270: 895d 993d e2d5 ea3d 10d4 f2bd 572f fdbc
00000280: 3892 7fbd deef f6bd 9a66 00be 812e 03be
00000290: bd13 2e3b dcd0 80bd c3e0 093d deee 1d3e
000002a0: 74cb e2bd 7891 3b3e 0379 babc 7fec 03be
000002b0: 80af 03bd 5164 e8bd 7fde 57bd 5566 b4bd
000002c0: b730 4bbd 9345 6cbd a94c 003e 8f27 cdbd
000002d0: 677f 02be d149 d2bd e66f 293e 51d6 b43d
000002e0: 75a5 4ebc 6f5d aebd 4491 543d eb17 9b3d
000002f0: cdb9 df3d 7f1a f73d a01a 333d 8332 d83d
00000300: 91bf 423c dfc6 3d3c 9e99 033c f0b3 a9bd
00000310: 1a97 10bd 9775 8fbd 4219 19be fd79 d43d
00000320: d857 e33d 3e65 41bd cb14 2c3d a83f cf3d
00000330: 93b3 003e 4aa4 323c 5b93 d7bd 1518 943d
00000340: bf31 e0bc 280e 1b3e 7360 bdbd 0a68 fe3d
00000350: a3e4 54bd 79e9 0a3e 4853 2c3e de75 afbd
00000360: 38de 4d3e 1633 c13d 9548 1bbe ed7c 3d3e
00000370: fc4d f7bc 19b5 b4bd 1eb2 f9bd 40aa a4bb
00000380: ebb4 6abd 3949 893d fb1a 7ebd 85ab 30bd
00000390: 1eae d4bd 4621 23bb 2648 f23c 9583 14be
000003a0: e118 b2bd 61bf 433d b665 00bd 0946 8abd
000003b0: 2d82 00be 20ff b23d 84ac eabd b3ab b03a
000003c0: 0451 b4bd bef7 ffbd 3c95 333e 483f 2fbd
000003d0: 9183 9ebd a331 e4bd 876a 04be 9635 063e
000003e0: dd8e 383d e0e5 61bd a857 f3bd 1ecc 4abd
000003f0: cfa0 053e f136 40bc ccdc 553d bdf6 f13d

bias f4 [10]
-0.020009678 0.08281777 0.039130516 -0.06830328 0.11167352 -0.038175926 -0.023424268 -0.09141779
-0.0792689 0.016064243
00000000: 56eb a3bc 5d9c a93d 5247 203d 97e2 8bbd
00000010: 16b5 e43d 5c5e 1cbd 40e4 bfbc 4039 bbbd
00000020: bc57 a2bd 2999 833c
