test_6.pth (torch, 587207 bytes, 10 tensors)

weight f4 [32, 3, 5, 5]
000000 12 be 17 bd 2e ca 58 3c d9 f5 88 bc ef e4 45 3d
       -0.0370465 0.013231797 -0.016718792 0.04831403
000010 e9 8e bb 3d c5 04 fa bd 3b b3 66 bd d2 69 7f 3c
       0.09158117 -0.12207941 -0.05632327 0.015589194
000020 ff bf 53 3d 7c c7 cf bd 97 f1 89 bd 49 f7 50 3d
       0.051696774 -0.101454705 -0.06735533 0.05101708
000030 a8 be cb 3d e5 1d 10 3e c6 63 14 bd a2 d8 ac bd
       0.09948474 0.14073904 -0.036227964 -0.08439757
000040 40 d9 9a bd 10 06 32 3d 6d 4d 99 3d 4d ac 2d 3d
       -0.075609684 0.043462813 0.07485471 0.042400647
000050 95 65 aa bd c1 1f b1 3d 2c 84 4a 3e 2a be de 3d
       -0.083201565 0.08648635 0.19776982 0.10876115
000060 d5 d5 d2 bd cd 6d 15 be 3c b0 85 bd 42 8d 12 3e
       -0.102946915 -0.14592667 -0.06527755 0.14311698
000070 42 51 67 3d c1 01 0f 3e 90 b5 1f bc 1a 43 d8 bc
       0.056473978 0.13965513 -0.009747878 -0.026399184
000080 7a 8f 1d 3e c0 95 04 3e 65 65 24 3e 96 68 81 bd
       0.15386763 0.1294775 0.16054304 -0.06318776
000090 9a 7a f7 3d b0 b2 7a 3d 2b cd 07 3d e7 01 ca 3c
       0.12083931 0.061205566 0.033154648 0.02465911
0000a0 0e ef d8 3c 2c 4d 7f 3d 76 de 3e 3e f9 61 d1 3d
       0.026481178 0.062329456 0.1863955 0.10223765
0000b0 05 6c be 3d 1f e7 a9 bd ca 20 89 3d ed 8d 71 3e
       0.09297947 -0.08296036 0.06695707 0.23589297
0000c0 75 ae c8 3d a3 22 ae bc 1b 5a 60 be 34 62 35 be
       0.097989 -0.02125675 -0.21909373 -0.17713243
0000d0 18 b7 67 bd d9 9b b7 3a 22 c0 2d be 84 5d 2f be
       -0.056571096 0.0014008238 -0.16967824 -0.17125517
0000e0 7d 2f 19 bc 97 5c 3c bd aa 59 fe bd 06 5c 1e be
       -0.009349701 -0.045986738 -0.12419446 -0.15464792
0000f0 7a 15 f6 bd 58 e2 45 be 56 b1 0c be ec a7 aa bc
       -0.12015815 -0.19324625 -0.13739523 -0.020832025
000100 06 1d e8 3c c0 6f 30 be 1e f3 44 be d9 6b be 3d
       0.028334152 -0.17230129 -0.19233367 0.09297914
000110 63 fa 17 be 40 d2 58 bc 40 17 79 bd 09 d9 12 be
       -0.14841609 -0.013233721 -0.06081319 -0.14340605
000120 c0 42 e0 3b f1 e3 af bd 95 e0 94 bb 8f 59 2b be
       0.0068438947 -0.08588398 -0.004543374 -0.16733383
000130 af 41 89 bd ec 49 64 3d d5 13 0a bd 6d f4 ea bd
       -0.06701981 0.05573456 -0.03371032 -0.11472402
000140 e9 e8 df bd 18 93 90 bd 75 2e 08 be 3a 10 ae bd
       -0.10933096 -0.07059306 -0.13298972 -0.08499189
000150 d4 02 fe bd 6f 96 5d 3d 2b 7c d7 bd b3 57 ef bd
       -0.12402883 0.054098543 -0.1052173 -0.11686649
000160 5c b9 64 3d 7b 82 0a be 48 12 d8 bd 35 39 76 3b
       0.055840835 -0.13526337 -0.10550362 0.003757072
000170 7a 78 ac bd a5 88 aa bd fb 41 4f 3d a2 18 e6 3d
       -0.084214166 -0.08326844 0.050600033 0.11235167
000180 0a 37 b7 bd 2f 23 16 3e 63 e9 44 3d 89 98 95 bd
       -0.08946045 0.14661859 0.048074137 -0.073044844
000190 82 63 e6 bd 34 d3 a2 bc 16 1a ee 39 6c 3a ca bc
       -0.11249448 -0.0198761 0.00045414333 -0.02468606
0001a0 60 8d c9 3c 19 b6 c4 3d 3d a9 05 be e6 80 8d bd
       0.024603546 0.09605045 -0.1305284 -0.06909351
0001b0 b1 f1 25 bd b6 d5 ad bb 63 34 de 3d e0 39 af bc
       -0.040513698 -0.0053050173 0.10849836 -0.021389902
0001c0 ea a1 76 3d 63 44 bf 3d f8 60 9e bb 6c 9a 16 3e
       0.060213007 0.093392156 -0.004833337 0.14707345
0001d0 76 6c 23 3e f3 07 c3 3d bd 73 11 3e 9c be cc 3d
       0.15959343 0.095230006 0.14204307 0.09997293
0001e0 b7 40 28 3e e9 c2 1c 3e df 08 a4 ba 72 0c 1e 3d
       0.16430937 0.15308727 -0.0012514851 0.038586088
0001f0 fd 31 10 3e 6f e2 fe bd 53 ec d5 bd f7 18 cc bd
       0.14081569 -0.124455325 -0.10445466 -0.09965699
000200 c3 fa 30 bc ce ec 93 3c 48 3c 0d be 2a b6 06 3c
       -0.010801974 0.018057253 -0.13792527 0.008222142
000210 86 f6 49 3d 4a ff ec bd 5c 61 4b 3c ae ce a2 bc
       0.04930737 -0.1157213 0.012413349 -0.019873943
000220 b8 6c bd bd 07 0f 45 3d bc 93 00 3d c7 68 62 3d
       -0.09249252 0.048110034 0.03139089 0.055275705
000230 0d 0b 4d bd a7 7b 03 bd 87 8d 89 3c d3 f8 b3 bd
       -0.050059367 -0.032100346 0.016791118 -0.08787694
000240 d9 21 ab 3d 5c 98 c6 3d b8 7a a8 3d 26 30 02 3e
       0.08356065 0.09697029 0.08226532 0.1271368
000250 40 7f 05 3e 40 96 14 3e 80 6d 1c be 32 d3 bd bd
       0.13036823 0.14510441 -0.15276146 -0.09268798
000260 9b cf e7 bb d9 32 0a be 1e 3b ed bd d3 56 83 bd
       -0.007074309 -0.1349596 -0.11583541 -0.06413045
000270 c6 09 4f 3d 34 a4 b4 bd 46 7c cd 3c 9f 9b 88 bd
       0.05054643 -0.08820382 0.025083672 -0.06670307
000280 8e 76 3f bd e2 56 9a bd d6 11 c1 bd 64 e4 01 3d
       -0.046743922 -0.07536103 -0.0942723 0.03171195
000290 c0 7e 22 bd 7c 60 d7 3d e6 1f 92 3d 4a 03 82 3d
       -0.03967166 0.1051645 0.071349904 0.063482836
0002a0 cb 65 de 3c 19 6b 0c bd f2 4f 38 3d 51 c9 be bd
       0.027148148 -0.034281824 0.044998117 -0.09315742
0002b0 55 de b0 3d 66 2c bb bc 29 37 e8 3b 66 77 0b be
       0.086361565 -0.02284832 0.0070866537 -0.13619766
0002c0 66 b3 10 bd 37 a6 fb bc 2d 90 c9 3b c5 ff 15 bb
       -0.035327338 -0.030718906 0.0061512203 -0.0022888046
0002d0 f7 58 e9 3d da 09 a3 bd bb 6f 37 3d d5 5e 07 3d
       0.11393922 -0.079608634 0.04478429 0.033049423
0002e0 05 51 ae 3d 21 24 62 3d 6a db 12 bd cb 65 0a 3e
       0.08511547 0.055210236 -0.03585378 0.13515393
0002f0 22 4e 95 3d 4e a0 7f bd 39 33 01 3e fd 9d 00 bd
       0.07290293 -0.062408738 0.12617196 -0.03140067
000300 99 37 24 3e 0e 2f 07 3e 7a 28 cd 3d 4d 24 01 3e
       0.16036834 0.13201544 0.10017486 0.12611504
000310 34 4a f2 3d a5 cf 8f 3d 98 a1 44 bd 5d 81 7d 3c
       0.118305594 0.07022027 -0.04800567 0.015472737
000320 84 81 98 bd ca 96 be 3d ff 29 16 3d 83 23 b5 bc
       -0.07446578 0.093061045 0.036661144 -0.02211166
000330 a0 0d d9 bd 70 ea d7 3d 8e 0f 94 bd 7b 10 d7 bd
       -0.10598302 0.10542762 -0.07229529 -0.1050119
000340 23 5c d2 bc c8 57 6c bd 18 ff 80 3d c0 de 22 bd
       -0.0256787 -0.057700902 0.06298655 -0.039763212
000350 3e 4d 8f bd 15 3c 0b 3e f2 6f d3 bd 88 2d 34 3a
       -0.06997155 0.13597138 -0.10324086 0.000687324
000360 44 10 a6 3c 23 2a 1e bc 12 ca f6 3d e5 77 e9 3c
       0.020271428 -0.009653601 0.120502606 0.028499553
000370 16 bc e7 3d 6c 11 a7 bd 07 e7 f0 bc 6e 25 c2 bd
       0.113151714 -0.0815762 -0.029407037 -0.094797954
000380 60 2e 7e 3c 51 fe df 3d 1c 99 4d 3d d0 71 7a 3d
       0.015513986 0.10937179 0.050194845 0.061143696
000390 ed e5 6e 3c 5e fb 71 bd 8b 2a 8d 3d 66 92 3f 3d
       0.014581186 -0.059077613 0.0689288 0.046770476
0003a0 9c 4c 15 3e d4 ab 11 bd 64 72 c3 3d 98 9d 8b 3d
       0.14580005 -0.03556426 0.09543303 0.06817168
0003b0 77 ab 82 3a 6c 2c a0 bd 2f 8f 1f bd 9b b7 a1 3d
       0.0009969313 -0.07820973 -0.03895491 0.07896348
0003c0 66 75 4f ba be e6 b5 3d 91 f0 06 be 73 b0 f5 bd
       -0.0007913917 0.08881901 -0.13177706 -0.11996546
0003d0 6c 84 14 be ae 91 a8 3c 0e 8f a5 bd 02 51 bb 3d
       -0.1450364 0.020577278 -0.08083926 0.091463104
0003e0 24 60 64 3d ee ab 11 bd 94 9f bb 3d c9 45 d6 bd
       0.05575575 -0.035564356 0.091612965 -0.10462529
0003f0 b0 26 8f 3c 63 27 f9 3d c1 37 e5 3d 7f 4f 24 bd
       0.017474502 0.121657155 0.11192275 -0.040114876

bias f4 [32]
000000 45 28 81 3e 12 f8 77 bd b6 f9 a5 3c b3 2e 14 be
       0.25226036 -0.060539313 0.020260673 -0.1447094
000010 ec 42 3a 3b d4 1d db bd b9 c9 19 be aa 57 00 be
       0.0028421236 -0.10699049 -0.15018357 -0.12533441
000020 4a 28 46 bd 7e 7f c1 3d bb bc 55 3e ac ab 97 bd
       -0.048378266 0.09448145 0.20872776 -0.07405791
000030 48 d8 0f 3e ac b7 9e bd 40 9c 97 3d 2c 1b 95 3c
       0.14047348 -0.077498764 0.07402849 0.018201433
000040 b9 cc 91 bd 75 87 0a 3e 65 96 a4 3e 23 c1 4b bd
       -0.07119126 0.13528235 0.32145992 -0.049744736
000050 1d c6 16 3c f7 ac 19 3e fe 2a 14 be 71 c1 74 3d
       0.009202507 0.15007387 -0.14469525 0.059754793
000060 7c 6d 9d bd b8 50 b9 bd aa 9a 85 3e ab 36 fb bd
       -0.07686898 -0.09048599 0.26094562 -0.122662865
000070 d2 35 77 be 73 5d 8c be b1 14 77 be ec 33 35 bd
       -0.24141625 -0.27415046 -0.24128987 -0.04423897

weight f4 [32, 32, 5, 5]
000000 67 b5 8b bc 01 70 de bc 89 bd ed 3b ac b1 94 bc
       -0.017054273 -0.027153017 0.0072552604 -0.018151127
000010 b2 2d 9c 3b 40 05 70 3b 57 7c 87 3a b4 d6 24 3c
       0.0047661895 0.0036624223 0.0010336739 0.010060955
000020 32 e8 9f bc 1f 5b fe bb 85 df 42 3d 62 bf f4 3c
       -0.019519899 -0.0077623273 0.047576446 0.029876415
000030 42 df f7 ba a4 ac ac bc 0d 65 25 bc c0 50 35 3d
       -0.001891114 -0.021078415 -0.010094893 0.044266462
000040 38 22 0b bd cc 0e 70 3b 21 81 54 3c d8 56 5b 3c
       -0.03396818 0.0036629913 0.01297024 0.013387404
000050 0d 98 2a bc cc 4a 10 3c 54 0c d9 3b 7c 6f 3a 3c
       -0.010412228 0.008806895 0.006623784 0.011379119
000060 67 21 82 3c d2 0d 73 3c 59 55 bb bc 54 4e 91 bb
       0.015885068 0.014834838 -0.022867845 -0.0044343863
000070 e6 64 1f 3d a3 f3 89 bc 76 1d 44 3d 05 91 e0 3c
       0.038914584 -0.016839808 0.04787966 0.0274129
000080 d1 94 2d 3d 71 1a 6c 3d 19 37 15 3d bc 49 ea bc
       0.04237825 0.057642404 0.0364295 -0.028599612
000090 a8 96 12 bd b8 4d 26 bd f1 b7 3a bd 83 00 47 bc
       -0.03578821 -0.040601462 -0.045585576 -0.012146118
0000a0 ed 0e 17 3b 32 ab 18 bd 0c 6a a5 3c 4c a2 b3 bc
       0.0023049668 -0.03727264 0.020192169 -0.021927975
0000b0 6e 17 15 bd 06 b9 9f 3c f9 ea 7c 3b 1c 33 9e 3c
       -0.036399297 0.019497406 0.0038592203 0.01931148
0000c0 f6 bc 2a bd e0 1f 10 bd 4c 74 cc 3b 96 9c 2e bd
       -0.041684113 -0.03518665 0.0062394496 -0.0426298
0000d0 27 ec 9a 3b e4 60 3b 3c 38 45 d0 3c f3 f4 0e bc
       0.0047278586 0.011436675 0.025423631 -0.008725393
0000e0 7e b5 4a 3d 40 93 dc bb e9 41 56 3b d2 94 64 3b
       0.04948949 -0.0067314208 0.0032693094 0.0034878743
0000f0 9b 5b 01 3d b8 a9 a3 3c 96 3a e8 3c 62 53 01 bd
       0.031581502 0.01997839 0.028348248 -0.03157366
000100 63 9f f1 3c 4c 9c 70 bc 26 20 3d bd 97 4b 6b bc
       0.029494947 -0.014685702 -0.046173237 -0.014361284
000110 1c be 2d bd db c9 57 3c 59 e5 21 bc 89 98 a5 bc
       -0.04241763 0.013170685 -0.009881341 -0.020214336
000120 73 6f a3 3b 38 4b 21 bb 87 c2 36 bc 6e 0a 66 3b
       0.004987651 -0.0024611484 -0.011154777 0.0035101431
000130 76 7c 4d 3b 8e 4a f4 3c 09 9d a0 bc f6 ad 91 3c
       0.0031354702 0.029820707 -0.01960613 0.017783146
000140 a0 8b 80 3c f8 cb d8 b8 8f 0d dc bc 6d 4c 8e 3c
       0.015691578 -0.00010337675 -0.026861934 0.017370427
000150 84 48 5c 3c 83 88 76 3c e8 bf 3d bb 9d e9 23 3d
       0.013445023 0.015047195 -0.0028953496 0.040017713
000160 3f 67 cf bc 33 06 98 bc 52 5d a1 3c 19 f3 e6 3c
       -0.025317786 -0.018557644 0.019697819 0.02819209
000170 33 ce 05 bc e5 d0 73 bc 21 2e e1 3c fa 02 91 bc
       -0.0081668375 -0.014881347 0.027487816 -0.017701615
000180 5a 24 a0 3c b4 86 9b 3b fb 42 90 3c 5e f9 9a bc
       0.019548584 0.0047462825 0.017610064 -0.018917736
000190 e2 8c 2a 3d 0e c6 22 3d 07 a5 54 bc 71 40 c5 bc
       0.041638263 0.03973966 -0.012978799 -0.02407858
0001a0 02 06 b1 3c f7 2b 9b 3c 4f 22 57 3d 4f aa 2f 3b
       0.02160931 0.018941863 0.052522954 0.0026804393
0001b0 a0 5d b2 3a 43 ba 16 3c 75 45 9e 3c 7b cd 2c bd
       0.0013608225 0.009199682 0.019320229 -0.04218815
0001c0 80 6c 58 bb 2e 66 d3 3b 65 68 09 bc cb 8c ae 3c
       -0.0033023655 0.0064513898 -0.008386706 0.02130737
0001d0 00 61 88 3c ab 66 9e 3c 75 44 08 3d 70 b0 83 38
       0.016647816 0.019336065 0.03326841 6.279431e-05
0001e0 66 84 42 3c 01 a6 b5 bb f9 aa b9 3c cf 9a 8f 3c
       0.011872387 -0.005543471 0.022664534 0.017529873
0001f0 fb 40 bf 3b 49 dd a4 bc 0a 61 cd bc b7 43 ae bb
       0.0058366037 -0.020125048 -0.025070686 -0.005318131
000200 c3 ec f5 bc a0 92 f0 ba 9d 7c b9 3b 14 2e 0d 3d
       -0.030020123 -0.0018354245 0.005660607 0.03446777
000210 5f cc 0d 3d d3 19 f6 3c 01 f4 13 3d cb 98 93 3c
       0.03461873 0.03004161 0.036121372 0.018017193
000220 90 c7 83 bc c3 78 4a 3d cc d0 31 3a 76 75 08 3d
       -0.01608637 0.049431574 0.00067831273 0.033315144
000230 e6 f1 76 bb f7 80 2d bc 62 27 a2 bc 93 0c 2b 3d
       -0.0037680804 -0.01058983 -0.01979417 0.04176004
000240 49 de dd 3c 77 ba a5 3c a2 54 ea 3c cb 13 e4 bb
       0.027083533 0.020230515 0.02860481 -0.0069603673
000250 34 9b 42 3d 50 7c 37 3d 7b c4 5b 3c 6e 33 2b bd
       0.047511294 0.044796288 0.013413544 -0.041797094
000260 95 bb 75 bc 7e 10 85 bc f9 e9 6d ba 9b 44 27 3d
       -0.014998336 -0.016243216 -0.0009075697 0.04083691
000270 61 83 b8 ba 23 3c 2f bc fe 60 89 bc 99 a9 2e bc
       -0.001407724 -0.01069549 -0.016769882 -0.010660552
000280 d2 b8 47 3d c4 24 7d 3c 79 c9 73 3c a8 3a 9c 3c
       0.048760243 0.01545066 0.014879578 0.019070938
000290 19 2f 15 3d 75 26 22 bb 38 28 f2 3c 4f 8c bd 3c
       0.03642187 -0.002474216 0.029560193 0.023138193
0002a0 7a 31 ac bc 9a 19 3d 3c 98 b6 bc 3c b0 75 99 3c
       -0.021019686 0.011541748 0.023036286 0.018732876
0002b0 72 55 1d 3d b5 52 9f bc 2f 9f e8 3c ea 16 14 3d
       0.038411565 -0.019448617 0.028396217 0.036154665
0002c0 31 9f 00 bd 94 e8 22 3d 56 d1 fc bb 3b 3e 13 3d
       -0.031401817 0.039772585 -0.0077153845 0.03594802
0002d0 8c 9a 32 3d 3f 93 db 3b 06 67 0f 3d ad 06 c5 3c
       0.04360442 0.0067009027 0.03501036 0.024051035
0002e0 35 5d d9 3c 4b 31 21 3d db 50 91 3b 5c 34 f8 3c
       0.026533702 0.03935365 0.0044346876 0.030298404
0002f0 22 81 01 3d a2 d1 48 bc 89 2b fa 3c d6 f3 39 bc
       0.03161729 -0.012257012 0.030538337 -0.011349639
000300 9a 67 a6 b9 2c 7f 5a 3c be 56 d3 bc 4b b4 05 3d
       -0.00031739176 0.013335984 -0.025798198 0.032642644
000310 07 24 53 bc 04 f7 d2 3c 1c 40 65 bc de df 2e 3c
       -0.012887008 0.025752552 -0.013992336 0.010673491
000320 75 68 a2 3c 82 1e 88 3c 95 c8 d2 3b 2e 9d 7b bc
       0.0198252 0.01661611 0.0064326026 -0.015357299
000330 00 14 5c bb 94 de 40 bc b2 3d ef 3b 93 ba 22 bd
       -0.0033581257 -0.011771817 0.007301056 -0.039728712
000340 4f b7 70 bc 1a d2 35 3c 8f 01 c2 3a 04 eb 64 3d
       -0.014692142 0.011097455 0.001480149 0.05588819
000350 50 55 09 3c b9 e7 2f 3d 20 93 23 3d bd 3a a1 3c
       0.0083821565 0.042945597 0.03993523 0.019681329
000360 16 64 23 3c 43 aa 64 bc b0 3c ad 3b 61 fe 9b bc
       0.009972593 -0.013956609 0.0052867755 -0.019042196
000370 bb 39 4b 3d cf 9f 3d 3d 84 e3 99 3c 71 4b 50 bc
       0.049615603 0.046294983 0.018785246 -0.012713299
000380 fe 26 b4 bc 4c f1 97 3c e7 04 96 bc 43 98 c3 bc
       -0.02199125 0.018547677 -0.018312884 -0.023876315
000390 7d fc 04 3c 87 7b 7b bc 84 a6 97 bb 34 b2 b1 bb
       0.0081168385 -0.015349275 -0.0046280045 -0.005422855
0003a0 de 54 a7 3a 90 a1 95 3c 79 f8 6c 3a 6a 19 d3 bb
       0.0012766381 0.018265516 0.0009039711 -0.0064422386
0003b0 10 50 45 3d 85 0c f7 bb be 7d b5 3c b7 2b fd 3c
       0.048172057 -0.0075393342 0.022154685 0.030904634
0003c0 5d 6f b1 3c 5e 27 57 3c 98 67 3e bb 29 5b 8a bc
       0.021659547 0.013131944 -0.0029053446 -0.016889172
0003d0 d1 3b 10 3d 08 83 20 3d cc 1b 39 3d 9b a0 4f 3d
       0.035213295 0.03918746 0.045192525 0.050690275
0003e0 d7 1d 9f 3c 59 ab ba 3c 96 49 7d bc 76 d0 e0 bc
       0.019423408 0.022786783 -0.015459439 -0.027443152
0003f0 a6 91 22 3d 54 4a 20 bb 8e cf a2 bc e8 b0 53 3d
       0.039689682 -0.0024458366 -0.01987436 0.051682383

bias f4 [32]
000000 7c 73 8e bd 95 11 c8 bd 15 c4 f7 bb ea 16 8e 3c
       -0.06955621 -0.097689785 -0.0075612166 0.01734491
000010 29 f8 51 bd 8b 55 b4 bc 21 f0 f2 bb 0c a6 d1 bd
       -0.051262055 -0.022013446 -0.0074138795 -0.10236749
000020 3e 22 28 bb ff 6c 9f bd e4 8d 28 bd fb 25 89 bc
       -0.0025655176 -0.07784461 -0.041150942 -0.016741743
000030 15 50 95 bc 0c fc a9 bd 1d e0 2f bd 9f 53 5d 3c
       -0.018226663 -0.08300027 -0.04293834 0.013508706
000040 34 1c 87 bd 0a a1 1e bc 4f 39 9a bd 24 21 18 bc
       -0.06597176 -0.009681949 -0.07530462 -0.009285245
000050 46 5e 6a 3d 63 18 d3 bc c0 8c 4c bd 0f 12 10 bd
       0.057218812 -0.025768464 -0.049938917 -0.035173472
000060 63 58 06 bd 5b 9e 81 bd 6d 18 a1 3c 55 74 3f bd
       -0.032799136 -0.06329032 0.019664967 -0.046741802
000070 c5 f1 b3 bd 77 11 42 bd c1 c5 8b bd 05 01 f6 3c
       -0.08786348 -0.047379937 -0.06824828 0.030029783

weight f4 [64, 32, 5, 5]
000000 62 43 8c 3c b9 ab 8b 3c aa f9 34 3c a3 4a ce 3c
       0.017121974 0.017049657 0.011045853 0.025182074
000010 01 b8 96 bc 5f 73 20 3c 8c d6 b2 3c 8b 3c d3 3b
       -0.018398287 0.009793132 0.02183082 0.0064464263
000020 af 58 29 3d bc e7 d0 3c ea fe fb bb a0 b8 f2 bb
       0.04134434 0.025501125 -0.0076903002 -0.007407263
000030 c9 a2 40 3d 47 92 aa 3b fc 96 f5 bb b4 17 d4 3c
       0.047030244 0.005205426 -0.0074948054 0.025890209
000040 cd e1 d2 bc e1 3a c7 3b 5c 90 d4 3c 95 70 6c 3c
       -0.025742436 0.006080017 0.025947742 0.0144311385
000050 78 cd ae bc 41 53 bb bc 62 76 db 3c 7c b1 05 bc
       -0.02133821 -0.022866847 0.026789848 -0.008159991
000060 c3 f7 c2 3b b6 ee a2 3b 22 f4 07 bd bf bd 91 bb
       0.0059499457 0.004972304 -0.033191808 -0.0044476683
000070 d7 ea db 3c de e5 a0 3a 7a 57 82 3c 8c 34 09 bd
       0.026845379 0.0012275537 0.015910853 -0.03349738
000080 a7 e6 6e 3c 24 93 5b bc d5 13 af bc 87 02 27 bd
       0.014581359 -0.01340178 -0.021371761 -0.040773895
000090 74 d1 36 3c b3 a1 10 3d cd 25 9e 3c 57 40 31 3b
       0.011158336 0.03531046 0.019305134 0.0027046406
0000a0 c7 aa d2 3c d5 11 9b 3c 64 25 4d bd 9e 42 fd bc
       0.025716199 0.018929401 -0.050084487 -0.030915555
0000b0 e7 58 44 3d 20 bc 25 bc 52 f4 d9 bc b5 b7 22 3d
       0.047936346 -0.010115653 -0.026605759 0.039725978
0000c0 12 fc d3 3b 06 fc 14 3d 85 7b b5 bb 0d 4f a1 bc
       0.006469258 0.03637316 -0.0055384063 -0.019691015
0000d0 2c 9b 06 3d e6 9c ed 3b ce 36 a2 bc 65 5e d3 3c
       0.032862827 0.0072513698 -0.019801524 0.025801847
0000e0 da c2 c5 bc 93 e4 09 3d 86 75 f1 3b b4 97 72 bc
       -0.024140764 0.03366525 0.007368746 -0.014806677
0000f0 1f 60 aa bc 00 07 47 bc ed 03 86 3a 1e 6c e4 3c
       -0.020797787 -0.012147665 0.0010224559 0.027883586
000100 e6 25 6b bc b6 c1 bb 3c 50 5a 0a 3d c4 cf ea bc
       -0.014352297 0.022919517 0.033777535 -0.028663523
000110 31 8f 0b 3b 84 9c 68 ba 11 76 09 bd 67 0b 8b bc
       0.0021295066 -0.00088734203 -0.033559863 -0.01697321
000120 61 f2 d3 bc 20 5b 6e ba c5 6e d8 bc 4c 24 83 bc
       -0.025872411 -0.0009092558 -0.026420007 -0.016008519
000130 0b f2 19 bb 1f e1 f4 bb 1c 61 db bc 16 79 02 3b
       -0.0023490216 -0.0074731256 -0.026779704 0.0019908599
000140 81 e8 9c 3c f6 a7 d6 ba bf e1 59 bc 2f 4a 7c bc
       0.019153835 -0.001637696 -0.013298451 -0.015398546
000150 f8 01 16 3c d6 4d 21 bd 6e ca 00 3b c9 90 5f b9
       0.009155743 -0.03938087 0.0019651907 -0.00021320874
000160 48 86 f9 3c f7 7a 02 bd d5 5a 43 3b 42 0a ff bb
       0.030459538 -0.03185555 0.0029808779 -0.0077832052
000170 d2 77 b9 3c 2f a7 d5 bc ed 04 94 bc ca f4 c7 bc
       0.022640143 -0.026080696 -0.018068755 -0.024408717
000180 c9 b3 36 3c b9 7e fb bc b5 5b ce 3b cf 77 0c 3d
       0.011151263 -0.030700075 0.0062975534 0.034293946
000190 f0 4a b2 bc e3 7a 2f bd 53 67 b2 bc 11 c7 8b 3b
       -0.021764249 -0.042841803 -0.021777784 0.004265674
0001a0 00 57 03 3d 81 46 c5 bb af 6c b4 bc 46 a4 b2 bb
       0.03206539 -0.0060203676 -0.02202448 -0.005451712
0001b0 ab bc f5 3b 25 08 46 bc b7 aa c3 3c 5b 50 1d ba
       0.0074992976 -0.012086903 0.023885114 -0.00060010486
0001c0 25 db c6 bc 43 65 6f 3b e0 87 69 3c 35 0a 0c 3d
       -0.024274418 0.0036528863 0.0142535865 0.03418942
0001d0 4a 00 09 bd 56 de 83 bc 1f ee 0d 3d a6 b6 b8 3c
       -0.03344754 -0.016097229 0.034650918 0.022548031
0001e0 ff 78 5b bc 3e ba 84 bc 4c b6 06 3c 54 38 11 bc
       -0.013395547 -0.016202088 0.008222174 -0.008863527
0001f0 b3 29 94 3c 77 f7 4e bb 20 d1 1d bc c2 74 ff bb
       0.01808629 -0.0031580606 -0.009632379 -0.007795901
000200 5c 09 e9 3c a5 5a e1 3c 40 23 fb 3a 9f a6 f9 3a
       0.028446846 0.027509043 0.0019160286 0.0019046849
000210 cd aa a8 3a 7e 56 7f ba b0 37 0c bb 85 63 17 bd
       0.0012868285 -0.00097403664 -0.0021395497 -0.036960144
000220 19 6f 1c bd b8 cd 09 3d 7b f5 48 3c 2e dc 98 3c
       -0.03819189 0.033643454 0.012265558 0.018659677
000230 d9 69 1a 3c af c0 f8 bb 96 d0 0f 3d 95 39 8c ba
       0.00942465 -0.007591329 0.035111032 -0.0010698313
000240 0d 1a a2 3c 44 16 c4 3c 6e 52 15 bd a7 52 73 3c
       0.019787813 0.023936398 -0.036455564 0.014851249
000250 11 7e 21 3c a8 38 47 bc 31 96 90 bb 5f 82 c9 bc
       0.009856717 -0.012159504 -0.0044124355 -0.024598299
000260 d6 eb f9 3c 18 da a9 3b 1d 61 22 bb 36 b1 07 3d
       0.030507963 0.0051834695 -0.0024777122 0.033127986
000270 24 0f ff 3c 3a df a6 3c a1 db 29 bd 19 bd 3f bc
       0.03113515 0.020370115 -0.04146922 -0.011702799
000280 97 b3 08 3d e1 96 bc bc 19 51 a9 bc 59 90 f1 ba
       0.033374395 -0.023021163 -0.020668553 -0.001842986
000290 be 65 a2 3c 8b 7b 66 3c ce b1 13 3d 22 80 2f 3d
       0.019823905 0.014067541 0.03605824 0.042846806
0002a0 b1 32 41 3c 1c cb 3f 39 ee 16 04 3c 77 98 de b8
       0.011791871 0.00018290844 0.0080621075 -0.00010614184
0002b0 92 1b 4d bc 3f 51 c7 bb 9c 83 25 3d 66 6e 46 bc
       -0.01251878 -0.0060826833 0.040408716 -0.012111282
0002c0 e8 21 8c ba 10 79 42 3b ce 4f 18 3d cc f8 86 bc
       -0.0010691257 0.002967421 0.037185483 -0.016476057
0002d0 ba 7b 7a bc 50 7f c7 bc 79 a1 00 bc 87 54 15 3d
       -0.015288288 -0.0243527 -0.007850998 0.036457565
0002e0 4b de a7 3c 31 59 c4 3a 51 29 a6 3c d0 58 ea 3c
       0.02049174 0.0014980194 0.020283373 0.028606802
0002f0 03 30 2a 3c b6 86 e8 3c e8 36 24 3c 6c 30 04 bd
       0.010387423 0.028384548 0.010022856 -0.03227274
000300 7e b6 c1 bc 4d db 12 3b 86 d4 b1 bc c2 98 8c bb
       -0.02364659 0.0022408545 -0.021707784 -0.004290671
000310 de a4 cc bc 5f d0 9d bb 84 c9 a4 3b 38 ec 23 3d
       -0.024980959 -0.0048160995 0.0050289053 0.040020198
000320 7d c1 b1 bc c0 e0 8e bc 3d 1e d6 bc eb 14 42 bc
       -0.021698708 -0.017441154 -0.026137466 -0.011845808
000330 77 ba 08 3d 60 a2 4a bc 42 c5 47 3c fa 3c 2d 3b
       0.03338095 -0.012367815 0.012193026 0.002643405
000340 6e 05 81 3c 9d 89 af bc a4 69 c0 bc b3 1d 75 3c
       0.01574966 -0.021427924 -0.023487873 0.014960694
000350 fc 58 db 3a 70 ef bf bc 71 4f 5d 3b 53 6c a0 3b
       0.0016734893 -0.023429602 0.0033769275 0.0048957258
000360 3e 35 bd 3c b6 5f d8 bc 62 4e b6 3c 1c 4e db 3c
       0.023096677 -0.026412826 0.022254173 0.026770644
000370 d0 d6 5f 3c 4d e0 b9 bc 70 3e fc 3b 3c 64 0d 3d
       0.013662055 -0.022689963 0.007697873 0.03451942
000380 2f b9 f5 3c fc 83 fc bb ee 67 95 bc 82 c7 09 bd
       0.029995529 -0.0077061635 -0.018238034 -0.03363753
000390 a2 da 27 3d 7e 0f a2 3b b0 5d 83 bc 88 1e ea 3a
       0.04097999 0.0049456945 -0.016035885 0.0017861882
0003a0 78 c9 9e bc 95 bb 4e 3a c1 37 15 3d 8c 29 7a bb
       -0.019383177 0.0007886228 0.036430124 -0.0038171737
0003b0 e3 50 fe bc a5 64 9c bb 76 0c 20 3c 7c 96 9a 3c
       -0.03104443 -0.00477274 0.009768596 0.018870585
0003c0 76 00 96 bc e2 5b 92 bb 98 30 1b 3d 69 41 01 bc
       -0.018310767 -0.0044665197 0.03788814 -0.00788913
0003d0 7d 37 ce 3c 9b 2d 40 ba 1d ea 10 3c 2e 92 e4 bc
       0.025172943 -0.00073310145 0.008844879 -0.027901735
0003e0 53 43 0a bd 72 60 e1 3c f7 3f 04 bd bc c7 79 bc
       -0.03375561 0.027511809 -0.032287564 -0.015245374
0003f0 c7 6c c5 bc b3 7a fa bc ad 2c 1b 3c d9 f8 ee bc
       -0.02409972 -0.030576086 0.009471101 -0.029171394

bias f4 [64]
000000 87 71 00 bc cc ca c0 bc 15 47 54 bd aa 3c a8 b6
       -0.007839567 -0.023534201 -0.0518256 -5.0138524e-06
000010 7e 57 de bc 1d b0 1d bd b8 fc 82 bd 91 99 06 bd
       -0.027141329 -0.038498033 -0.063958585 -0.032861296
000020 7f 3e 72 bd 9b a7 6a 3c 5e 6a 1f 3c 2f 55 8c bc
       -0.059141632 0.014322187 0.00972995 -0.017130462
000030 d7 f7 53 bd 28 d2 f8 3c 2e ad 94 3c 23 18 37 3d
       -0.05175003 0.030373648 0.018148985 0.044700753
000040 cd bd c2 bc 9a de d0 bc 17 e7 8d bc df 45 d8 3b
       -0.023772145 -0.02549677 -0.017322106 0.006600126
000050 6e 3b 35 bb ee 50 98 bc ce 40 0a 3c d3 72 0b bd
       -0.002765383 -0.018593278 0.008438302 -0.03404505
000060 ed 35 04 bd 11 c5 71 bc a1 04 1d bd 75 fe 26 bd
       -0.03227799 -0.014756457 -0.038334493 -0.040770013
000070 ac 32 d1 3c 5f 6c a9 3b 23 bb e0 3c 17 fa 31 bc
       0.025536858 0.0051703895 0.027432984 -0.010862849
000080 1e 64 5a 3c fe c1 08 bb 45 37 28 bd f7 bd f1 3c
       0.013329534 -0.0020867581 -0.041068334 0.029509528
000090 0c c5 c7 3c 39 7f a8 bc da 6e b9 bc 7b be 42 bc
       0.024385951 -0.020568477 -0.022635866 -0.011886234
0000a0 4f c7 27 bd 02 7d 1b bc 02 68 a4 bc 52 fa 21 3d
       -0.04096156 -0.009490253 -0.020069126 0.039545365
0000b0 7b 20 6a 3c 70 4e c4 3c f1 27 da b8 12 78 1a bc
       0.0142899705 0.023963183 -0.0001040249 -0.009428041
0000c0 0e 85 a2 bd 39 51 85 ba 6b ff 3b bc cb ba 56 bd
       -0.079355344 -0.0010171301 -0.011474471 -0.052424233
0000d0 fa 4f ab 3b 6c 41 77 bb dd 58 17 bd c0 d9 36 bc
       0.00522804 -0.0037728203 -0.03694998 -0.011160314
0000e0 a2 c7 0a 3c 43 57 b0 bc bf df 04 3d 5a aa 24 bd
       0.008470448 -0.021525985 0.032439943 -0.040201522
0000f0 88 14 c6 bc 37 3b e2 bc 2d 10 f9 bc 2c e0 30 bc
       -0.024179712 -0.027616126 -0.030403221 -0.010795634

weight f4 [64, 1024]
000000 52 3f 1a bc a4 f0 09 3c ae b1 c9 bc ea 86 b7 3c
       -0.009414511 0.00841919 -0.024620857 0.0224032
000010 98 62 92 3c 42 e1 05 3d 19 d3 8a bc 97 da 1e bc
       0.017869279 0.032685526 -0.016946362 -0.009695671
000020 93 f9 73 3c d4 08 2d 3c 66 dc 3a bd 59 26 37 3c
       0.014891046 0.010561187 -0.045620345 0.011178576
000030 1d e8 fc 3c b2 e4 b2 3c 4b 38 a2 3a d4 61 23 bc
       0.030872399 0.021837566 0.0012376396 -0.0099720545
000040 d7 bf d5 bc 59 2d 0e 3d 42 97 5f 3c c8 e9 aa bc
       -0.026092453 0.034711216 0.0136469025 -0.020863429
000050 1f 97 af 3c f6 5e 1a 3d d5 a2 e8 bb 3f d1 69 3c
       0.021434365 0.037688218 -0.007099489 0.01427108
000060 83 e4 2a 3c 4c e9 ef 3c 19 32 3b bc 37 31 09 3c
       0.010430458 0.02928605 -0.011425518 0.00837355
000070 a4 a1 8f bc 9a 82 46 bb 5f c9 bb 3c 12 b6 1e 3c
       -0.017533131 -0.0030290247 0.02292317 0.009686964
000080 42 2c 45 3c 6f fe b9 3c 86 cb 36 3b d1 d7 ed 3c
       0.012034478 0.022704331 0.0027892306 0.029033573
000090 ae d2 22 3d 2a 4e 8d 3c 6a 4d 45 3c f2 67 0d 3c
       0.0397517 0.017249186 0.012042383 0.0086307395
0000a0 6b 71 e8 3c 72 31 ae bc b8 f0 bf 3b d3 be b5 3c
       0.028374394 -0.021263812 0.0058575533 0.022185719
0000b0 29 91 52 bc c5 8e a4 b7 65 7c 04 3d 88 75 da bc
       -0.012851992 -1.9616806e-05 0.032345194 -0.026667371
0000c0 f8 51 d1 3c 2f 18 e2 bb 36 c5 1f bc 4f fb 37 3c
       0.025551781 -0.0068998556 -0.009751609 0.01122935
0000d0 46 a8 95 bc b7 33 9b 3c d9 c5 8c bc c6 2e ed bc
       -0.018268716 0.018945558 -0.017184185 -0.028952967
0000e0 90 5c 36 3c d1 ac 97 3c fa 88 9f 3b 02 18 20 bd
       0.011130467 0.018515022 0.004868624 -0.039085396
0000f0 50 f4 df bc ce ea 3e 3b e3 bb 6f 3c 07 30 13 3c
       -0.027338177 0.0029131654 0.014632198 0.008983619
000100 35 f6 23 bc 06 1c 6f bb ec 2c c3 3c f7 31 86 3c
       -0.010007431 -0.003648521 0.023825131 0.016381247
000110 2c d8 c7 3c 70 8e 7c bc b3 49 d0 3a e6 3f 59 bc
       0.024395071 -0.015414819 0.0015891105 -0.0132598635
000120 b5 1a 04 3c 50 3e 07 3c 6e 23 9c 3c a9 07 8c ba
       0.008063008 0.008254603 0.019059863 -0.0010683435
000130 26 46 c3 bc 2f 96 a9 ba 07 bf 8e bc b2 01 5c 3c
       -0.02383716 -0.0012938435 -0.017425073 0.013428139
000140 92 c3 2d 3c 65 80 c2 3c 30 5a ad bc 69 88 79 3b
       0.01060571 0.023742864 -0.021161169 0.0038075692
000150 79 1c 83 bc 11 5f 36 3d cc 9d 3f 3c 60 fc ad 3c
       -0.016004788 0.044524256 0.011695337 0.021238506
000160 ea 0c d6 bc 56 42 d6 3c bf 90 b0 3c d9 db b0 bc
       -0.026129205 0.026154678 0.021553395 -0.021589207
000170 2c 19 38 3b 72 73 82 3c 0c 57 c8 3c e7 61 6f bc
       0.0028091175 0.01592419 0.02445557 -0.014610744
000180 8c 9a d5 bc 28 68 00 bb 6c 38 d2 3c 85 86 1e bc
       -0.02607467 -0.0019593332 0.02566167 -0.009675627
000190 d7 76 51 3c 72 d8 23 3d 59 a5 43 3c d9 d9 cc bc
       0.012784681 0.04000134 0.011941277 -0.025006222
0001a0 f3 df d0 bb ce b0 ac bc 33 dc 05 3b 03 59 9b 3c
       -0.006374353 -0.0210804 0.0020425438 0.018963343
0001b0 19 20 99 ba 2f 9b 81 3b fb 80 c8 bc 36 79 55 bc
       -0.001168254 0.003955267 -0.024475565 -0.013029387
0001c0 a8 e0 29 3c 83 93 cd bb 28 e6 22 bc 91 ec 39 3c
       0.010368504 -0.0062736883 -0.009942569 0.011347906
0001d0 fa c0 29 3c 49 ce ee bc 4c a3 4f bc 4f cd ae bc
       0.010360951 -0.029151099 -0.01267321 -0.021338133
0001e0 ef ca 94 bb bf d2 5d 3c 16 43 45 bc 18 0c 94 3c
       -0.004540793 0.013539015 -0.01203992 0.018072173
0001f0 a8 98 b1 3c b5 4b 83 bc 46 bb 30 ba c2 07 22 3c
       0.021679237 -0.01602731 -0.0006741773 0.009889545
000200 2a 26 84 bc 1e 5c 08 3d 24 a9 b8 3c 31 0d f3 3c
       -0.01613148 0.033290975 0.02254159 0.029669376
000210 97 f8 b5 3b 48 bb 77 3b 51 b3 23 bc 3e ab 1f bc
       0.005553316 0.0037800837 -0.009991483 -0.009745417
000220 3d 2c d5 3c 4c a2 e5 3b 0f ec a4 bc 76 85 2a 3c
       0.026022071 0.0070078727 -0.020132093 0.010407796
000230 7d 7a 36 3c 5d 45 fb 3c 97 b4 06 bd 7a cf 0c bd
       0.011137602 0.030672723 -0.032887068 -0.034377553
000240 b5 a9 a7 3c 66 6e 2d bb 4f bc 55 3c 46 a8 bd bc
       0.020466665 -0.0026463508 0.013045385 -0.023151528
000250 c0 71 63 bc 55 95 84 bb 07 7c 18 bb 9b 04 b9 bc
       -0.013882101 -0.004046122 -0.0023267285 -0.022585204
000260 51 32 cf bb ab dd e3 3c 85 68 dd 3c 5b 7d f2 3c
       -0.006323137 0.02781566 0.027027378 0.02960079
000270 d2 3e 16 3b f8 64 8e 3c 01 8a 6f bc 1c f5 0d 3c
       0.0022925627 0.01738213 -0.014620305 0.008664396
000280 b8 f0 cc 3c cf b9 fe 3b 3b 09 73 bc 6b 51 a5 bb
       0.025017127 0.007773615 -0.014833744 -0.005045106
000290 19 33 83 bc 55 61 6b bc 4f eb a5 3c 23 52 46 bb
       -0.016015576 -0.0143664675 0.020253805 -0.003026136
0002a0 2a fb 0a 3d 60 06 7a bc 9a ef 43 38 df e1 39 bc
       0.033930935 -0.015260309 4.671477e-05 -0.011345356
0002b0 4a df e0 3b d3 aa 57 bb cc f7 c7 3c 3c 38 cb bc
       0.0068625556 -0.0032908216 0.024410151 -0.024807088
0002c0 b0 46 ad bc 4b e5 84 bc 18 81 33 3b ae ce 1b bb
       -0.02115187 -0.016222617 0.0027390178 -0.0023774314
0002d0 13 a7 dc 3a 7c 8e 06 3d 1d f3 7e bc 6c ab d1 bc
       0.001683446 0.032850727 -0.015560892 -0.025594436
0002e0 15 2e 84 bc 31 1e 28 3d db da e1 3b d7 fa 15 3c
       -0.016135255 0.041044418 0.0068925447 0.009154043
0002f0 d5 b0 e0 bc b2 bb ed 3c e5 5b ca bc e0 07 1d 3a
       -0.02742807 0.029020164 -0.024702022 0.0005990248
000300 32 5d c1 3c b0 ca 73 3c a0 c3 b1 bc 1f 32 8c 3c
       0.02360401 0.014879867 -0.021699727 0.017113743
000310 3f ba b6 3c bd 06 1d 3d eb 4d cc 3c 57 30 51 bb
       0.022305606 0.038336504 0.024939498 -0.0031919682
000320 1b a0 23 3c 74 4f 14 3d f4 7e ec bc cb 4d 2a bc
       0.009986903 0.036208585 -0.02886913 -0.010394524
000330 3f 6a e8 bb 05 64 38 bc 80 7e aa bc a5 5f 93 bc
       -0.0070927436 -0.011254315 -0.020812273 -0.017989943
000340 98 78 25 3d ce f8 ec 3c 75 56 a8 3c f5 53 84 3c
       0.04039821 0.028927233 0.020549038 0.016153315
000350 eb 46 e2 3c 9f 81 07 bd c4 90 a0 39 2b 58 bc 3c
       0.027621707 -0.0330826 0.00030625437 0.02299126
000360 5f b0 e5 3b 55 bf f4 3c fb 6a 76 3b 76 b5 71 3c
       0.0070095505 0.02987639 0.0037600386 0.014752736
000370 1f 26 d3 3a 54 17 f8 3c ba 83 63 3c c4 0f b9 bc
       0.0016109383 0.030284561 0.0138863865 -0.022590525
000380 ad 4c b8 3c 27 df f8 bc c2 5f 9c bc 1d 9f 87 bc
       0.0224975 -0.030379845 -0.01908863 -0.016555363
000390 62 61 92 bc 73 3d 32 3c 0f 88 b4 bb b1 9b bb 3c
       -0.017868701 0.010878908 -0.0055093835 0.022901388
0003a0 58 bc 1b bd f0 b0 04 bd 26 d9 b0 bc 49 e2 a9 3c
       -0.038021415 -0.032395303 -0.02158792 0.020737784
0003b0 fb 29 1f 3c 03 66 03 3c d9 32 13 3c 46 c1 7a bc
       0.009714599 0.008019927 0.008984291 -0.015304869
0003c0 b3 cd 1c bd 46 b6 cf bb 24 de fc 3c 2c b3 47 bb
       -0.038282108 -0.0063388674 0.030867644 -0.0030471785
0003d0 cb e5 86 bc a6 27 d8 bc dc 6a 50 3c b6 dd fb bc
       -0.016466996 -0.026386093 0.01272079 -0.030745368
0003e0 cf 0d b7 bc 0f a6 12 bc 07 cf 10 3a 45 32 a7 bc
       -0.022345452 -0.008950724 0.00055240135 -0.020409713
0003f0 e7 21 a1 bc 52 6a b9 bb 10 cc cf 3a a4 2d a7 3c
       -0.019669486 -0.0056584263 0.0015853662 0.020407505

bias f4 [64]
000000 32 e4 e5 bc 44 82 01 bd 03 b2 ab 3c 04 db 55 bc
       -0.028062914 -0.03161837 0.020958906 -0.013052706
000010 1c 4b d0 3b d0 65 31 3b 4a 29 41 bb 9a 25 66 3c
       0.00635661 0.0027068742 -0.0029474073 0.014047051
000020 81 49 11 bd 33 96 9b bc 54 f5 fa 3a ba e2 51 bc
       -0.03547049 -0.018992519 0.00191466 -0.0128104035
000030 2e 60 ce 3c 09 14 0c 3b 5f da df bc e1 44 89 3c
       0.025192346 0.0021374247 -0.027325807 0.016756477
000040 42 c0 1b bc c0 1e 95 3c 01 ef 2d bc e5 05 54 3d
       -0.009506287 0.01820314 -0.010616065 0.051763434
000050 d5 76 39 3c 59 32 71 3d 24 e8 3f 3d ec 60 d3 39
       0.011319836 0.058885906 0.046852246 0.0004031727
000060 c6 c6 cb 3b 6f cd 1a bd 42 31 1f 3c e4 16 81 bc
       0.006218764 -0.037793573 0.009716334 -0.015757985
000070 11 3f 1b bd 58 4a 53 bd 4b e3 9c 3c 2e cd fd 3a
       -0.03790194 -0.05158457 0.01915135 0.0019363516
000080 fe e4 d2 bc d7 cf e6 3c 49 4b 0b bd 46 a6 e8 3c
       -0.025743958 0.028175278 -0.034007344 0.028399598
000090 b4 af dc bc 6b df 9a 3d ab 06 59 bb e8 e9 7a 3c
       -0.02693925 0.07562145 -0.0033115547 0.015314557
0000a0 b5 f1 b3 bb 61 49 92 3c 7a fe 05 bd 0b c8 20 3d
       -0.00549146 0.017857255 -0.03271339 0.039253276
0000b0 f3 f1 1f 3c d6 ee c9 bc 91 89 34 bd de 8f 77 bc
       0.009762275 -0.024650019 -0.044076506 -0.015109984
0000c0 04 48 39 3d 39 ff 57 3c 41 6d 74 b9 73 bd 4b 3c
       0.045234695 0.013183408 -0.00023310354 0.012435305
0000d0 a0 4e 66 bc c9 08 b0 3c a3 82 26 bb 21 79 5d 3d
       -0.014056832 0.021488564 -0.0025407455 0.054070596
0000e0 c7 3f 8f 3c d0 0e df ba fe cc 6c bd 7c f2 dc bc
       0.017486466 -0.0017017964 -0.057812683 -0.026971094
0000f0 ba f9 03 3d 8d 1c 35 bb 7a cb 35 bd 4b db 98 3c
       0.03222058 -0.0027635426 -0.044383503 0.018659255

weight f4 [10, 64]
000000 74 f6 de bd 6d 8f e3 bc 2d c6 4a bc c5 1b 2d bd
       -0.10886851 -0.027778352 -0.01237635 -0.04226281
000010 53 2e aa 3d 23 0f e8 bd a9 27 23 3e 8d 0e 74 3d
       0.08309617 -0.11331012 0.15933098 0.05958419
000020 f6 c9 a7 3d a2 3b 18 be 44 cf 87 bd d4 cc e3 3b
       0.08192818 -0.14866498 -0.0663133 0.0069519076
000030 11 6c aa 3c f0 8d 69 3d 0b c0 f1 bb 65 90 ac bd
       0.020803483 0.057020128 -0.0073776296 -0.084259786
000040 73 70 88 3c 54 c6 10 be 96 9e e1 3c 2e 00 b1 bd
       0.016655182 -0.14138156 0.02754144 -0.086426124
000050 31 8c 17 bc 7b 9a de bd f9 65 3b be e9 2c c0 bc
       -0.009249733 -0.108693086 -0.18300618 -0.023458915
000060 cb 03 1a be 29 48 84 bd 86 3d 94 bd 82 cb 2f bd
       -0.1504051 -0.06459076 -0.07238297 -0.04291869
000070 53 e9 cf bd d0 55 ab 3d 50 ac c7 bc 19 ce f7 bd
       -0.10151925 0.08365977 -0.024374157 -0.12099857
000080 f5 54 7a 3d 4c 3f 32 3e 7c 9e 53 bd 1a bc 68 bd
       0.061116178 0.17406958 -0.051664814 -0.056820013
000090 85 b6 ad 3c 86 41 d0 bd 51 af a7 bd ba bb 8f bd
       0.021205196 -0.101687476 -0.08187736 -0.07018228
0000a0 c4 08 f6 3c 2d ed 54 3e 17 ef 06 be 67 c7 2e be
       0.030033477 0.207936 -0.13177143 -0.17068253
0000b0 a5 ac 5d 3d a4 e1 04 3e a8 50 2b 3e 60 72 a1 3a
       0.054119725 0.129767 0.16729987 0.0012317412
0000c0 61 13 fc bd 71 92 23 3d 04 59 37 be 46 3d d7 3d
       -0.12308384 0.03993458 -0.1790505 0.10509734
0000d0 74 01 91 3d fa da fc bd 5a 8e 03 3d ce 15 e0 bd
       0.07080355 -0.12346454 0.03211818 -0.10941659
0000e0 60 1e f8 3d 24 e5 54 be 00 e7 03 3e 88 4e 2d 3e
       0.121151686 -0.20790535 0.12881088 0.16924489
0000f0 74 3c 3c be c8 09 da bd 55 60 25 3e 7f fa ba bd
       -0.18382436 -0.10646397 0.16150029 -0.091298096
000100 41 1c 13 be db 23 e1 3d 1d a5 86 3e 56 f5 ab 3d
       -0.14366247 0.10993167 0.26297846 0.083964035
000110 a2 ac ac bd 1f 1b 08 3e 17 2b 68 bc d6 94 65 be
       -0.084313646 0.13291596 -0.01417043 -0.22420058
000120 1e 9f 4e 3e 5d bc 36 3e f9 51 66 be 2b c8 37 be
       0.20177886 0.17845292 -0.22492208 -0.17947452
000130 dc 80 7e bd b2 16 3f bb 39 5f d1 3d 9f 71 15 bc
       -0.06213461 -0.0029157815 0.102232404 -0.009121328
000140 7e d5 1c 3e a2 90 45 be 1d 5b 01 3e ab 9a de 3d
       0.15315816 -0.19293454 0.12632413 0.10869344
000150 f1 55 58 be 7a 60 ab bd c7 31 8c bd 8a 00 98 3d
       -0.21126534 -0.08368011 -0.06845432 0.07421978
000160 e5 b9 0b be 0a a5 45 3d a7 82 d2 bd f8 aa fa bc
       -0.13645132 0.048253097 -0.10278826 -0.030599102
000170 63 38 e6 bd 0b ca bc bc 0e c9 47 bd 41 57 0a 3e
       -0.11241224 -0.02304556 -0.048775725 0.13509847
000180 72 b0 09 3d 91 90 72 bc d9 25 84 3c de 99 2d 3e
       0.033615537 -0.014804975 0.016131328 0.16953227
000190 99 7a cb 3d 8e a3 b5 bd bf 9f 62 3e 6a d7 2a bc
       0.09935493 -0.08869086 0.22131251 -0.010427335
0001a0 65 09 d8 3d 3a 0c 95 3d c4 a9 3e 3e 34 f0 9a 3d
       0.10548667 0.07277723 0.18619448 0.07565346
0001b0 30 92 a3 3d ec e2 09 3d ba be 2e 3e 67 59 36 3e
       0.079868674 0.033663675 0.17064944 0.17807542
0001c0 f7 2d 17 be e7 c0 3c 3d d1 2b 67 3d 08 95 2c 3e
       -0.14763628 0.046082404 0.05643827 0.16853726
0001d0 91 f4 c6 bd f6 2c 7e 3d 57 0a 0d be 4d 56 03 be
       -0.09714616 0.062054597 -0.13773476 -0.1282589
0001e0 6c 27 bb 3d 61 fa 6e bd 77 dd de bd d6 34 40 3d
       0.091383785 -0.05834425 -0.10882085 0.04692539
0001f0 15 0e 9c be 63 9c 43 3d 99 6a 8b bd 18 a6 40 3e
       -0.30479494 0.047756564 -0.06807441 0.1881336
000200 9a 35 d5 3d 3d 80 d9 3d 96 75 2f bd a2 9d c3 3d
       0.10410614 0.10620163 -0.042836748 0.095515504
000210 4a 4a eb 3c b0 71 28 be 61 7d b8 3d 57 56 b1 3c
       0.028721947 -0.16449618 0.09008289 0.021647615
000220 47 5a b0 bd e1 13 e4 bc 8a a6 b5 bd f6 81 46 3e
       -0.08610969 -0.02784151 -0.088696554 0.19385514
000230 49 1e 2c 3c 45 d0 a5 bd 5b 0c 61 bd 8b c9 2e 3c
       0.010505267 -0.08096365 -0.054943424 0.010668169
000240 f2 92 d1 bd 5c 06 ac 3d 1a 58 a3 3d fc 5f 2f 3e
       -0.10233106 0.083996505 0.079757884 0.17126459
000250 4a 8a b3 3d 44 06 b7 bd 21 1c da bd 16 b7 d3 3d
       0.08766611 -0.08936742 -0.106498964 0.10337655
000260 7d bf 94 bd 8d 0e 8a bc 16 77 71 3b dd 37 dc bd
       -0.07263086 -0.016852641 0.0036844662 -0.107528426
000270 59 90 c5 3d a4 c6 04 3e 55 46 05 be b7 d3 3d bd
       0.09646673 0.129664 -0.13015111 -0.046344485
000280 52 25 7d bd b8 4f 14 be 4a e2 13 be d2 92 16 be
       -0.06180317 -0.14483535 -0.14441791 -0.14704445
000290 46 cd ac bb d8 e9 81 bd d2 06 f5 3c 2f 40 28 3e
       -0.005273494 -0.0634343 0.029910479 0.16430734
0002a0 91 26 06 be 8b ae 52 3e e0 cf 83 bc 44 89 12 be
       -0.1310065 0.20574395 -0.016090333 -0.14310175
0002b0 e6 fb 42 bd 27 a4 f2 bd 28 9c 8d bd 9a b6 e9 bd
       -0.04760351 -0.11847716 -0.0691455 -0.114117816
0002c0 39 6e 48 bd a1 a7 89 bd ae d9 ff 3d d8 78 ef bd
       -0.04893324 -0.06721426 0.12492691 -0.11692971
0002d0 c2 c6 16 be 39 e2 e7 bd 6f 0a 40 3e f2 e7 ca 3d
       -0.14724258 -0.113224454 0.1875398 0.09907521
0002e0 93 bc 97 bc 1d 1d ad bd 1c 14 8a 3d ee 21 b1 3d
       -0.018522536 -0.084528185 0.06742117 0.0864905
0002f0 84 c9 ff 3d 69 ba 09 3e 09 73 43 3d 0d bf c3 3d
       0.12489608 0.13450016 0.047717128 0.095579244
000300 9e b2 3a 3b 67 b0 64 39 93 74 a9 3b f2 e1 c2 bd
       0.0028487812 0.0002180949 0.0051713674 -0.09515752
000310 88 b8 2f bc 38 d4 92 bd 9b 73 11 be 62 d3 e1 3d
       -0.010725148 -0.07169384 -0.14204256 0.11026646
000320 ce 8f eb 3d 27 4d 74 bd d9 7f 4a 3d 46 e4 c1 3d
       0.11502038 -0.05964389 0.04943833 0.09467368
000330 3b 89 00 3e cd 5c 55 3c 42 4b d0 bd 41 83 8c 3d
       0.1255235 0.013022614 -0.10170604 0.06860972
000340 d4 11 e4 bc 0c 5f 0f 3e d8 49 ad bd fd 1a 11 3e
       -0.027840532 0.14001101 -0.0846135 0.14170451
000350 47 16 06 bd 22 38 0f 3e eb 81 31 3e e1 69 b0 bd
       -0.03273609 0.13986257 0.17334716 -0.08613945
000360 78 de 53 3e cc 74 c0 3d 71 2f 2c be 4f 8a 3a 3e
       0.20690334 0.09397277 -0.16814972 0.18216823
000370 2d e2 c2 bc 1b 77 cc bd 35 19 da bd 47 0c e4 bc
       -0.02378949 -0.09983655 -0.10649339 -0.027837886
000380 04 63 98 bd ea c5 8b 3d c0 ce 90 bd 43 8b 04 bd
       -0.07440761 0.068248585 -0.070706844 -0.032359373
000390 6b f4 d7 bd dc ec a8 3b ae 42 b1 3c 19 51 32 be
       -0.10544666 0.005155189 0.02163824 -0.17413749
0003a0 f0 da b2 bd 4b 58 a6 3d 84 74 1e bd e5 d5 99 bd
       -0.08733165 0.08122309 -0.038685337 -0.075115
0003b0 e7 d9 f3 bd b7 a4 ac 3d 41 8d df bd 90 86 b7 bb
       -0.11906796 0.08429854 -0.10915614 -0.005600758
0003c0 57 8f b7 bd 63 f7 f9 bd 8b c3 2c 3e 7b c5 da bc
       -0.08962887 -0.122053884 0.16871469 -0.026705494
0003d0 ed 52 99 bd 3d ff ef bd f0 30 f7 bd a4 75 11 3e
       -0.0748652 -0.11718605 -0.12069881 0.14205033
0003e0 85 d7 57 3d 84 fd 52 bd 18 52 03 be 68 e1 28 bd
       0.05269577 -0.051511303 -0.12824285 -0.04123059
0003f0 cf 05 09 3e 4a f2 ff bb 4c 81 31 3d d5 1d dd 3d
       0.13381122 -0.0078108655 0.043336198 0.10796706

bias f4 [10]
000000 39 0b 00 bd 01 62 87 3d 36 9c a4 3c 5b 0c 62 bd
       -0.031260703 0.0661049 0.020094018 -0.055187564
000010 6a 51 0e 3e a4 a3 81 bd 3c 77 5d b9 b9 4c cb bd
       0.13898245 -0.0633004 -0.0002112062 -0.09926743
000020 b6 bd 7a bd 24 13 6b 3c
       -0.06121608 0.014347825
