test_2.pth (torch, 587207 bytes, 10 tensors)

weight f4 [32, 3, 5, 5]
0	0x3aff6da3	0.001948763
1	0x3d250d5b	0.04029594
2	0xbd086922	-0.033303387
3	0x3d226319	0.03964529
4	0x3dd48b4b	0.103781305
5	0xbd9170fa	-0.07101627
6	0xbd022f0e	-0.031783156
7	0xbc0e2b64	-0.008677337
8	0x3d1748fb	0.036934834
9	0xbdbb9784	-0.09159759
10	0xbc88e6e2	-0.016711656
11	0x3da010a3	0.07815673
12	0x3da412ed	0.08011422
13	0x3dfda2b0	0.12384546
14	0xbd18e8cc	-0.037331387
15	0xbcf6d74d	-0.03013196
16	0xbd3571ce	-0.044297986
17	0x3b0dedf5	0.0021656726
18	0x3d5fb7b3	0.05461855
19	0x3d31d82f	0.04341906
20	0xbd21452f	-0.03937262
21	0x3dd1c88e	0.10243331
22	0x3e147dd9	0.14501132
23	0x3db88260	0.09009242
24	0xbdbcbfa1	-0.09216238
25	0xbde6e5e3	-0.11274316
26	0xbd39528d	-0.045244742
27	0x3dfbf80b	0.1230317
28	0x3d39bdf8	0.045347184
29	0x3e14b834	0.14523393
30	0x3d017c5c	0.03161274
31	0xbc5f9702	-0.013646843
32	0x3df5c631	0.12000693
33	0x3ddb7beb	0.10716995
34	0x3e24bb1f	0.16087006
35	0xbcb2f66b	-0.021846017
36	0x3e0ad912	0.13559368
37	0x3d007c01	0.03136826
38	0x3c01529b	0.00789323
39	0x3c681f16	0.014167568
40	0x3d8d7cbb	0.06908556
41	0x3da37e81	0.07983113
42	0x3e0a1adb	0.13486807
43	0x3d94d2c4	0.07266763
44	0x3da8baea	0.08238776
45	0xbd5131ab	-0.051072758
46	0x3d8da6bf	0.0691657
47	0x3e31a286	0.17347154
48	0x3d90d974	0.07072726
49	0xbcb8b4b8	-0.02254711
50	0xbe40daef	-0.18833517
51	0xbe246a9a	-0.1605629
52	0xbd8fdd0e	-0.07024585
53	0xbb29ef48	-0.0025929976
54	0xbe276e33	-0.16350631
55	0xbe066a10	-0.13126397
56	0x3af68aec	0.0018809712
57	0xbd90ef5e	-0.07076906
58	0xbe0bf035	-0.1366585
59	0xbe1a3514	-0.1505931
60	0xbd9845fb	-0.07435223
61	0xbe3262f5	-0.17420562
62	0xbe1beb5e	-0.15226504
63	0xbcf7914f	-0.030220656
64	0x3ce38b76	0.027776461
65	0xbdf641d1	-0.12024272
66	0xbe2916df	-0.16512631
67	0x3d7ff4f8	0.06248948
68	0xbe20d4fd	-0.15706249
69	0xbc1b14d8	-0.009465419
70	0xbca7c0e7	-0.020477725
71	0xbe0740a3	-0.1320825
72	0xbd162618	-0.036657423
73	0xbdc4067f	-0.095715515
74	0x3b9c403e	0.0047684005
75	0xbe04d039	-0.12970056
76	0xbd163986	-0.036675952
77	0x3d9a1379	0.07523245
78	0xbbf17669	-0.007368852
79	0xbdc22ecf	-0.09481584
80	0xbd8c8103	-0.068605445
81	0xbcca50aa	-0.024696667
82	0xbdbec91c	-0.09315702
83	0xbd31bf13	-0.043395113
84	0xbdb62b6a	-0.08894999
85	0x3da4a273	0.08038797
86	0xbd9147cc	-0.07093772
87	0xbdb7771b	-0.089582644
88	0x3da1587e	0.07878207
89	0xbde1ad9e	-0.11019443
90	0xbdc43fe0	-0.09582496
91	0x3baaff58	0.0052184276
92	0xbdb3a659	-0.08771963
93	0xbdabddca	-0.08391912
94	0x3d46a06a	0.048492827
95	0x3dd44d2b	0.10366281
96	0xbdd66c55	-0.104698814
97	0x3e0035bc	0.12520498
98	0x3d0227a7	0.031776097
99	0xbdb179de	-0.086658224
100	0xbde0bba3	-0.10973289
101	0xbcc6baea	-0.02425905
102	0xbc60db12	-0.013724105
103	0xbcfec7c3	-0.031101113
104	0x3c4d476e	0.012529237
105	0x3dc2bc93	0.09508624
106	0xbe01ef2e	-0.12688896
107	0xbd90025f	-0.07031702
108	0xbd1c7fac	-0.038207695
109	0xbc01e78d	-0.007928741
110	0x3db58306	0.08862881
111	0xbd0a9c24	-0.033840314
112	0x3d2c84ca	0.042118825
113	0x3d95d4b1	0.07315958
114	0xbca9f328	-0.020745829
115	0x3df32faf	0.11874329
116	0x3dfca397	0.1233589
117	0x3d64c0ee	0.055848055
118	0x3ddbee67	0.10738831
119	0x3d87289c	0.065995425
120	0x3e01fc75	0.12693961
121	0x3de15728	0.11002952
122	0xbd496f94	-0.049178675
123	0xbb3e9e82	-0.0029086177
124	0x3dd4b619	0.10386295
125	0xbdeec5a5	-0.116587915
126	0xbdd74351	-0.105108865
127	0xbddaf261	-0.10690761
128	0xbc2a420b	-0.010391722
129	0x3c570225	0.01312307
130	0xbe070b49	-0.13187899
131	0x3c872342	0.016496304
132	0x3d63bf78	0.05560252
133	0xbdd6ffec	-0.10498032
134	0x3c97d4a7	0.018534018
135	0xbccbb8fb	-0.024868479
136	0xbdbc8251	-0.092045434
137	0x3d3a5ba2	0.045497544
138	0x3ce7d56c	0.02830001
139	0x3d657ce8	0.056027323
140	0xbd6b6001	-0.057464603
141	0xbd435d82	-0.047696598
142	0xb865fdea	-5.483433e-05
143	0xbdca19b1	-0.098681815
144	0x3d958d6f	0.07302367
145	0x3da8a930	0.08235395
146	0x3d7f9eaa	0.062407173
147	0x3dd48b4d	0.10378132
148	0x3de9e0f5	0.1141986
149	0x3e083a6c	0.13303536
150	0xbdd1ae21	-0.102382906
151	0xbd74fb04	-0.0598097
152	0x3c68e354	0.0142143555
153	0xbdd03350	-0.10166037
154	0xbd962f23	-0.07333209
155	0xbd0e9394	-0.03480871
156	0x3db4748d	0.08811293
157	0xbd620758	-0.055182785
158	0x3d5125a2	0.05106128
159	0xbceac9d9	-0.028660702
160	0xbd1e62bf	-0.03866839
161	0xbd61dac4	-0.05514027
162	0xbdb8b85f	-0.09019541
163	0x3cc0a086	0.023514044
164	0xbc947aed	-0.018125022
165	0x3dc703dc	0.09717533
166	0x3d8a0e0f	0.06740963
167	0x3d29be88	0.04144147
168	0x3bfdddae	0.0077473735
169	0xbcfd0725	-0.030887196
170	0x3d256101	0.040375713
171	0xbdb84d02	-0.08999063
172	0x3da71b97	0.08159559
173	0xbc52c86d	-0.012865168
174	0x3c975bf8	0.018476471
175	0xbdf066e9	-0.117383786
176	0xbd0dc1b0	-0.034608543
177	0xbd2bda34	-0.04195614
178	0x3bf78a4b	0.0075543276
179	0x3c0cab64	0.008585785
180	0x3de622f2	0.11237134
181	0xbd96e04d	-0.07367001
182	0x3d3ba810	0.045814574
183	0x3ce85a68	0.028363422
184	0x3dbe7d08	0.093011916
185	0x3d187e06	0.03722956
186	0xbd2ac4a6	-0.041691445
187	0x3de805ad	0.113292076
188	0x3d2581be	0.040406935
189	0xbd846997	-0.06465452
190	0x3dcc339e	0.09970783
191	0xbd5b2fe1	-0.053512458
192	0x3df704f1	0.120614894
193	0x3dc50141	0.0961938
194	0x3db2b528	0.08725959
195	0x3ddccef5	0.107816614
196	0x3dddc37a	0.108283
197	0x3d599897	0.053124037
198	0xbd4a0875	-0.04932447
199	0x3c7c8964	0.015413616
200	0xbd4f23f8	-0.05057141
201	0x3dcaa173	0.09894075
202	0x3d0a49db	0.03376184
203	0xbc5a1168	-0.013309814
204	0xbdb93ec5	-0.090451755
205	0x3de78293	0.11304202
206	0xbd71b241	-0.059007887
207	0xbdbf20ec	-0.09332451
208	0xbc9755db	-0.018473556
209	0xbd280ec6	-0.041029714
210	0x3d79d0aa	0.060990013
211	0xbd018583	-0.031621467
212	0xbd968909	-0.07350356
213	0x3dfd486c	0.12367329
214	0xbdb8284f	-0.08992063
215	0xbb9ffdbe	-0.0048825433
216	0x3c94e3bb	0.018174997
217	0xbccfa817	-0.025348706
218	0x3de025b4	0.10944691
219	0x3d145242	0.03621126
220	0x3debdc42	0.1151662
221	0xbd933760	-0.07188296
222	0xbcca2041	-0.024673583
223	0xbd9969be	-0.07490872
224	0x3d0ec1c9	0.034852777
225	0x3de30548	0.11084992
226	0x3d47605e	0.048675887
227	0x3d42c62b	0.04755227
228	0x3aede2fa	0.0018149309
229	0xbd88d39c	-0.06680986
230	0x3d862c28	0.06551391
231	0x3d195da5	0.037442822
232	0x3e02d452	0.12776306
233	0xbd47d55e	-0.048787467
234	0x3dafde0f	0.08587276
235	0x3d91f241	0.071262844
236	0x3bded549	0.006800328
237	0xbd93552d	-0.0719398
238	0xbcf877b0	-0.030330509
239	0x3daddabf	0.08488988
240	0x3b2c9148	0.0026331712
241	0x3dca2a66	0.09871368
242	0xbdeffd49	-0.11718232
243	0xbdca9e28	-0.09893447
244	0xbdfd800d	-0.123779394
245	0x3caf05dd	0.0213651
246	0xbd9ca065	-0.0764778
247	0x3dc198ac	0.09452948
248	0x3d852158	0.065005004
249	0xbcb3c3dd	-0.02194398
250	0x3dc68c3e	0.09694718
251	0xbdcf7375	-0.101294436
252	0x3bb5fc28	0.005553741
253	0x3ddaca27	0.10683089
254	0x3dcea044	0.10089162
255	0xbd164e18	-0.03669557

bias f4 [32]
0	0x3e591e07	0.21202861
1	0xbdbd2fd2	-0.092376366
2	0x3c9e4652	0.01932064
3	0xbdd9ec42	-0.10640766
4	0xbcf8d018	-0.030372664
5	0xbd9b47ec	-0.075820774
6	0xbdb9fd74	-0.090815455
7	0xbdccb05a	-0.09994574
8	0xbc9f3d4b	-0.019438406
9	0x3de2c224	0.11072186
10	0x3e016b5f	0.12638615
11	0xbda19ff0	-0.07891834
12	0x3da90faa	0.08254941
13	0xbdd6adad	-0.10482345
14	0x3d687a6b	0.056757372
15	0x3c49fd72	0.0123284925
16	0xbdb1d4a1	-0.08683134
17	0x3dd2a90b	0.10286149
18	0x3e5b0c89	0.213915
19	0x3c0a770b	0.008451234
20	0xb99f88fd	-0.00030428907
21	0x3d9f04b8	0.07764572
22	0xbdf4142c	-0.1191791
23	0x3c5827c9	0.013193079
24	0xbd14a5c7	-0.03629091
25	0xbd5516fc	-0.052023873
26	0x3e313c02	0.17308047
27	0xbd5fef26	-0.05467143
28	0xbe27c0ff	-0.16382216
29	0xbe514508	-0.2043649
30	0xbe247017	-0.16058384
31	0xbd06ea58	-0.03293833

weight f4 [32, 32, 5, 5]
0	0xbc7ce457	-0.0154353
1	0xbc8939e3	-0.016751235
2	0x3c7935e4	0.015210602
3	0xbbebdf5f	-0.007198259
4	0x3c65f226	0.0140347835
5	0xbbaee93a	-0.0053378614
6	0x3a9f5f1c	0.0012159082
7	0x3be6fc33	0.0070491075
8	0xbc8d8d92	-0.01727942
9	0xbbd9b114	-0.006643424
10	0x3d1d6428	0.038425595
11	0x3d001c1b	0.031276803
12	0xbb9c5d07	-0.004771832
13	0xbc9e30d0	-0.019310385
14	0xbc0b42ce	-0.008499814
15	0x3d16c3a9	0.03680769
16	0xbcfc0834	-0.03076563
17	0x3a0a99c1	0.00052871933
18	0x3c186def	0.009303554
19	0x3c570443	0.013123575
20	0xbc6efea9	-0.014587083
21	0x3c590eb1	0.013248132
22	0x3bba0d1b	0.005677832
23	0x3c206ae0	0.009791106
24	0x3c8f73da	0.017511297
25	0x3c8e364d	0.017359877
26	0xbca7e0e3	-0.020492977
27	0xbb710b57	-0.003678044
28	0x3d1fd0da	0.039017536
29	0xbc8ba5c0	-0.01704681
30	0x3d02d373	0.031939935
31	0x3c509cb4	0.012732673
32	0x3cf378e5	0.029720733
33	0x3d3a2703	0.04544736
34	0x3cc2dfbc	0.023788325
35	0xbcc909d9	-0.024540829
36	0xbcdafb5a	-0.026731182
37	0xbce5dbd5	-0.028058926
38	0xbd08bab8	-0.033381194
39	0xbbc16832	-0.0059023136
40	0x3c455264	0.012043569
41	0xbcd353aa	-0.02579673
42	0x3ce99e99	0.028518008
43	0xbc86d41b	-0.016458562
44	0xbcf73f0e	-0.030181434
45	0x3ce4b3b9	0.02791773
46	0x3c4ee56a	0.012627939
47	0x3cd0f699	0.025508212
48	0xbd112244	-0.03543307
49	0xbcf35ec2	-0.02970827
50	0x3c81920b	0.015816709
51	0xbd0e4a45	-0.034738798
52	0x3c37f958	0.011228882
53	0x3c7883c5	0.015168135
54	0x3ced49fb	0.02896594
55	0xbc6c26de	-0.014413564
56	0x3d2b9733	0.04189224
57	0xbc5a5ecc	-0.013328265
58	0xbb8423df	-0.0040325965
59	0xbb5a87f9	-0.0033345206
60	0x3d09296b	0.033486765
61	0x3cbff38a	0.023431558
62	0x3d1039cf	0.03521138
63	0xbccf76c7	-0.025325192
64	0x3d01a6d8	0.031653255
65	0xbb0304e9	-0.001999194
66	0xbd05931e	-0.032611005
67	0xbae0936b	-0.0017133778
68	0xbcee6e04	-0.029105194
69	0x3cace76d	0.021106446
70	0x3a0a4436	0.00052744464
71	0xbc3223b6	-0.010872772
72	0x3c57afd2	0.013164477
73	0x3bc28f8c	0.0059375223
74	0xbbe5b2cc	-0.0070098396
75	0xbb56c3b7	-0.0032770464
76	0xbab5e679	-0.001387789
77	0x3ce30355	0.02771155
78	0xbcb2e8bb	-0.02183949
79	0x3c80ef1e	0.01573902
80	0x3cb0f7aa	0.02160247
81	0x3bd6ef32	0.006559276
82	0xbca24d3a	-0.019812215
83	0x3cc43566	0.023951244
84	0x3c99dff6	0.01878355
85	0x3c6c1068	0.014408208
86	0xbbe8a3c1	-0.007099599
87	0x3d15d912	0.036583968
88	0xbcd7e847	-0.026355876
89	0xbc972891	-0.01845196
90	0x3cca99e2	0.02473158
91	0x3d0b8baa	0.03406874
92	0xb9c08dc7	-0.00036726726
93	0xbc17bdff	-0.009261607
94	0x3cfc9e0b	0.03083708
95	0xbc04f834	-0.008115817
96	0x3cea8c78	0.028631434
97	0x3c577e0f	0.013152613
98	0x3cc07353	0.02349249
99	0xbc75f974	-0.015013088
100	0x3d27f0b1	0.041001026
101	0x3d10b201	0.035326008
102	0xbc652181	-0.013985039
103	0xbce995e8	-0.028513864
104	0x3c952d89	0.01821019
105	0x3c568b8e	0.013094796
106	0x3d36739a	0.04454384
107	0x3a614a75	0.0008594164
108	0xbb571434	-0.0032818438
109	0x3b8a47e4	0.004219996
110	0x3cf5b088	0.029991403
111	0xbd104f25	-0.035231728
112	0x3c237755	0.009977181
113	0x3c97976c	0.01850482
114	0xb9d073e3	-0.00039759194
115	0x3cc601c5	0.024170766
116	0x3c1eb136	0.009685805
117	0x3c87500d	0.016517663
118	0x3d07d336	0.03316041
119	0x3a9ab7c1	0.001180403
120	0x3c7c283d	0.015390453
121	0xbc31a474	-0.010842431
122	0x3cb03528	0.021509722
123	0x3ca14900	0.01968813
124	0x3bb336b5	0.005469168
125	0xbc260fa9	-0.01013557
126	0xbc66d360	-0.014088482
127	0x3baf169f	0.005343273
128	0xbca38e5c	-0.019965343
129	0x3be08fe9	0.006853093
130	0x3baf89ff	0.0053570266
131	0x3d0f1c1f	0.034938928
132	0x3d0efa1b	0.034906488
133	0x3cedb345	0.029016146
134	0x3d167220	0.03672993
135	0x3c1ff219	0.00976231
136	0xbcc159ff	-0.023602484
137	0x3d2207f9	0.039558385
138	0xbc3da040	-0.011573851
139	0x3cbaf43c	0.022821538
140	0xbb409744	-0.0029387036
141	0xbc15541b	-0.009114291
142	0xbca67005	-0.020317087
143	0x3d22e954	0.0397733
144	0x3cc61435	0.024179557
145	0x3c72e338	0.014824681
146	0x3cb9b8de	0.02267116
147	0xbc8d840f	-0.017274885
148	0x3d1ec4af	0.03876179
149	0x3d180050	0.037109673
150	0x3c9eae0f	0.019370107
151	0xbd0970f6	-0.033554994
152	0xbc0bff8a	-0.008544812
153	0xbc2769dd	-0.010218111
154	0x3b8a58e2	0.0042220214
155	0x3d16ec1b	0.03684626
156	0xbb522e88	-0.0032071192
157	0xbc6a46ad	-0.014299077
158	0xbca86e6b	-0.020560464
159	0xbc7cdf53	-0.015434104
160	0x3d2b6ecd	0.041853715
161	0x3c2adb8d	0.010428322
162	0x3c19118a	0.009342561
163	0x3c3e2eb2	0.011607813
164	0x3ceb24cb	0.028704068
165	0xbb8c23e4	-0.0042767394
166	0x3d03bfa5	0.03216519
167	0x3cb96be7	0.02263446
168	0xbccf6328	-0.025315836
169	0x3c08ce0c	0.008349907
170	0x3cb87138	0.022514924
171	0x3ca4e83f	0.020130275
172	0x3d150efa	0.036391236
173	0xbccb19b5	-0.024792532
174	0x3cc2f586	0.023798715
175	0x3d1263f1	0.035739843
176	0xbcf7c616	-0.030245822
177	0x3d1d2151	0.03836185
178	0xbc1ef586	-0.009702092
179	0x3d0cb4b5	0.034352023
180	0x3d1783c8	0.03699091
181	0xb9365d82	-0.00017391707
182	0x3cdd3667	0.02700348
183	0x3c9a1b7b	0.018811932
184	0x3cbdca78	0.023167834
185	0x3ce408e6	0.027836274
186	0xbbe5919e	-0.0070058843
187	0x3c9ce8c9	0.01915397
188	0x3ca3d36d	0.019998277
189	0xbca2ff9e	-0.019897278
190	0x3d04662f	0.032324012
191	0xbc182977	-0.00928723
192	0x3a1d0daf	0.0005991114
193	0x3c3a5c06	0.011374479
194	0xbcd15eb6	-0.025557857
195	0x3d0f05a5	0.034917492
196	0xbc437482	-0.011929633
197	0x3cca7eb4	0.02471862
198	0xbc76a79b	-0.015054609
199	0x3c6688d8	0.014070712
200	0x3ca54e9c	0.020179085
201	0x3c8a163e	0.016856309
202	0x3c0f5d2f	0.008750244
203	0xbc46f0e2	-0.012142392
204	0xba89fc62	-0.0010527486
205	0xbad28038	-0.0016059941
206	0x3c80bd1e	0.015715178
207	0xbd052509	-0.032506023
208	0xbbfad614	-0.0076549146
209	0x3c9d8df6	0.019232731
210	0xbb40d6a6	-0.0029424815
211	0x3d3935a5	0.045217175
212	0xbbb6c9fb	-0.005578277
213	0x3cf25b34	0.029584505
214	0x3d021117	0.03175458
215	0x3c893893	0.01675061
216	0x3b95f1b7	0.004575934
217	0xbc901b27	-0.017591072
218	0x3b70218a	0.0036641085
219	0xbca6037f	-0.020265339
220	0x3d43785c	0.047722206
221	0x3d34147b	0.043964844
222	0x3c977d13	0.018492257
223	0xbc5f322f	-0.013622805
224	0xbcc01e44	-0.023451932
225	0x3c9a0e97	0.018805785
226	0xbc305bd6	-0.010764083
227	0xbca14078	-0.019684061
228	0x3c8de89e	0.017322835
229	0xbc1d9bc5	-0.009619658
230	0xbc78b944	-0.0151808895
231	0xbbc49e0b	-0.0060002855
232	0xbb9281f7	-0.0044710594
233	0x3c9db93a	0.019253362
234	0x3aeff5e2	0.0018307532
235	0xbcaadc69	-0.020857053
236	0x3d333f03	0.043761265
237	0xbc883718	-0.016627833
238	0x3c8f8983	0.017521625
239	0x3cde3e0a	0.027129192
240	0x3c2a1caa	0.010382811
241	0x3c5c6c22	0.013453515
242	0xbc34aeb6	-0.011027982
243	0xbccae5bd	-0.02476775
244	0x3d04a6ae	0.03238552
245	0x3cef3b39	0.029203044
246	0x3d34f1ec	0.044176027
247	0x3d356828	0.044288784
248	0x3c43352f	0.011914535
249	0x3cb20e37	0.021735294
250	0xbc7969e0	-0.0152229965
251	0xbcd94362	-0.026521388
252	0x3d1c30a5	0.03813233
253	0xbb09b44e	-0.002101201
254	0xbca68374	-0.020326354
255	0x3ce1cfef	0.02756497

bias f4 [32]
0	0xbce16f51	-0.0275189
1	0xbd517f38	-0.051146716
2	0xbc795e62	-0.0152202565
3	0x3d0e1c04	0.034694687
4	0xbd015681	-0.031576637
5	0xbbda2abd	-0.006657927
6	0xbcb1898f	-0.021672038
7	0xbd90a93e	-0.070635304
8	0x3c40fc87	0.011778957
9	0xbcc8cf58	-0.024512932
10	0xbc719139	-0.014744096
11	0xbce580cb	-0.028015515
12	0xbc918a2f	-0.017766086
13	0xbd8650aa	-0.06558354
14	0xbd156bcc	-0.036479756
15	0x3cc1c421	0.023653092
16	0xbd44527e	-0.047930233
17	0xbc7a0ba9	-0.015261569
18	0xbcdc9908	-0.02692844
19	0x39daa9db	0.00041706752
20	0x3d0b84c6	0.03406217
21	0xbc8af152	-0.016960774
22	0xbd27f12e	-0.04100149
23	0x3ad38b38	0.0016139513
24	0xbd00a269	-0.031404886
25	0xbd19f032	-0.037582584
26	0x3bebc2ec	0.0071948674
27	0xbd14bb8e	-0.03631168
28	0xbd3b2ded	-0.045698095
29	0xbd1dc2eb	-0.038515966
30	0xbd7fcf21	-0.062453393
31	0x3cd2dadf	0.025739131

weight f4 [64, 32, 5, 5]
0	0x3c4fb4ff	0.01267743
1	0x3c73925c	0.014866438
2	0x3c635ff8	0.013877861
3	0x3cd0dc09	0.025495546
4	0xbcafc203	-0.021454817
5	0x3c1155d7	0.0088705635
6	0x3cf2fbf7	0.029661162
7	0x3c1bf4bf	0.009518801
8	0x3d11954c	0.03554277
9	0x3cd1f86d	0.025631154
10	0x3a9bd76e	0.0011889765
11	0xbbc1f5e9	-0.0059192074
12	0x3d2117bf	0.039329287
13	0x3ae2ddb9	0.001730851
14	0xbb949632	-0.0045345062
15	0x3cce66d4	0.025195517
16	0xbccbf729	-0.024898129
17	0x3c2d9b81	0.010596157
18	0x3cc79ab6	0.024365764
19	0x3c0e7ea8	0.008697189
20	0xbcbd0fcd	-0.023078823
21	0xbd059fdc	-0.032623157
22	0x3c75a24d	0.014992309
23	0xbc55fe84	-0.01306117
24	0x3c026472	0.007958518
25	0x3c949d1b	0.01814132
26	0xbcbd84f8	-0.023134694
27	0x3b2c4906	0.0026288643
28	0x3cbdc642	0.023165826
29	0xbbb9f935	-0.0056754597
30	0x3d02cb03	0.03193189
31	0xbcdc4955	-0.026890436
32	0xbb0ca596	-0.0021461002
33	0xbcf30acb	-0.029668232
34	0xbccd12d6	-0.025033396
35	0xbd044b68	-0.032298476
36	0x3c32a109	0.010902652
37	0x3cc20e4d	0.02368846
38	0x3ca1c396	0.019746583
39	0xbba8735e	-0.005140706
40	0x3cbca45b	0.02302759
41	0x3ce560f0	0.028000325
42	0xbd034c24	-0.032055035
43	0xbcf751fd	-0.030190462
44	0x3d0e33d5	0.0347174
45	0xbc358cbc	-0.011080917
46	0xbcdb57a0	-0.026775181
47	0x3d10fe2d	0.03539865
48	0xbb17ac39	-0.0023143424
49	0x3d0538df	0.03252494
50	0xbaf70b97	-0.0018848059
51	0xbca18261	-0.01971549
52	0x3ce888f2	0.028385613
53	0x3b206c3c	0.0024478575
54	0xbc87e9d9	-0.016591
55	0x3ce600fc	0.028076641
56	0xbcdff3bb	-0.0273379
57	0x3cf36c8b	0.029714843
58	0x3c18b247	0.009319848
59	0xbc0439a9	-0.008070388
60	0xbcb4a752	-0.02205244
61	0xbc3bf57b	-0.011472101
62	0x3afb2ed6	0.0019163738
63	0x3cdcb432	0.026941393
64	0xbc664ad0	-0.014055923
65	0x3c91e60e	0.017809894
66	0x3cdbdacc	0.026837729
67	0xbcfe88a9	-0.031071024
68	0x3b868eb1	0.0041063656
69	0xb9ef04c5	-0.00045589186
70	0xbd0bd715	-0.034140665
71	0xbc87a176	-0.016556483
72	0xbcab444f	-0.020906596
73	0x3b65b19a	0.0035048486
74	0xbcc1b5c4	-0.023646243
75	0xbc204f6c	-0.009784561
76	0xba0e3a34	-0.0005425543
77	0xbc19decf	-0.009391501
78	0xbcf86ab9	-0.030324327
79	0x3aaeb72d	0.0013329737
80	0x3cd8e159	0.026474642
81	0xba92d74d	-0.0011203081
82	0xbc6a7835	-0.014310886
83	0xbc6d3768	-0.014478542
84	0x3c05582c	0.008138698
85	0xbd0994bd	-0.033589114
86	0x3b47263b	0.0030387777
87	0xbae63069	-0.0017562035
88	0x3d041c41	0.032253508
89	0xbd074ac7	-0.033030298
90	0x3bb0c6f3	0.0053948103
91	0xbbb0c08d	-0.0053940476
92	0x3cdbffc9	0.026855366
93	0xbcd51873	-0.026012635
94	0xbc9c42b2	-0.019074772
95	0xbcc48e5b	-0.023993662
96	0x3c827459	0.01592462
97	0xbcf0c174	-0.02938912
98	0x3aa5e8c7	0.0012657874
99	0x3d0b54e0	0.03401649
100	0xbc870e8b	-0.016486427
101	0xbd1024a1	-0.035191182
102	0xbc8c819c	-0.017151646
103	0xbaebf42a	-0.0018001844
104	0x3ce99c27	0.028516842
105	0x3b852977	0.004063781
106	0xbc1f8e2b	-0.009738485
107	0xbc2b3bbb	-0.010451253
108	0xba887928	-0.0010412084
109	0xbc67b9ad	-0.01414339
110	0x3cfcd306	0.030862343
111	0x3b95e62f	0.004574559
112	0xbce7b52d	-0.028284634
113	0x398e192d	0.00027103108
114	0x3bba3ec7	0.005683753
115	0x3d0ca508	0.034337074
116	0xbd02b801	-0.03191376
117	0xbc3b4d2c	-0.011431973
118	0x3cff9118	0.031197116
119	0x3c879215	0.01654915
120	0xbc85d79f	-0.016338168
121	0xbc9e10d7	-0.01929514
122	0x3c4989ff	0.012300967
123	0xbc1ddb1f	-0.009634762
124	0x3ca82b17	0.02052836
125	0xbbcca968	-0.0062457807
126	0xbc3657dc	-0.011129346
127	0xbb9f6445	-0.004864248
128	0x3d00eca4	0.031475678
129	0x3cd42610	0.025897056
130	0x3bd9f94c	0.006652033
131	0x3c4f4181	0.012649895
132	0x3c00ef4a	0.007869551
133	0xbbaef9d2	-0.0053398395
134	0xbc37261d	-0.0111785205
135	0xbcc968dc	-0.024586134
136	0xbcf3642b	-0.02971085
137	0x3cf4c485	0.029878864
138	0x3c0e105f	0.008670895
139	0x3ca19ca8	0.01972802
140	0x3c13ca66	0.0090204235
141	0xbc43c60c	-0.0119490735
142	0x3d1078bd	0.035271395
143	0x3be6fa49	0.0070488793
144	0x3cb8efe1	0.02257532
145	0x3cb1eacb	0.021718403
146	0xbd19cb71	-0.037547532
147	0x3c6cfe66	0.01446495
148	0x3bf96445	0.00761083
149	0xbc7bebbd	-0.015376029
150	0xbc140338	-0.009033971
151	0xbcd1da1d	-0.0256167
152	0x3cfd966b	0.030955514
153	0x3c32ba9c	0.010908749
154	0x3ba60611	0.005066641
155	0x3d018c00	0.031627655
156	0x3cd8e634	0.026476957
157	0x3cb0dde7	0.021590186
158	0xbcf61659	-0.030039953
159	0xbbbba084	-0.005725922
160	0x3ce7b9a3	0.02828676
161	0xbc9f3095	-0.019432345
162	0xbbac4450	-0.005257167
163	0xbb0b450e	-0.0021250877
164	0x3b6d5ad7	0.0036217475
165	0x3c8fd4ff	0.01755762
166	0x3d0ea49d	0.034824956
167	0x3d17c481	0.037052635
168	0x3b88e24f	0.0041773687
169	0xbbce6d54	-0.006299654
170	0x3b6f8e5d	0.003655336
171	0xbb4e8996	-0.0031515113
172	0xbc1e4617	-0.009660265
173	0x3ad94871	0.0016577375
174	0x3d1bcf63	0.038039576
175	0xbb994348	-0.00467721
176	0x3bac61fc	0.005260704
177	0x3b6d7b34	0.0036236765
178	0x3d1255d8	0.0357264
179	0xbc95092f	-0.018192856
180	0xbbbd7ea9	-0.0057829213
181	0xbcb1c763	-0.02170152
182	0xbc5b5d5a	-0.013388956
183	0x3cf7b05d	0.030235464
184	0x3c895807	0.016765608
185	0x3b87dd8c	0.0041462835
186	0x3cba1613	0.022715604
187	0x3ce68237	0.028138263
188	0x3bd21ea6	0.006412345
189	0x3cbef218	0.023308799
190	0x3c36f7d5	0.011167486
191	0xbcf73683	-0.03017736
192	0xbca17581	-0.01970935
193	0x3bb33cb1	0.0054698815
194	0xbcc4f4ce	-0.024042513
195	0xbbc73f82	-0.006080569
196	0xbcc0c28b	-0.023530265
197	0x3b02df63	0.0019969575
198	0x3c07ca4f	0.00828798
199	0x3d1aeb1f	0.037821885
200	0xbc6216bc	-0.013799366
201	0xbc05a659	-0.008157336
202	0xbcc7824b	-0.02435412
203	0xbca6a9ee	-0.0203447
204	0x3d059fbc	0.032623038
205	0x3ab2e465	0.0013648389
206	0x3cae2477	0.021257622
207	0xbb1b0cf3	-0.0023658841
208	0x3c36b5ba	0.011151725
209	0xbc6f7457	-0.01461514
210	0xbc75de24	-0.015006576
211	0x3c8a58dc	0.016888075
212	0xbbb9c485	-0.005669179
213	0xbcb344a1	-0.02188331
214	0x3bbbd640	0.0057323277
215	0x3bd5b995	0.0065223672
216	0x3cda9131	0.02668056
217	0xbc97e69b	-0.018542578
218	0x3cb44acd	0.022008324
219	0x3ca8e609	0.020617502
220	0x3c4b7eb4	0.012420345
221	0xbc9587c3	-0.018253213
222	0x3c660ba7	0.014040864
223	0x3cf5ef05	0.0300212
224	0x3d07065a	0.03296504
225	0xbc385796	-0.011251351
226	0xbc5c08ab	-0.013429801
227	0xbce13288	-0.027489915
228	0x3d11f1cd	0.03563099
229	0x3b9f7573	0.004866296
230	0xbc6fe927	-0.01464299
231	0x3c8dd0f3	0.017311549
232	0xbc2a0326	-0.010376727
233	0xbc3dc6b2	-0.011583017
234	0x3d286e1f	0.041120645
235	0x3b30888e	0.0026936862
236	0xbcbf2d9a	-0.023337174
237	0xbc169504	-0.0091908015
238	0x3a287a43	0.000642691
239	0x3cd62fd5	0.026145855
240	0xbc607b63	-0.013701293
241	0xbc2e4b95	-0.010638137
242	0x3d06fae5	0.032954115
243	0xbc203079	-0.009777182
244	0x3cd5635b	0.026048353
245	0x3a74aa1b	0.0009333209
246	0x39d060ec	0.00039745064
247	0xbce91f1b	-0.028457215
248	0xbd09280f	-0.03348547
249	0x3cf8b321	0.030358853
250	0xbce53a20	-0.027981818
251	0xbc54ccff	-0.012988328
252	0xbcc2f700	-0.02379942
253	0xbcfaf60b	-0.0306349
254	0x3c278e59	0.010226809
255	0xbcc3b99d	-0.023892218

bias f4 [64]
0	0xbb7ae76a	-0.0038284906
1	0xbc5b273d	-0.013376054
2	0xbd0a0cbd	-0.033703554
3	0x3cc5cf3c	0.024146669
4	0xbc808e09	-0.015692728
5	0xbc08c74a	-0.008348295
6	0xbd2867af	-0.041114505
7	0xbd014d6e	-0.031567983
8	0xbd501d75	-0.050809342
9	0x3ca015b1	0.019541593
10	0x3cbfc774	0.023410536
11	0xbc47ef94	-0.012203116
12	0xbd090f21	-0.033461694
13	0x3d108cfc	0.035290703
14	0x3c7b6b7f	0.015345453
15	0x3d15f6aa	0.03661219
16	0xbc68596a	-0.014181474
17	0xbd06233a	-0.03274844
18	0xb9e80c55	-0.00044259676
19	0x3c68fd9e	0.014220623
20	0xbbf817a7	-0.007571179
21	0xbbc9813c	-0.006149439
22	0x3d08795c	0.033318862
23	0xbc666f40	-0.01406461
24	0xbcd14dc6	-0.02554978
25	0xbc74a7cc	-0.014932584
26	0xbcdf84c7	-0.027284993
27	0xbd0df251	-0.03465492
28	0x3d053117	0.03251752
29	0x3c6c8570	0.014436111
30	0x3d40f4dc	0.047108516
31	0xbb519aee	-0.0031983214
32	0x3cb31298	0.021859452
33	0x39b82bd9	0.00035127884
34	0xbc42af21	-0.011882574
35	0x3cd11a75	0.025525311
36	0x3cca37f1	0.024684878
37	0x3989d833	0.00026291757
38	0x3b231777	0.0024885812
39	0x3c686dc5	0.014186327
40	0xbcd80d86	-0.026373636
41	0x3ae45533	0.0017420411
42	0xbc39fab5	-0.011351277
43	0x3d28816d	0.041139055
44	0x3ca5c58b	0.020235797
45	0x3c77f4f6	0.015134087
46	0x3c85ed6e	0.016348567
47	0xbc5295d4	-0.012853105
48	0xbd6d6c9f	-0.057964917
49	0x3c5f868e	0.01364292
50	0xbc61b963	-0.01377711
51	0xbd3adf2f	-0.045623
52	0x3c717727	0.014737881
53	0x3b9e941f	0.0048394348
54	0xbd160dbc	-0.036634192
55	0xbb8a92f0	-0.004228942
56	0x3c700937	0.0146506345
57	0xbcaaf6be	-0.020869609
58	0x3d0a5192	0.033769198
59	0xbd17d8a9	-0.037071858
60	0xbbb79384	-0.005602302
61	0xbc452e56	-0.012034973
62	0xbc4343a6	-0.011917984
63	0x3b9b505d	0.0047398047

weight f4 [64, 1024]
0	0xbc76b88d	-0.015058649
1	0x3ba5c540	0.0050589144
2	0xbca1bba0	-0.019742787
3	0x3cd6289c	0.026142411
4	0x3c8e87a3	0.017398661
5	0x3cd65468	0.026163295
6	0xbc48c66f	-0.0122543415
7	0xbbeeaf1c	-0.0072840583
8	0x3c537ef1	0.012908683
9	0x3c3847ea	0.011247614
10	0xbd0e21c2	-0.034700163
11	0x3c73fa3c	0.0148912035
12	0x3cc3f078	0.023918375
13	0x3cb65c86	0.022260915
14	0x3bc31cad	0.005954346
15	0xbc42befc	-0.011886355
16	0xbcbcb616	-0.023036044
17	0x3cd11d0b	0.025526544
18	0x3b5d5c14	0.0033776807
19	0xbc890d04	-0.01672984
20	0x3cca9e46	0.024733674
21	0x3d16b1a6	0.036790513
22	0xbb8abbd8	-0.0042338185
23	0x3c9e1abc	0.019299857
24	0x3c1fadd4	0.009746034
25	0x3cec8c2c	0.028875433
26	0xbb88dd1e	-0.00417675
27	0x3c149ed6	0.009071073
28	0xbcabac96	-0.020956319
29	0xbc14dbf4	-0.009085644
30	0x3cd8b4a9	0.026453333
31	0x3c5fcbfa	0.013659472
32	0x3bc27180	0.0059339404
33	0x3ca0c130	0.019623369
34	0xbb1fbe6e	-0.002437498
35	0x3cbdc598	0.02316551
36	0x3d0ba539	0.034093115
37	0x3bea18d0	0.007144071
38	0x39d090ec	0.00039780827
39	0x3b71c121	0.0036888795
40	0x3cf23048	0.029564038
41	0xbcce72a1	-0.025201144
42	0xbb954af8	-0.004556056
43	0x3ca4a2b1	0.020097109
44	0xbc646e90	-0.013942376
45	0xb9f19e56	-0.00046085072
46	0x3cd37cce	0.025816347
47	0xbcd8beef	-0.026458232
48	0x3cdf6f4f	0.027274756
49	0xbaf7e8f3	-0.0018914029
50	0xbbae6a37	-0.0053227204
51	0x3c30a9f3	0.010782707
52	0xbc919a0b	-0.017773649
53	0x3c776c4c	0.015101504
54	0xbcd6dcea	-0.026228387
55	0xbcddba22	-0.027066294
56	0x3c875f84	0.016525038
57	0x3c259172	0.010105478
58	0xbb78a31b	-0.0037939015
59	0xbd108fdf	-0.035293456
60	0xbc6c9ca2	-0.014441641
61	0x3c190452	0.009339409
62	0x3c98c4dc	0.018648557
63	0x3ca47899	0.020077037
64	0xbbdef287	-0.006803814
65	0xbc7f38f5	-0.015577544
66	0x3c819549	0.015818255
67	0x3caa1676	0.020762663
68	0x3cda9bfe	0.026685711
69	0xbca8322c	-0.020531736
70	0x3b41fbff	0.0029599664
71	0xbc4dd977	-0.012564055
72	0x3c2f126b	0.0106855435
73	0x3bf8c741	0.0075921123
74	0x3cca60ec	0.02470442
75	0xbb436aa2	-0.0029818197
76	0xbcc46190	-0.023972303
77	0xb7f80068	-2.9564093e-05
78	0xbc8b301f	-0.01699072
79	0x3c8880a3	0.016662901
80	0x3c9b2a98	0.018941209
81	0x3cc6e95b	0.024281194
82	0xbc81c08d	-0.015838886
83	0x3b81bfd6	0.003959636
84	0xbca18ecd	-0.019721413
85	0x3ce649db	0.028111389
86	0x3a2baa08	0.0006548469
87	0x3cc41b07	0.023938669
88	0xbd0aadd3	-0.033857178
89	0x3c811795	0.015758315
90	0x3c966b3f	0.018361686
91	0xbca3b398	-0.019983098
92	0x3c287e51	0.010284022
93	0x3c38020a	0.011230955
94	0x3cd71b97	0.026258273
95	0xbba1b776	-0.0049352003
96	0xbcaddd20	-0.021223605
97	0xbc00dbe0	-0.007864922
98	0x3ca295a4	0.019846745
99	0xbbff66f8	-0.0077942573
100	0x3c78b3d5	0.015179594
101	0x3cdbb8f3	0.02682159
102	0x3b7ee121	0.0038891512
103	0xbcd73f5b	-0.026275327
104	0xbbb2bab5	-0.005454386
105	0xbcdaf99c	-0.026730351
106	0xba2d8165	-0.00066187076
107	0x3c9d857f	0.019228695
108	0xbb1d7e4e	-0.0024031582
109	0x3b6e1740	0.0036329776
110	0xbcd6d80f	-0.026226072
111	0xbc7e7bb3	-0.015532422
112	0x3c58afcb	0.013225506
113	0xbb9db11e	-0.004812374
114	0xbc1f93c9	-0.009739825
115	0x3c5bcf3d	0.013416109
116	0x3c42cdea	0.011889914
117	0xbce7a80b	-0.028278371
118	0xbc391af3	-0.011297929
119	0xbcc05e5c	-0.023482494
120	0x385d1f47	5.2719635e-05
121	0x3c7931e0	0.015209645
122	0xbc1f1d42	-0.009711565
123	0x3c9abde8	0.018889382
124	0x3cb7106f	0.022346703
125	0xbc629461	-0.013829322
126	0x3a340ca0	0.00068683363
127	0x3c142412	0.009041803
128	0xbcb5976a	-0.022166926
129	0x3cb4a751	0.022052439
130	0x3caca120	0.021072924
131	0x3cdb48bd	0.026768083
132	0x39738706	0.00023224586
133	0xbaf5a40e	-0.0018740909
134	0xbc24f187	-0.01006735
135	0xbbdf8376	-0.0068210913
136	0x3cda7b40	0.026670098
137	0x3c01515b	0.007892932
138	0xbca707e2	-0.020389501
139	0x3c789377	0.015171877
140	0x3c2c4c86	0.0105162915
141	0x3cf3f4c5	0.029779801
142	0xbcea8432	-0.028627489
143	0xbcf08e92	-0.029364858
144	0x3cb6fd0c	0.022337459
145	0x3a992297	0.0011683282
146	0x3c85b542	0.016321782
147	0xbcbb2d6f	-0.022848813
148	0xbc77f112	-0.015133159
149	0xbbdcf0cd	-0.006742573
150	0xba43ac9c	-0.00074643805
151	0xbccffad6	-0.025388163
152	0xbbfae89b	-0.0076571233
153	0x3cd04c3e	0.02542698
154	0x3cd61cf5	0.026136855
155	0x3cfb8603	0.03070355
156	0x3bab7e7d	0.0052335844
157	0x3c88c23b	0.016694179
158	0xbc886089	-0.016647594
159	0x3c7899ca	0.015173385
160	0x3cdbf4c5	0.026850114
161	0x3b747663	0.003730201
162	0xbca49ae0	-0.020093381
163	0xba6855c5	-0.00088628783
164	0xbc8131df	-0.01577085
165	0xbc9e4f2c	-0.019324861
166	0x3c2f5d4e	0.010703398
167	0xbb45dc2c	-0.0030191047
168	0x3ce339db	0.027737549
169	0xbc6b2816	-0.014352819
170	0xbbd205d2	-0.0064093852
171	0xbcb17177	-0.02166055
172	0x3bdaf13d	0.00668159
173	0xbb071b9a	-0.0020615817
174	0x3cbc44f3	0.022982096
175	0xbce88ebf	-0.02838838
176	0xbcbd7027	-0.023124767
177	0xbc77acac	-0.015116852
178	0x3bd216c0	0.0064114034
179	0xbabeb048	-0.0014548386
180	0x3b18ecd5	0.0023334522
181	0x3cf20fc6	0.029548537
182	0xbc73c3a1	-0.014878185
183	0xbce4fa39	-0.027951347
184	0xbc71de48	-0.014762469
185	0x3d0b3be8	0.033992678
186	0xbab17591	-0.0013539066
187	0x3bdb7826	0.0066976724
188	0xbcd17fd3	-0.025573647
189	0x3cd50207	0.026001943
190	0xbcd6154e	-0.026133206
191	0x399408cb	0.0002823531
192	0x3cdf3f7a	0.027251948
193	0x3c27996c	0.01022945
194	0xbcaeaadf	-0.021321712
195	0x3c8dd174	0.01731179
196	0x3cc01762	0.02344865
197	0x3ce6bff4	0.028167702
198	0x3c90f8d3	0.017696774
199	0xba92b101	-0.0011191667
200	0x3be2ee0d	0.0069253505
201	0x3ce39fe6	0.027786206
202	0xbd075da6	-0.033048294
203	0xbbd5d32b	-0.0065254173
204	0xbc53304c	-0.012889933
205	0xbca04349	-0.019563334
206	0xbcc15944	-0.023602135
207	0xbca7b1a6	-0.020470452
208	0x3d0f894c	0.035043046
209	0x3cda935d	0.026681596
210	0x3c99be4b	0.018767497
211	0x3c7fa792	0.015603917
212	0x3cc2e125	0.023788998
213	0xbcd9fbb7	-0.026609285
214	0xbab0042b	-0.0013428977
215	0x3cddf87c	0.027096026
216	0x3bd4aac7	0.006490085
217	0x3cf39923	0.029736107
218	0x3bd34a13	0.0064480393
219	0x3c7e0322	0.015503677
220	0xbb6bde71	-0.003599074
221	0x3ce55f07	0.027999414
222	0x3c870854	0.016483463
223	0xbcaa6f2b	-0.020804962
224	0x3cc33238	0.023827657
225	0xbcaad6ae	-0.02085432
226	0xbc3c5772	-0.011495458
227	0xbc3a17bc	-0.011358198
228	0xbc22e6eb	-0.00994275
229	0x3c985c48	0.01859869
230	0xbb2ab927	-0.00260503
231	0x3cee4f6b	0.029090604
232	0xbcd9cabe	-0.026585933
233	0xbd130107	-0.03588965
234	0xbce20a98	-0.027592942
235	0x3cbb499b	0.022862246
236	0x3c3d1368	0.011540271
237	0xbad54e23	-0.0016273897
238	0x3ba157e8	0.0049238093
239	0xbc48e5ea	-0.012261847
240	0xbcd8cfae	-0.026466217
241	0xbb1bdab7	-0.0023781487
242	0x3d089c5b	0.033352237
243	0x3b903d98	0.004401874
244	0xbc365987	-0.011129743
245	0xbcebb4fa	-0.02877282
246	0x3c8e072a	0.0173374
247	0xbce2ab16	-0.02766947
248	0xbce03953	-0.027371084
249	0xbc07558c	-0.008260142
250	0x3b3e3514	0.0029023336
251	0xbcae9fcc	-0.021316431
252	0xbca89897	-0.020580573
253	0x39e13b68	0.00042959605
254	0x3bdd6c25	0.0067572766
255	0x3cb53fc8	0.02212514

bias f4 [64]
0	0xbcad4ec1	-0.021155717
1	0xbcd362c0	-0.025803924
2	0x3cd5009e	0.02600127
3	0xbba86d0e	-0.0051399535
4	0x3ba11947	0.0049163434
5	0xbc3cd998	-0.011526488
6	0xbbfa755d	-0.0076433853
7	0x3c4e5fc8	0.012596078
8	0xbceb63a2	-0.028734032
9	0xbc3ec11a	-0.011642719
10	0x3a1e0c11	0.000602902
11	0xbc357846	-0.011076039
12	0x3cc457ea	0.023967702
13	0x398bc8d2	0.0002666177
14	0xbc6d1ae7	-0.014471746
15	0x3b60d29e	0.0034305225
16	0xbc1256dd	-0.008931843
17	0x3ca859e5	0.020550678
18	0xba2f22bc	-0.0006680896
19	0x3d4b9107	0.049698856
20	0xba63f0e6	-0.00086952595
21	0x3d2c94a1	0.04213393
22	0x3cf1d957	0.029522581
23	0x3b45cab1	0.0030180628
24	0x3bdd6989	0.0067569655
25	0xbd042cdb	-0.03226934
26	0x3c8088d4	0.015690245
27	0xbc094cdf	-0.008380144
28	0xbce84c23	-0.028356617
29	0xbd1fee10	-0.039045393
30	0x3c4198ef	0.011816247
31	0x3aeb21b8	0.0017939126
32	0xbc333495	-0.0109378295
33	0x3c7cc6ba	0.0154282395
34	0xbd18ceed	-0.037306715
35	0x3cb3ea64	0.021962352
36	0xbca2b0d3	-0.019859707
37	0x3d66b4bc	0.056324705
38	0xbbdf2d59	-0.006810826
39	0x3cc8d0b0	0.024513572
40	0xbbdbaed1	-0.0067041893
41	0x3cd2215b	0.02565067
42	0xbcc22024	-0.023696966
43	0x3d0b6b71	0.03403801
44	0x3c7fd530	0.015614793
45	0xbc1812ac	-0.0092817955
46	0xbd1faa98	-0.03898105
47	0xbc1feec3	-0.009761515
48	0x3d2cb81a	0.04216776
49	0x3ba9eb9e	0.0051855585
50	0x3a17ca84	0.000579037
51	0x3c2c2a30	0.010508105
52	0xbc2b21ce	-0.010445071
53	0x3c9912ac	0.018685661
54	0x3b3583fa	0.0027697072
55	0x3d007df4	0.03137012
56	0x3c87aa1a	0.016560603
57	0xbc856beb	-0.01628681
58	0xbd443aa1	-0.047907475
59	0xbc738c85	-0.014865045
60	0x3cb3daaa	0.021954853
61	0x3bbc8931	0.005753659
62	0xbd1ab551	-0.037770573
63	0x3cf4bf42	0.029876355

weight f4 [10, 64]
0	0xbdd57882	-0.10423376
1	0xbcd468da	-0.025928903
2	0xbc069fc1	-0.008216799
3	0xbc8e4cd9	-0.017370628
4	0x3dc5c582	0.09656812
5	0xbd90218a	-0.07037647
6	0x3df8bb78	0.12145132
7	0x3d873f9d	0.0660393
8	0x3d9a17c2	0.07524063
9	0xbdedf7b4	-0.11619511
10	0xbd07dd7c	-0.03317021
11	0xbcab62ae	-0.020921078
12	0x3ccb907f	0.024849175
13	0x3d964941	0.07338191
14	0xbd21eeb2	-0.03953428
15	0xbd85207f	-0.06500339
16	0x3c5d628c	0.013512265
17	0xbda47d23	-0.080316804
18	0x3c5f9674	0.013646711
19	0xbdc51737	-0.096235685
20	0xbd176d2a	-0.03696934
21	0xbde5715b	-0.112032615
22	0xbe1233ba	-0.14277545
23	0xbd51426c	-0.051088735
24	0xbe0654e3	-0.13118319
25	0xbcfec1a3	-0.031098193
26	0xbd80c12d	-0.06286845
27	0xbd45b690	-0.04826981
28	0xbdc8ff84	-0.09814361
29	0x3db7744d	0.089577295
30	0xbcea075d	-0.028567964
31	0xbdb0f6fc	-0.086408585
32	0x3da58780	0.08082485
33	0x3e019c30	0.12657237
34	0xbb8c37f2	-0.00427913
35	0xbca861ec	-0.020554505
36	0x3c5ba6ef	0.013406499
37	0xbde67314	-0.11252418
38	0xbdba12ad	-0.090855934
39	0xbd6d4553	-0.05792744
40	0x3d183ff2	0.037170358
41	0x3e0b9267	0.13630067
42	0xbde9f016	-0.11422746
43	0xbe0a63a0	-0.13514566
44	0x3d9d0d06	0.076685
45	0x3dd21e18	0.10259646
46	0x3dfe632c	0.12421259
47	0x3cdb0285	0.0267346
48	0xbde3cbe3	-0.11122873
49	0x3d153db1	0.036435787
50	0xbe03705f	-0.12835835
51	0x3d7e3fbf	0.06207251
52	0x3dad1e95	0.08453099
53	0xbdf8bcbc	-0.12145373
54	0x3c157e97	0.00912442
55	0xbe0373fd	-0.12837215
56	0x3daeb901	0.085313804
57	0xbe10189d	-0.14071889
58	0x3dd4b57a	0.103861764
59	0x3e1d2773	0.1534708
60	0xbe02994f	-0.12753795
61	0xbd9e3159	-0.07724256
62	0x3e0ae7bd	0.13564964
63	0xbd325524	-0.043538228
64	0xbdd481f7	-0.10376351
65	0x3dc53be2	0.09630562
66	0x3e55e1f4	0.20886976
67	0x3d810cdf	0.06301283
68	0xbd86ef11	-0.06588567
69	0x3d8b2951	0.0679499
70	0xbc50f1a1	-0.012752921
71	0xbe201cf4	-0.15636045
72	0x3e241cda	0.16026631
73	0x3e0bae40	0.1364069
74	0xbe30b108	-0.17255032
75	0xbdfa3201	-0.12216569
76	0xbcdd0df4	-0.026984192
77	0x3c509578	0.012730949
78	0x3db83458	0.08994359
79	0xbc80afc5	-0.015708813
80	0x3dde35e3	0.10850122
81	0xbe100f82	-0.14068416
82	0x3de6b2af	0.1126455
83	0x3dc23001	0.09481812
84	0xbe333c97	-0.17503582
85	0xbd9c24e4	-0.07624224
86	0xbd75d726	-0.060019635
87	0x3d37059b	0.04468308
88	0xbdce5bd4	-0.100761086
89	0x3d1c8634	0.038213924
90	0xbdb615d7	-0.08890884
91	0xbd0951a9	-0.033525143
92	0xbdbf6d74	-0.093470484
93	0xba3438f1	-0.000687494
94	0xbc6f6f35	-0.014613916
95	0x3dd4a3d0	0.10382807
96	0x3d235ed3	0.039885353
97	0xbcb3b380	-0.021936178
98	0xba7d45af	-0.0009661568
99	0x3de42329	0.11139519
100	0x3d936f4a	0.07198961
101	0xbd9e2c83	-0.07723334
102	0x3e314978	0.17313182
103	0xbca11fb7	-0.019668443
104	0x3d8a2a5d	0.067463614
105	0x3da9e9c4	0.082965404
106	0x3e03468e	0.12819883
107	0x3d19142f	0.037372764
108	0x3dadcc30	0.08486211
109	0x3d35d26e	0.044390135
110	0x3dfada77	0.122487
111	0x3ddc0951	0.107439645
112	0xbdd8cde2	-0.10586144
113	0x3c903c6f	0.017606942
114	0x3d6e471d	0.058173288
115	0x3e08a465	0.13343962
116	0xbda5de19	-0.080990024
117	0x3cda5680	0.026652575
118	0xbdc64612	-0.096813336
119	0xbdcf8519	-0.10132808
120	0x3daf9db9	0.08575005
121	0xbd73df7d	-0.059539307
122	0xbdb9231a	-0.09039898
123	0x3d3fdde3	0.046842467
124	0xbe5f056b	-0.2177941
125	0x3d253e32	0.040342517
126	0xbd4a63aa	-0.049411453
127	0x3e1fa180	0.15588951
128	0x3da45bd2	0.08025326
129	0x3dc0e040	0.09417772
130	0xbd05ec53	-0.03269608
131	0x3dac5f3d	0.08416603
132	0x3d4d876b	0.050177973
133	0xbe014cee	-0.12627003
134	0x3dd4af4f	0.10385
135	0x3c96705d	0.018364126
136	0xbd96c7e9	-0.073623486
137	0xbd078d77	-0.033093896
138	0xbda034d9	-0.0782258
139	0x3e161f9e	0.14660498
140	0xbc896a22	-0.01677424
141	0xbd84087e	-0.06446932
142	0xbd4bfd04	-0.04980184
143	0x3d25a1ca	0.040437497
144	0xbda5f230	-0.08102834
145	0x3d66f250	0.05638343
146	0x3da1012e	0.07861553
147	0x3e1cd2ac	0.1531474
148	0x3d908c4b	0.07058009
149	0xbdc65396	-0.096839115
150	0xbdc01c91	-0.093804486
151	0x3dbfcef5	0.09365646
152	0xbdc84e55	-0.09780566
153	0xbcb0f106	-0.021599304
154	0xbc2238d1	-0.009901241
155	0xbe0949ef	-0.1340711
156	0x3d872f47	0.06600814
157	0x3dd8c96e	0.10585295
158	0xbdd10d0a	-0.10207565
159	0xbcf68724	-0.030093737
160	0xbd9361e2	-0.07196404
161	0xbde8f30e	-0.11374484
162	0xbdef5315	-0.116857685
163	0xbde649cf	-0.112445466
164	0x3bac4d17	0.0052582133
165	0xbd497da1	-0.049192075
166	0x3d2099f2	0.039209314
167	0x3e1562ae	0.14588425
168	0xbdc3fd7e	-0.09569834
169	0x3e3145ae	0.17311737
170	0xbd0a6dc2	-0.03379608
171	0xbe02cab9	-0.12772645
172	0xbcf3efb4	-0.029777385
173	0xbdf1b3b9	-0.118018575
174	0xbd413614	-0.047170714
175	0xbdab1a93	-0.08354678
176	0xbd2e2be9	-0.042522345
177	0xbd1fcd3c	-0.039014086
178	0x3de4870e	0.11158572
179	0xbdae0023	-0.0849612
180	0xbdf6f9c6	-0.12059359
181	0xbdc49d1d	-0.096002795
182	0x3e2068db	0.15664999
183	0x3dbfe814	0.09370437
184	0xbbdcee0b	-0.006742244
185	0xbda066a1	-0.07832075
186	0x3d2ef862	0.042717345
187	0x3d989430	0.074501395
188	0x3dcbcea1	0.09951521
189	0x3de197ad	0.11015258
190	0x3cf2501a	0.029579211
191	0x3db2aa54	0.08723894
192	0x3b9c73ce	0.004774547
193	0x3c256bf5	0.01009654
194	0x3c3f351c	0.011670377
195	0xbd9a2a28	-0.07527572
196	0xbd3243cc	-0.043521687
197	0xbd759fd2	-0.05996687
198	0xbe13e2f1	-0.1444204
199	0x3dc15780	0.094405174
200	0x3de33dd7	0.110957794
201	0xbd26e946	-0.04074981
202	0x3d146ac6	0.03623464
203	0x3dc8e48f	0.09809219
204	0x3df48ff1	0.11941517
205	0x3c9f2368	0.019426063
206	0xbdda9a2f	-0.106739394
207	0x3d94091a	0.072282985
208	0xbca6fb3e	-0.020383473
209	0x3e0febe3	0.14054827
210	0xbdc2f04a	-0.09518488
211	0x3de731a4	0.11288765
212	0xbd6d18f8	-0.05788514
213	0x3e06ad08	0.13151944
214	0x3e22cadb	0.15897696
215	0xbda35129	-0.079744644
216	0x3e3fe800	0.18740845
217	0x3dab9b2e	0.083792076
218	0xbe10b32e	-0.14130852
219	0x3e32f8da	0.17477742
220	0xbd1fa7ae	-0.03897827
221	0xbdb4706a	-0.08810504
222	0xbdf6267b	-0.12019058
223	0x3a994d80	0.001169607
224	0xbd6c6b28	-0.05771938
225	0x3d8f6f24	0.0700362
226	0xbd5e8b5d	-0.054332126
227	0xbd20fe44	-0.039304987
228	0xbdcef8af	-0.101060264
229	0xb9d9ff51	-0.0004157969
230	0x3d1cb779	0.03826091
231	0xbe0e5354	-0.13898975
232	0xbda4f076	-0.08053677
233	0x3d05a564	0.032628432
234	0xbd03d9d8	-0.032190174
235	0xbd89dd65	-0.06731681
236	0xbe01a905	-0.12662132
237	0x3dbd305d	0.0923774
238	0xbdec6b1f	-0.11543869
239	0x3bfeaf22	0.0077723423
240	0xbdb6c748	-0.08924729
241	0xbdf215bc	-0.11820552
242	0x3e29cede	0.1658282
243	0xbd1a520c	-0.037675902
244	0xbd93373d	-0.0718827
245	0xbdd2ad90	-0.10287011
246	0xbe0a6d4a	-0.13518253
247	0x3e02ddcf	0.12779926
248	0x3d428d0d	0.047497798
249	0xbd5d8bab	-0.054088276
250	0xbde64153	-0.11242928
251	0xbd537a52	-0.051630326
252	0x3dec8086	0.115479514
253	0xbc894575	-0.016756753
254	0x3d4bb74c	0.049735352
255	0x3de42854	0.111405045

bias f4 [10]
0	0xbbaaf7b0	-0.005217515
1	0x3db9ffe0	0.090820074
2	0x3d260437	0.040531363
3	0xbda69929	-0.08134682
4	0x3dcf5c66	0.101250455
5	0xbccae5cd	-0.02476778
6	0xbd14ab4e	-0.03629618
7	0xbdaa2fd6	-0.08309905
8	0xbdafd532	-0.08585586
9	0x3c5619ae	0.013067646
