test_4.pth (torch, 587207 bytes, 10 tensors)

weight f4 [32, 3, 5, 5]
00000000: bc0e a4bc 2437 db3c be3b afbc d1ee 413d
00000010: 92bb cb3d e99d cbbd 2e98 35bd 1f82 ce3b
00000020: 512e 423d 781f c2bd da23 38bd b25b 813d
00000030: 1d49 b83d 70a4 073e beaf 17bd 1dbd 74bd
00000040: ed29 7fbd a461 b93c 3538 813d c32f 2a3d
00000050: b2a2 82bd 5755 bd3d 84b5 2f3e 9490 c73d
00000060: 4ee2 cbbd b000 06be 3ff6 5dbd 97d0 0c3e
00000070: c3d3 613d b243 143e 1666 163c 511d 9bbc
00000080: 77a9 103e 019e fb3d 9b3f 273e d896 36bd
00000090: 0a21 033e 5ee8 443d 6823 b63c 0674 a33c
000000a0: 09fc 3c3d 183b 8f3d 71e8 253e b039 b33d
000000b0: 66c5 b23d f2d4 8bbd 7197 8a3d 3cd6 533e
000000c0: 84e1 ac3d 3779 b8bc c72a 56be 8ead 2fbe
000000d0: de91 80bd 7bbc 5938 f10f 2cbe aee7 1fbe
000000e0: 97d7 b7bb 5905 69bd 47a1 03be 6ca1 1cbe
000000f0: fdc0 d1bd 802e 3fbe de4d 15be 1156 d8bc
00000100: ef80 d13c 7d22 1bbe 865c 3bbe f9ca 9b3d
00000110: 8f77 1fbe 00a0 78bc 41bf 37bd e00d 10be
00000120: dd7e 7bbc 503a bfbd 24a9 60bb 2235 1abe
00000130: 2ca0 60bd b5af 7f3d b71a babc 35ef dcbd
00000140: ab82 bbbd 4fd7 4abd f198 ecbd c556 88bd
00000150: 5b79 e0bd 9b5a 853d 05f5 b4bd 5a18 d5bd
00000160: c6a2 853d 8d2f 00be 664b d0bd d04b 593b
00000170: 757a b1bd 2ad1 adbd d036 423d cdee d93d
00000180: 3a35 cbbd 3c21 093e 69ed 1c3d 3dec a5bd
00000190: c64e e4bd 3340 bfbc afdd 02bc c896 e7bc
000001a0: e51c 8e3c e637 c23d 4ac9 03be b4c4 8fbd
000001b0: 32c8 22bd e387 fcbb f49f ca3d d745 d0bc
000001c0: 6353 583d 5470 ab3d 12b9 4fbc 63d1 093e
000001d0: 4b63 123e 50a3 9e3d 7220 013e 9315 ab3d
000001e0: da04 163e 8f05 073e 6c7d cbbc d6c1 983c
000001f0: b0fd fc3d 3578 f2bd e9ec d3bd d21b d1bd
00000200: 91b4 0cbc a306 863c 4f75 08be 358f 703c
00000210: 8003 5e3d cb38 debd baa6 853c de9f 9bbc
00000220: b898 b2bd 0d24 523d 5917 083d 0ad1 6e3d
00000230: a616 4abd dbe0 11bd d026 553c d189 b6bd
00000240: e33b a63d c144 be3d d9fa 993d db32 f23d
00000250: d778 003e 78a1 113e be12 03be 87b2 a0bd
00000260: aeb9 f839 bc0a f5bd 349e c3bd 322b 55bd
00000270: 05a2 8b3d 6831 95bd f72a 153d 25e6 46bd
00000280: 8469 36bd 07ae 84bd cb78 bdbd abc6 d23c
00000290: 99d4 e3bc dc6c cc3d 35fb 8c3d 6ea8 503d
000002a0: e2de 833c 2a8c 02bd 6f20 2b3d 138c bcbd
000002b0: fa26 ab3d 09e8 85bc 40a0 5b3c 5b0d 01be
000002c0: 829d 13bd 1a8e 1cbd ac5f dc3b 19f5 5a3b
000002d0: fc5a e43d a888 9dbd 4f63 383d 2a29 f53c
000002e0: 703a b63d 8dae 383d c573 1abd 2209 ff3d
000002f0: e8c0 623d 37b3 7dbd 31f1 e53d 97df 2dbd
00000300: 6fe3 0e3e c0fe e73d 1925 c23d e66b ee3d
00000310: 7171 e73d 7656 7c3d 23b0 3fbd 58fb 843c
00000320: 2da0 7bbd bf87 c33d 1ca8 0b3d 90ec 8cbc
00000330: c572 c7bd 8ab8 dd3d b3cc 85bd 9b14 cabd
00000340: 591b b4bc c51d 47bd 7de3 7c3d 0f6c 0abd
00000350: c80d 90bd 9ddd 043e 4c84 c0bd d33a f1ba
00000360: 2e6c a63c 9672 8cbc 7e6f ec3d b851 0d3d
00000370: 8dfe e93d f1f8 9bbd c0a9 d6bc 144f a8bd
00000380: 6c4f dc3c 70bf e93d c54b 5d3d 1fb4 6a3d
00000390: 4a51 2c3c 4ae4 74bd b04e 933d 379d 3c3d
000003a0: c980 0f3e 783d 1dbd b13e bf3d d3b9 963d
000003b0: 7ea1 cf3b c48e 92bd a1fa fabc 359c ac3d
000003c0: 74dd 633b d5f7 c23d 3de2 fabd e772 d9bd
000003d0: 2a23 06be 860a c13c 42ca 9bbd de3e c03d
000003e0: 5d19 813d 6cb5 c6bc f854 c13d 16ba d1bd
000003f0: 5c91 2c3c aee1 e63d 28d9 d83d bf87 1bbd
-0.020026557 0.026759692 -0.021390792 0.047346894 0.099478856 -0.09942228 -0.044334583 0.0063021327
0.047407452 -0.094786584 -0.044956066 0.063163176 0.0899832 0.13246322 -0.037032835 -0.059750665
-0.062295843 0.022629566 0.06309549 0.041549455 -0.06378688 0.09244793 0.17159086 0.09744373
-0.099552736 -0.130862 -0.054189917 0.13751446 0.055133592 0.14478949 0.009179613 -0.018934878
0.14127146 0.12285996 0.16332857 -0.04457745 0.12805572 0.048073165 0.02223368 0.019952785
0.046138797 0.06993693 0.1620195 0.087512374 0.08729057 -0.068277255 0.067671664 0.20687193
0.08441451 -0.022518737 -0.20914756 -0.1715605 -0.06277822 5.1912368e-05 -0.16802956 -0.15615723
-0.005610417 -0.056889866 -0.12854491 -0.15295953 -0.10241888 -0.18670082 -0.14580485 -0.026408227
0.025574176 -0.15149875 -0.18297014 0.07607073 -0.15572952 -0.015174866 -0.04486013 -0.14067793
-0.015350071 -0.09337294 -0.0034280503 -0.15059331 -0.05484025 0.062423427 -0.022717817 -0.107878126
-0.09155782 -0.04952174 -0.11552609 -0.06657175 -0.10960647 0.06511422 -0.08835796 -0.10405035
0.06525187 -0.12518139 -0.10170631 0.003315676 -0.08665935 -0.084871605 0.047415555 0.10641251
-0.099222615 0.13391584 0.03831235 -0.081016995 -0.11147837 -0.023346042 -0.007987424 -0.02827014
0.017347762 0.09483318 -0.12869754 -0.0701994 -0.039741702 -0.0077066286 0.0989379 -0.025423927
0.0528139 0.08371034 -0.012678402 0.13458781 0.1429569 0.07745993 0.12610033 0.08353724
0.14650288 0.13185714 -0.02484008 0.018647116 0.123530746 -0.11839334 -0.103479214 -0.102103844
-0.008587972 0.016360587 -0.13326 0.014682581 0.054202557 -0.10850676 0.016314853 -0.018997129
-0.08720535 0.051303912 0.03322539 0.058304824 -0.049338005 -0.03561483 0.013009742 -0.08913005
0.08116891 0.092904575 0.075185485 0.11826106 0.12546097 0.14221752 -0.12800118 -0.078465514
0.00047440588 -0.11964938 -0.09551659 -0.052043147 0.06818012 -0.07284814 0.036417928 -0.048559327
-0.04453422 -0.064785056 -0.09251555 0.025729498 -0.027811335 0.09981701 0.068838514 0.050941877
0.01609749 -0.031871952 0.041778978 -0.092064045 0.083570436 -0.016345995 0.013404906 -0.12602751
-0.036038883 -0.038221456 0.006725272 0.003341025 0.111501664 -0.07692081 0.045016583 0.029926855
0.08897865 0.04508834 -0.037708063 0.12452914 0.05535975 -0.06193849 0.11227644 -0.04244956
0.13953947 0.113278866 0.09479732 0.11641674 0.11300934 0.061605893 -0.046798836 0.016233131
-0.061432052 0.09547376 0.03409587 -0.017202646 -0.097386874 0.10826214 -0.06533184 -0.098672114
-0.021985697 -0.048612375 0.061740387 -0.03379446 -0.070338786 0.12975164 -0.094002336 -0.0018404372
0.020315256 -0.017144483 0.11544703 0.03450176 0.11425505 -0.07615841 -0.02620399 -0.08218208
0.02689334 0.11413467 0.054027338 0.057300683 0.010517428 -0.059788026 0.07192743 0.04604837
0.14013971 -0.0383887 0.09338129 0.07359662 0.00633639 -0.07156137 -0.030637087 0.084282316
0.0034769448 0.095199265 -0.12250183 -0.10617619 -0.13099352 0.023564588 -0.07606937 0.09386991
0.06303666 -0.02425643 0.09440035 -0.10240571 0.010532703 0.11273514 0.10588294 -0.037971254

bias f4 [32]
00000000: 49f3 7f3e ca4b 99bd dfbc af3c 8000 05be
00000010: 0649 2dbc 94fa bfbd 5648 f2bd 3987 f6bd
00000020: d429 1cbd 3ec6 df3d 0917 283e 1f5f 9abd
00000030: ed90 e93d 090e d9bd e17e 853d 32f1 3a3c
00000040: 88ce aabd 1bfc ff3d 656f 893e a733 d6bc
00000050: af2e e03a 354e eb3d 2aba 0bbe 5756 ed3c
00000060: cae6 80bd 9497 a4bd 71ee 643e 566a bcbd
00000070: 6be2 57be 50cf 7cbe 0b67 54be 18df 31bd
0.2499515 -0.07485159 0.021452365 -0.12988472 -0.010576492 -0.09373966 -0.11830203 -0.120375104
-0.038125828 0.109264836 0.16415037 -0.07537674 0.114045955 -0.1059838 0.06518341 0.0114100445
-0.08340174 0.12499257 0.268428 -0.026147677 0.0017103757 0.11489526 -0.13645235 0.028971834
-0.062940195 -0.08036724 0.22356583 -0.091999695 -0.21082465 -0.24688458 -0.20742433 -0.04342565

weight f4 [32, 32, 5, 5]
00000000: 3380 94bc 3490 bebc 9b91 343c dfd1 52bc
00000010: 0b1a fe3b d4e9 1dbb 384c 9c39 54fd 023c
00000020: f75a 96bc 11d6 01bc affe 2c3d 359e f63c
00000030: 2a3c 73bb af59 9ebc 6305 0dbc 456d 273d
00000040: 19fd 01bd d484 683b 8312 553c 4d96 763c
00000050: d978 3abc 7d53 543c abc1 0d3c 9836 563c
00000060: 9399 9a3c 0334 813c 2173 b3bc 8144 81bb
00000070: 25ad 1c3d b465 94bc e090 1f3d 9e18 a23c
00000080: 0d40 153d 398a 523d 5ae3 ef3c 48f8 e0bc
00000090: fd83 02bd 6293 0bbd c4de 1ebd 25d5 0dbc
000000a0: b0c4 003c 63b4 fbbc f917 d63c e894 92bc
000000b0: c46c 05bd 1e22 c93c c0c4 183c ed4f c33c
000000c0: 04fe 1cbd 31a4 08bd 091a 453c 7dcb 1bbd
000000d0: 618b 083c c734 623c e715 e23c 8495 46bc
000000e0: f4b9 393d 1006 2abc 8082 2dba 19da 02ba
000000f0: 3686 033d 5106 b13c 550f 033d 0a6c e2bc
00000100: 8f12 003d 48ef 09bc 332d 21bd 3871 03bc
00000110: 8464 0fbd 13bd 8f3c f655 96bb 532e 80bc
00000120: 3246 173c 6674 f93a 2ca5 1bbc 7b0f 8539
00000130: 6cba 933a 60b3 ef3c 4acd a3bc 230c 913c
00000140: 40c1 a23c 177b 8e3b 7cc4 b5bc 6464 b53c
00000150: 64d8 8e3c 8745 863c 2f66 60bb 5dc6 213d
00000160: 560b ccbc 77d2 91bc 735a bc3c 7f41 013d
00000170: d67d 86bb 0666 3ebc 36bd f23c 0839 42bc
00000180: 3240 cd3c 34d0 1c3c fcfd b33c 5fd3 7cbc
00000190: d388 283d 59a1 1c3d cafa 70bc 7ca9 e8bc
000001a0: 20bb 953c 01b7 853c 6446 4b3d 4426 0e3b
000001b0: 50a0 a5ba 7046 d33b 0126 ce3c 3c8c 1abd
000001c0: efe8 873b 9a67 503c 3a61 94bb dc90 c23c
000001d0: 4c9c 6c3c 22a5 973c 336c 083d 0072 b7b9
000001e0: 45d3 7f3c b20b d5bb 5312 bb3c 1a11 9e3c
000001f0: 6b3b a83b 68fa 78bc c4f7 a6bc 41a4 01b9
00000200: 319d cebc a176 003b a699 c13b 8315 0f3d
00000210: 53ae 0f3d 1721 f23c b171 143d 2691 643c
00000220: 9826 a5bc 5315 373d cfab a4bb c251 e73c
00000230: d2b6 2fbb 65b1 19bc fb4a 9cbc 3461 2d3d
00000240: b78f de3c 58f1 923c 4379 d43c 059a 3bbc
00000250: 1fdf 333d da5d 2b3d b382 873c dde2 1abd
00000260: b0b7 2fbc 721b 4ebc 49b4 d43a a165 1e3d
00000270: aca8 30bb ba9d 41bc 97f1 95bc 088b 5cbc
00000280: 4f03 393d 395e 4a3c 4de0 503c a3a4 843c
00000290: 28ac 073d 19f6 4cbb 160e fe3c 96a2 c63c
000002a0: fb71 b1bc 30c0 3c3c cedd c03c 176e a63c
000002b0: 7a1b 213d e339 a8bc c0ef e03c bb18 163d
000002c0: be2d f6bc f340 243d 8de6 05bc 8eca 113d
000002d0: 49f5 293d 5cc7 943b 2b6d 043d ec07 b53c
000002e0: b354 d13c 4928 113d fd70 b539 6aa6 db3c
000002f0: 2e70 e03c 02f1 6cbc 6f16 073d 9882 09bc
00000300: eebc 1c3b 44d5 6c3c 6b26 c4bc 4287 0e3d
00000310: ba95 31bc 6a2d dc3c 07ac 5bbc 2692 603c
00000320: 14a5 aa3c d4c4 903c 6c91 093c 63c3 4abc
00000330: 0b75 63ba a4eb 9fbb 4a7a 533c 4dc0 0fbd
00000340: d518 25bc dadd 863c 9e62 d23a 68b3 573d
00000350: 96ce 503b c2d4 1a3d 4d54 173d 135c 9f3c
00000360: ddc8 043c fb2d 77bc fcc3 b73b 52a8 98bc
00000370: a638 4d3d a2b5 3d3d f3ef a43c 72e4 3bbc
00000380: 2a4c a7bc c8d7 843c d8d9 84bc fa95 babc
00000390: 9afc 433c 1816 70bc 8d7f 32bc 443c c2bb
000003a0: 4bc1 05bb 01f9 9a3c c2a7 6c3a 9a97 5ebc
000003b0: da8d 3d3d 324f 42bc de71 ae3c 8377 f83c
000003c0: bbb8 803c f622 633c 8dfc c4bb bc97 a1bc
000003d0: 1668 103d 3c39 0b3d f993 3c3d 43e4 493d
000003e0: bd85 893c 7c99 c03c dad6 94bc ea18 edbc
000003f0: 0d57 193d 9195 9dbb ece6 bdbc 22d4 163d
-0.018127536 -0.02326212 0.011021043 -0.01286742 0.0077545694 -0.0024095671 0.00029811426 0.007994968
-0.018353922 -0.007924573 0.042235073 0.030104736 -0.0037114718 -0.019329874 -0.008607241 0.040875692
-0.031735513 0.0035479562 0.013004902 0.015050483 -0.011381351 0.012959358 0.008652131 0.01307454
0.018872058 0.015771871 -0.021905484 -0.003944934 0.03825106 -0.018114902 0.038956523 0.019787129
0.036438037 0.05140135 0.029283214 -0.02746214 -0.031864155 -0.034076102 -0.038786665 -0.008656775
0.007859394 -0.030725664 0.026134478 -0.01789327 -0.03257443 0.024552401 0.009324253 0.023841823
-0.038328186 -0.03335971 0.012030133 -0.03803586 0.008334012 0.013806528 0.027598334 -0.012120608
0.045343354 -0.010377422 -0.0006618872 -0.00049916055 0.032110415 0.021609457 0.031997044 -0.027639408
0.0312677 -0.0084188655 -0.039349746 -0.008022599 -0.03500797 0.017546212 -0.004587884 -0.01564709
0.009233044 0.0019031882 -0.009499829 0.0002537927 0.0011270768 0.029260337 -0.01999535 0.017705983
0.01986754 0.0043481695 -0.022188418 0.022142597 0.017437167 0.016390575 -0.0034240594 0.039495815
-0.02490775 -0.017800553 0.022992348 0.031556603 -0.0041043563 -0.011621004 0.029631238 -0.011854418
0.025055025 0.009571124 0.021971695 -0.015431254 0.04114611 0.03823981 -0.01470823 -0.028401129
0.018277705 0.016322615 0.049627677 0.0021690289 -0.0012636278 0.006447606 0.025164606 -0.037731394
0.004147641 0.012720013 -0.004528192 0.023750715 0.014441561 0.018511359 0.03330631 -0.00034989417
0.015614335 -0.0065016383 0.022835886 0.019295264 0.0051340363 -0.01519642 -0.020381816 -0.00012363588
-0.02522144 0.0019601958 0.005908209 0.034932625 0.035078358 0.029556794 0.036241237 0.013950622
-0.020160004 0.04469807 -0.005025364 0.028237227 -0.002681185 -0.009380673 -0.019078722 0.04232903
0.027168138 0.017937347 0.025936728 -0.011450295 0.043913957 0.04183755 0.016541814 -0.03781401
-0.010724947 -0.012579786 0.0016228046 0.03867114 -0.0026956005 -0.01181739 -0.018303676 -0.013460882
0.04516917 0.012351566 0.01274879 0.016191786 0.033123165 -0.0031274615 0.031012576 0.024247449
-0.021660795 0.01152043 0.023543265 0.020316167 0.039332844 -0.020535415 0.027458072 0.03664468
-0.030051108 0.040101003 -0.008172643 0.03559356 0.041493688 0.004540367 0.032330673 0.022098504
0.025553083 0.03543881 0.00034607193 0.02681275 0.027397241 -0.014461758 0.03298038 -0.008392952
0.0023916322 0.014455143 -0.0239441 0.03479696 -0.01083892 0.026877124 -0.013407714 0.0137067195
0.020830669 0.01767198 0.008396488 -0.012375685 -0.00086768036 -0.0048803855 0.012907574 -0.0350955
-0.010076721 0.016463209 0.0016051119 0.05266133 0.0031861416 0.037800558 0.03694563 0.019453084
0.00810453 -0.015086646 0.00560808 -0.018634949 0.050102852 0.046315797 0.020133948 -0.01146804
-0.02042206 0.016216174 -0.016217157 -0.022776593 0.01196208 -0.014653705 -0.010894668 -0.0059275944
-0.00204094 0.018917562 0.00090276834 -0.013585949 0.04627786 -0.011859702 0.02129453 0.030330425
0.015713086 0.013863316 -0.0060115517 -0.019725673 0.035255514 0.03399013 0.046039555 0.049289953
0.016787404 0.023510687 -0.018168855 -0.028942544 0.037436534 -0.0048090895 -0.023181401 0.0368234

bias f4 [32]
00000000: 7e9b 56bd 5e82 96bd c18a 4ebc a936 e73c
00000010: 2599 1dbd 8304 8bbc 0d2d 46bc 1381 adbd
00000020: 17c9 f13b d874 44bd 5dd9 dcbc a619 b4bc
00000030: aa2c 8abc caa4 a1bd 4f81 1ebd b4af a33c
00000040: 4e29 74bd fdb0 39bc 0689 55bd c3b1 acba
00000050: 3d42 3d3d 9b0a aabc 58c4 3bbd 4713 8ebc
00000060: e5a6 12bd 72bc 65bd 9f21 933c c27c 38bd
00000070: da13 8abd 6934 46bd 0cd6 8bbd f568 f73c
-0.052394383 -0.07349084 -0.012606324 0.028224306 -0.038476128 -0.016969925 -0.012095702 -0.084718846
0.007378708 -0.047962993 -0.026959116 -0.021984886 -0.016867 -0.07892759 -0.038697537 0.019981243
-0.059609704 -0.011333701 -0.05213263 -0.0013175536 0.046205748 -0.02075701 -0.045841545 -0.017343177
-0.035803694 -0.05608792 0.017960368 -0.045040853 -0.06742068 -0.048389826 -0.068279356 0.030201415

weight f4 [64, 32, 5, 5]
00000000: bb2a 623c a1af 6b3c 2267 433c ec7a d73c
00000010: 7849 99bc 95a9 093c eb68 d53c a3ad 073c
00000020: 1cba 203d 74ce e23c 7e5f 34bb a58d e1bb
00000030: d15e 2e3d 2621 5a3b 7fa8 acbb 8ca2 cc3c
00000040: 72e4 d6bc 1cee f73b 3dd1 c23c 3077 323c
00000050: e155 b4bc 1790 eabc 82d4 a43c 73ff 34bc
00000060: 612e e83b 9bc5 3d3c e577 f4bc 333f a0ba
00000070: 8da7 cb3c 24d7 45bb d9e8 c73c c8bd fabc
00000080: 9a06 403b fe94 b4bc d382 b0bc 335b 1bbd
00000090: cf17 163c 3492 dd3c 587d a23c 50bd deba
000000a0: 9ec4 a73c c739 ae3c a632 24bd c694 00bd
000000b0: bd24 283d fdb4 3fbc de2e ddbc 25d7 173d
000000c0: 3416 083b 852d 193d accc 7abb 3a9f a0bc
000000d0: dbf4 fd3c ee18 cc3b cdb7 86bc 6c44 d33c
000000e0: 32b5 d9bc 5762 043d 08c1 273c 91d9 23bc
000000f0: 72ba b6bc a1d3 3dbc f44e 9f3a e063 e23c
00000100: 8984 5ebc 260f a23c a9b2 f73c 0c73 eebc
00000110: cbbc 963b 4a08 b039 97b2 0fbd 26d2 8cbc
00000120: 7d2f bdbc 5a95 0f3b 6947 c8bc 4829 44bc
00000130: 2d94 28ba 96e7 f4bb a80b e3bc 0492 073b
00000140: d926 c23c 3e59 cdba 9544 58bc e9da 5bbc
00000150: 9e5e 0e3c 4749 10bd ffa1 1e3b e641 8cba
00000160: e80e 063d fd52 04bd 3150 9b3b ca7a babb
00000170: e75e d23c 1c01 d3bc 2a5d 90bc ee40 cdbc
00000180: 7d1e 5b3c 3249 fabc e10e 823b c89d 0f3d
00000190: abc5 91bc 587f 1dbd 52a4 a0bc 1f02 7b3a
000001a0: e484 003d a1c3 713a 9cd5 67bc 9ece 20bc
000001b0: f428 6f3b 8d08 36bc 03a0 e03c 160f 093b
000001c0: b041 e2bc 0bb3 313b 9bc4 223c 53d5 073d
000001d0: e716 09bd ebcd 58bc 2837 063d 1175 a13c
000001e0: d2bc 82bc fbe4 9abc 2c6f 223c 343c 19bc
000001f0: 3e91 ac3c 11f3 b9bb b8e7 2bbc da1e c2bb
00000200: fc5b f83c a033 de3c 222c 6b3b faa0 fb3b
00000210: b24f cc3b dc4e 13bb 286c cfbb 74f4 fabc
00000220: 5e41 0dbd cb1e 013d 2a86 313c 4420 a53c
00000230: b16d 0f3c ed80 2cbc dddc 0e3d 672e 423b
00000240: 8332 b23c b7ea a83c 4775 20bd 2b4b 5a3c
00000250: f48e ff3b 0b52 62bc 62e1 fdbb 537b cebc
00000260: 5052 f03c 9794 f33b d6b5 b43a 63d4 043d
00000270: 3ece ef3c 8b82 b03c 459e 0fbd 6cae 1bbc
00000280: b0fb fe3c cc0d 9cbc bd2e 20bc 0c26 18ba
00000290: a7e0 393c b5ed 973c 6e96 193d e029 2b3d
000002a0: 44e3 1f3c 3b3e 3aba faad f43b b863 d6b8
000002b0: 4ea1 12bc 171a 1aba cafb 1f3d f9b4 0bbc
000002c0: 1f27 093b 6081 853b 8c10 193d 0955 8ebc
000002d0: 2a3a 2cbc 76ea c0bc 9f18 38bc eb31 073d
000002e0: c5b9 943c e5d0 d73a c7e2 ab3c 5b14 e33c
000002f0: c12a 023c ac04 d53c d509 0b3c f2ac 04bd
00000300: 3762 b3bc 7a83 9c3b 6300 b8bc 43c8 01bc
00000310: befb d4bc 6459 eeba ef7c e13b d9ff 223d
00000320: d027 8cbc 9ace 4abc 0f13 c0bc c5ba 6ebc
00000330: 1be3 0c3d 266e 9abb 21e2 8a3c 2e60 5fba
00000340: b7a5 683c 8ce6 86bc 724f 9cbc 0662 7c3c
00000350: 5930 5ebb f5c6 a4bc f11c c03b 8faa 973b
00000360: de06 ce3c ed16 adbc ce5a be3c 05bf c83c
00000370: 45d4 3b3c a748 a6bc 889b 313c 8dcb 083d
00000380: 0ccd 0a3d cfa1 21bc d29b 81bc 89b7 fdbc
00000390: d3e8 203d 71ef 0d3c 58e1 80bc 759c 453c
000003a0: 4a18 64bc eb8d 8abb 7d24 333d 64bd 17ba
000003b0: cb9c d3bc 3a2c fbbb 7272 e13b 62bb d53c
000003c0: a0df 85bc fc98 0bbc 3dc9 113d cc82 e9bb
000003d0: e13e dd3c a5f2 59ba e2a4 4d3b 3ce0 e1bc
000003e0: 18e0 0cbd bd6d ef3c e6a0 f3bc af52 74bc
000003f0: fba1 c1bc cea8 f1bc 04cf 233c dc49 d8bc
0.013804133 0.014385135 0.011926444 0.02630373 -0.01871179 0.008402248 0.026051005 0.008281144
0.039239988 0.027686335 -0.0027522738 -0.0068833404 0.042570893 0.0033283918 -0.0052691097 0.024979852
-0.026231978 0.0075662266 0.023781413 0.010892674 -0.022013607 -0.02863316 0.020120863 -0.011047232
0.007085607 0.011582757 -0.029842326 -0.0012225866 0.024860168 -0.0030188048 0.024403023 -0.030608073
0.002930081 -0.022043701 -0.021546757 -0.03792877 0.00916095 0.027047254 0.01983516 -0.0016993675
0.020479497 0.021267785 -0.040087365 -0.03139188 0.04105066 -0.011700866 -0.026999887 0.037070412
0.0020765187 0.037396926 -0.0038268967 -0.019607175 0.031000545 0.006228558 -0.016445065 0.025789462
-0.026575658 0.032320347 0.010238893 -0.010000602 -0.0223057 -0.011586101 0.0012154267 0.027635515
-0.0135814035 0.019782614 0.030236559 -0.029107593 0.0046001426 0.00033575512 -0.035082426 -0.01719005
-0.023093933 0.0021909089 -0.024448114 -0.011972733 -0.00064307713 -0.0074738963 -0.02771552 0.0020686397
0.023700165 -0.0015666855 -0.013199945 -0.0134188915 0.008689551 -0.035226133 0.0024205444 -0.0010700792
0.03272906 -0.032305706 0.004739784 -0.005690907 0.025680019 -0.025757365 -0.01762255 -0.025055375
0.013373968 -0.03055248 0.003969059 0.03506258 -0.01779445 -0.038451523 -0.019609604 0.0009575206
0.031376734 0.00092225714 -0.01415005 -0.009814886 0.0036492916 -0.011110437 0.02742005 0.0020913533
-0.027619213 0.0027114775 0.00993457 0.033162426 -0.033469107 -0.013232688 0.032767445 0.019709142
-0.015959177 -0.018908015 0.009914201 -0.009352732 0.02106535 -0.0056747277 -0.010492258 -0.005924088
0.030317299 0.027124226 0.003588446 0.007679102 0.0062350864 -0.0022477424 -0.006330032 -0.030634142
-0.034486167 0.031523507 0.01083521 0.020156987 0.00875418 -0.010528785 0.0348786 0.0029629709
0.021752601 0.020619733 -0.039174344 0.0133235855 0.0077990238 -0.013813506 -0.007747815 -0.02520529
0.029336125 0.007433485 0.0013787101 0.03242911 0.029273149 0.021546623 -0.035063047 -0.009502035
0.031125873 -0.019049548 -0.009776768 -0.0005804009 0.011345065 0.018545965 0.037496977 0.041787982
0.009758774 -0.000710461 0.0074670287 -0.00010222889 -0.008949591 -0.00058785215 0.039058484 -0.008527034
0.002092786 0.0040742606 0.037369296 -0.017374532 -0.010511914 -0.0235493 -0.011236339 0.03300659
0.018154988 0.0016465454 0.02098216 0.027719667 0.007944764 0.026003204 0.008486231 -0.032391496
-0.021897418 0.0047764154 -0.022461122 -0.007921281 -0.025998946 -0.00181846 0.0068813483 0.039794777
-0.017108828 -0.012378359 -0.023446588 -0.0145708965 0.034396272 -0.0047128377 0.01695353 -0.0008521107
0.014199666 -0.016467355 -0.019080851 0.01540423 -0.003390333 -0.020114401 0.005862825 0.0046284865
0.025149759 -0.021129096 0.023236658 0.024505148 0.011464183 -0.020298315 0.010840304 0.033397246
0.033886954 -0.009865238 -0.015821371 -0.030971305 0.03928454 0.008663044 -0.015732452 0.012061228
-0.013921807 -0.0042283437 0.04373597 -0.0005788414 -0.0258316 -0.0076651843 0.006880098 0.026090328
-0.016341984 -0.008520361 0.035592306 -0.007126188 0.027007522 -0.000831405 0.0031378795 -0.027572744
-0.0343934 0.029227132 -0.029739808 -0.014912291 -0.023636809 -0.029499438 0.009998087 -0.026402406

bias f4 [64]
00000000: 4537 bbbb b000 97bc 5a57 2abd 6015 463c
00000010: 017d a9bc 9c6a aebc fbd0 61bd 70d6 05bd
00000020: 6f6e 69bd c1de 7f3c 8190 7c3c 688f 89bc
00000030: 6606 33bd be6c 0b3d 8127 703c f96a 2f3d
00000040: 31ea aebc 80e0 d8bc c73b 20bc f789 2b3c
00000050: 1bd5 c8bb 109e 8cbc 40d6 a13c 0e1d d4bc
00000060: 1dd1 ebbc d845 78bc afcc 0abd b9a8 14bd
00000070: 146b e93c 1ad9 043c ae72 213d f146 0ebc
00000080: 1d46 a23c f492 6cb9 9323 d0bc 953c ce3c
00000090: 36be c73c 594e 2cbc 0839 18bc 9fab 40ba
000000a0: f5e9 0dbd 4f17 83bb 7764 7ebc 6447 2b3d
000000b0: 75de 8d3c ff41 ac3c 8d5d 0b3c 9eff 26bc
000000c0: a424 95bd 998a a03b 4463 42bc cf08 4fbd
000000d0: c397 133c 88f1 f8ba fd4c 1ebd 6000 0abc
000000e0: 2230 463c 889f 9dbc ab00 0b3d 526f 16bd
000000f0: 94a2 81bc ed2f bbbc 4ad0 bcbc 9734 9cbb
-0.0057133758 -0.018432945 -0.04158721 0.012090057 -0.02068949 -0.02129107 -0.05513094 -0.032675207
-0.056990083 0.0156170735 0.015415312 -0.016792014 -0.043707274 0.03403925 0.014657856 0.042826626
-0.021351906 -0.026474237 -0.009779877 0.010469905 -0.00612892 -0.017165214 0.019755483 -0.02589276
-0.028786236 -0.015153371 -0.033886608 -0.03629372 0.028493442 0.008108402 0.039416008 -0.008683906
0.019808823 -0.00022561458 -0.025407588 0.025175372 0.024382692 -0.010516726 -0.009290941 -0.0007349792
-0.034646947 -0.0040005813 -0.015526882 0.04181613 0.01731799 0.021027563 0.008506191 -0.01019278
-0.07282379 0.0048993346 -0.011864487 -0.05054551 0.009008351 -0.001899288 -0.03864764 -0.008422941
0.012096437 -0.01924111 0.033936184 -0.036727257 -0.015824594 -0.022850001 -0.023048539 -0.0047670114

weight f4 [64, 1024]
00000000: ce00 53bc 67d7 023c d76f bcbc 6354 b93c
00000010: 9182 8c3c 9f5e ff3c 1f84 83bc 6e9e 1bbc
00000020: 9a1d 7a3c 9fde 733c 2c81 2bbd 5e0c 593c
00000030: edce e73c 095a c63c 3e1b 883b e971 39bc
00000040: be4a cdbc e0ef 023d ca78 2b3c 1583 93bc
00000050: e461 c13c ddb3 283d a012 84bb d7fe 8e3c
00000060: d4a3 1f3c 9e30 003d d18e d5bb 9c35 e53b
00000070: db4b 99bc f58f 6dbb f80a ce3c f75f 3e3c
00000080: 3bed 1d3c 8139 be3c 1287 f839 3b69 dd3c
00000090: 6170 183d 6f7c 623c e1ed d53b bcc9 de3b
000000a0: f8a5 ec3c a756 b3bc 2b1d 863a c357 a93c
000000b0: 6742 5ebc 1acf 603a af2e f63c 40cf dfbc
000000c0: a4e4 db3c e18f d1bb 27b5 00bc 780d 4f3c
000000d0: fb27 91bc e212 833c f2e2 aabc 4f83 dfbc
000000e0: a11c 573c eca5 3d3c d989 41ba c5b9 1abd
000000f0: 7637 a9bc dd35 953b 0cdc 803c 7447 743c
00000100: 8fee f5bb 62a8 0bbc deb5 9b3c 05ef 9c3c
00000110: 45b9 da3c 8213 83bc 1041 413b c2bd 56bc
00000120: 1758 1f3c b840 2b3c f819 b03c 0574 e8ba
00000130: 5bc6 b9bc b7f1 7039 9ba5 8ebc 2b35 823c
00000140: 67f3 653c 75b9 c33c c148 97bc 35a5 783b
00000150: c60d 9dbc 4b28 1c3d 61fa f83b dfe0 b73c
00000160: 0a92 eebc 8b9b be3c f5fd b63c e816 a9bc
00000170: 606b f73b 0ad3 7f3c c552 d33c 6863 0cbc
00000180: 5781 c4bc fbd0 8bbb e57d c03c e12f 17bc
00000190: d2d6 493c 4edd 083d 61a4 eb3b 88e6 e7bc
000001a0: 1a38 fbbb 81cc bcbc 40a8 d038 02fb 8c3c
000001b0: 4739 c3ba 4013 9e3b d46b cdbc 291b 78bc
000001c0: 56d7 2f3c e580 aabb 527c 16bc e778 2f3c
000001d0: 7461 1a3c 0e24 e8bc 4139 4fbc 3408 c8bc
000001e0: 6e9a 21bb e84f 803c b54d 37bc dbba 923c
000001f0: 4fce ab3c 40d3 72bc a775 3fba 7031 0c3c
00000200: 2e96 97bc 9e3d e63c 7e06 b43c 8f48 ea3c
00000210: be4b 823b c783 f73a be61 15bc e77b f4bb
00000220: 6377 dd3c 2908 033c 5e78 a5bc cd3b 463c
00000230: 8533 403c 66e1 fe3c 747f f2bc 9015 01bd
00000240: ffa7 ab3c db02 44ba 0f16 6a3c 6572 bcbc
00000250: bce7 6abc 0090 d0bb 84c5 8fbb ba44 c6bc
00000260: 9b98 efbb dd04 cf3c 26de c43c 2584 f53c
00000270: c8e3 4c3b be32 8a3c 8003 81bc 1bfb 3c3c
00000280: 0327 c63c 9084 c73b ae13 93bc c78b 94bb
00000290: bc29 88bc 65aa 8bbc c7c9 703c 5fc4 88bb
000002a0: 885c 033d 7559 4bbc ad1a 3cba bece 85bc
000002b0: 37da ec3b ca9d 4fbb f23f bf3c 1f61 d8bc
000002c0: 5e0e bcbc 867f 89bc 7ca5 473b 0e86 4bbb
000002d0: ad2a ce3a 978b 013d dc8d 69bc 8211 ddbc
000002e0: 795b 82bc feb4 1a3d 3220 503b 026e f23b
000002f0: 8940 e6bc 2651 d63c 583b d4bc fc76 3cba
00000300: e63b cf3c 54ca 6e3c e77d aabc ce5c 803c
00000310: abee af3c f422 103d 0e80 a33c 8944 88bb
00000320: c94b fd3b 9cfc 0f3d 4af5 00bd c0b6 2bbc
00000330: d663 23bc c7c5 56bc a3ae b5bc 39b6 a6bc
00000340: eb4d 1b3d 74b6 e03c 5273 a53c 4dff 7f3c
00000350: 510c d43c 34eb f6bc ef0d b039 1c90 c13c
00000360: a3e7 e23b de28 f53c 3896 8a3b 5588 5c3c
00000370: ffa8 34ba 1ed6 f43c d590 7b3c fbf3 b5bc
00000380: fde6 bc3c fea6 d8bc 5381 85bc 1b22 73bc
00000390: 0616 80bc d9c3 3b3c 33b8 9ebb 813c cb3c
000003a0: 8267 0abd 5bd0 0cbd f7f3 c5bc 0271 a53c
000003b0: 962f 273c 0d49 a43b c665 1f3c 7a75 5bbc
000003c0: 4dc5 0dbd c9e6 51bb 30e4 063d 6f12 afba
000003d0: 4359 7dbc e779 d7bc 9ed4 6b3c 8bf5 02bd
000003e0: bb94 cbbc 285b cebb 6c92 2c3b dc43 b1bc
000003f0: 5b23 99bc acda b4ba 84e7 8e3b 085d b33c
-0.01287861 0.007985926 -0.023002548 0.022623247 0.017152103 0.031173049 -0.016054211 -0.009498222
0.015265847 0.01488462 -0.041871235 0.0132475775 0.028296912 0.024212854 0.004153638 -0.011318662
-0.025060054 0.031967044 0.01046581 -0.01800684 0.023606248 0.041187156 -0.0040305406 0.017455501
0.0097436495 0.031296365 -0.006517269 0.006994916 -0.018712929 -0.0036249135 0.025151715 0.0116195595
0.00963908 0.02322078 0.0004740288 0.027027717 0.037216548 0.013823613 0.0065286015 0.006798951
0.028887734 -0.021891905 0.0010232081 0.02067173 -0.013565636 0.00085757824 0.030051557 -0.027320504
0.026842423 -0.0063953255 -0.00785569 0.012637489 -0.01771926 0.016000215 -0.02086017 -0.027284293
0.013129384 0.011575203 -0.00073829066 -0.03777482 -0.020656329 0.00455354 0.015729927 0.014909614
-0.007505245 -0.008524032 0.01900762 0.019156942 0.026699672 -0.016000513 0.0029488243 -0.013106765
0.009725592 0.010452442 0.021496758 -0.0017734772 -0.022677591 0.0002297823 -0.017412951 0.015894493
0.014035082 0.023892144 -0.018467309 0.0037940268 -0.019171607 0.038124364 0.007598207 0.022446094
-0.029122371 0.023267528 0.022337893 -0.020640805 0.007550642 0.0156142805 0.025796304 -0.008568622
-0.023987455 -0.004266856 0.023497531 -0.009227724 0.012319284 0.033414178 0.0071912264 -0.028308168
-0.0076666 -0.023046734 9.949552e-05 0.017209534 -0.0014894389 0.004824072 -0.02507583 -0.015143194
0.010732492 -0.0052033537 -0.009184914 0.010709978 0.009422649 -0.028337505 -0.012647928 -0.024417974
-0.0024658698 0.015663102 -0.01118796 0.017911365 0.020972399 -0.014820874 -0.00073036033 0.008556709
-0.018504228 0.028105553 0.021975752 0.028599052 0.0039763143 0.0018883877 -0.009117542 -0.0074610594
0.027034467 0.007997551 -0.020198997 0.012099219 0.011731033 0.031113338 -0.02960179 -0.031514704
0.02095413 -0.0007477232 0.014287486 -0.023003766 -0.014337476 -0.0063648224 -0.0043875594 -0.024202693
-0.007311893 0.025270874 0.02403171 0.029970238 0.0031263698 0.016869899 -0.01574874 0.011534478
0.024188524 0.0060888007 -0.01795372 -0.0045332643 -0.016621463 -0.017049024 0.014696545 -0.0041738
0.032070667 -0.012411465 -0.0007175606 -0.016333934 0.0072281617 -0.0031679743 0.023345921 -0.026413498
-0.02295607 -0.01678444 0.0030463627 -0.0031055245 0.0015729271 0.031627264 -0.014255013 -0.026985887
-0.015912758 0.037770264 0.003175747 0.007398368 -0.028106945 0.026161741 -0.025907204 -0.0007189361
0.025297116 0.014574606 -0.020811988 0.015669253 0.02147611 0.035189584 0.019958522 -0.0041585607
0.0077299816 0.035153016 -0.031483926 -0.010480583 -0.009972533 -0.013108677 -0.022178 -0.020350562
0.037916105 0.02743075 0.02019659 0.015624833 0.02588478 -0.03014145 0.00033579717 0.023628287
0.006924586 0.029926714 0.0042293333 0.013460238 -0.00068916375 0.029887255 0.015354355 -0.022211066
0.023059363 -0.026446816 -0.016297018 -0.014839674 -0.015635502 0.011460268 -0.0048437356 0.024809124
-0.03379012 -0.03437839 -0.024164183 0.020195488 0.010204216 0.005013591 0.0097288545 -0.013394708
-0.03461199 -0.0032028428 0.03293246 -0.0013356934 -0.015463176 -0.026303245 0.014393954 -0.03197245
-0.024851194 -0.0062974878 0.0026332391 -0.021638803 -0.018693617 -0.001379808 0.004361095 0.021894947

bias f4 [64]
00000000: 64f1 c5bc 4215 e7bc 8623 be3c 5336 1dbc
00000010: 2219 893b 8e40 28bb e854 cbbb 5e02 513c
00000020: 69a7 06bd 8cef 6dbc 8c56 463a 4121 40bc
00000030: 9b4e c53c 84d0 783a 3d93 bfbc cfb8 4b3c
00000040: 313f 1ebc dae8 a83c fcec f5bb 0ca1 553d
00000050: 8a3e d73b 2f16 623d 7b4d 2c3d a12a 2e3b
00000060: 1388 163c bcd1 0fbd ccc6 413c 9ba4 34bc
00000070: c8fa 09bd 788b 46bd bb2c 753c 0228 143b
00000080: 43bc aebc dff0 b83c 2219 11bd 6ac3 da3c
00000090: d1a4 c8bc 221e 8d3d b030 40bb fcdd 9a3c
000000a0: c5cf c7bb b9af a23c 88b2 e2bc be5d 1b3d
000000b0: e61a 1e3c e565 9cbc 83eb 34bd 90b0 4fbc
000000c0: 1ee1 333d 81fd 173c 17ba 1e3b be1c 313c
000000d0: 03fa 76bc b5de ab3c dca6 d5ba c7c8 443d
000000e0: c93e 893c 8ed3 c4bb 759d 63bd d3ee c2bc
000000f0: 9334 f13c d2ae c63a e6be 2dbd e4c6 c73c
-0.024162956 -0.028208379 0.023210298 -0.009595471 0.0041839043 -0.0025673243 -0.00620519 0.012756912
-0.0328745 -0.014522444 0.0007565997 -0.011726678 0.024085334 0.00094915205 -0.023385638 0.0124341985
-0.009658621 0.020618845 -0.0075050574 0.05215554 0.0065687345 0.055196937 0.04206608 0.0026575702
0.009187716 -0.035112128 0.011827182 -0.011025573 -0.03368643 -0.04847285 0.014964278 0.0022606854
-0.021330005 0.022575794 -0.03542436 0.026704509 -0.024492653 0.06890513 -0.0029325895 0.018904679
-0.006097766 0.019859182 -0.027673021 0.037931196 0.009649968 -0.019091556 -0.044169914 -0.012676373
0.04391586 0.009276749 0.0024219805 0.010810075 -0.015074256 0.020980218 -0.0016300338 0.04804304
0.016753571 -0.0060066646 -0.055570085 -0.02379552 0.029444015 0.0015158302 -0.042418383 0.02438683

weight f4 [10, 64]
00000000: c72c eebd c830 8fbc f358 01bc dd37 f5bc
00000010: fcda c73d 2fdb a7bd 4379 113e 7b29 6a3d
00000020: 4a67 aa3d 8063 09be 5b0b 5fbd 7b20 8ebc
00000030: 2470 b13c d43b 813d bea5 adbc b3b9 87bd
00000040: c857 c33c 25a2 fbbd 4739 c53c dfa5 babd
00000050: 9284 d1bc 03f8 f4bd d0f3 24be c945 25bd
00000060: fade 1fbe d859 4fbd 3093 95bd e34a 57bd
00000070: a76f e0bd 5faf a73d 5437 eebc cb80 c1bd
00000080: bb7d 893d 7794 223e d80f e3bc 5fd7 25bd
00000090: b144 9c3c ede6 e2bd 250a aebd 6713 82bd
000000a0: de67 053d 68b7 2f3e 6cd4 01be a156 15be
000000b0: 63f8 8c3d 2937 e13d 55d3 233e add9 c23c
000000c0: 4ae4 01be 0a4c 2a3d 6e3f 21be 2383 c03d
000000d0: 1f99 a33d 7d1d f9bd a640 c53c 8198 f5bd
000000e0: 9f81 d53d 2792 36be 4752 f83d 3b66 1f3e
000000f0: 34a6 27be eb7e babd 5610 183e 619a 7dbd
00000100: 66fb 08be d9a0 ce3d d111 7b3e e347 953d
00000110: ff50 9abd 30f0 d63d 9bcf f8bb f4aa 49be
00000120: 5282 3f3e 7b30 1f3e e66f 53be cb91 1ebe
00000130: 18b7 48bd 2cda 393b 2470 d23d e36b 72bc
00000140: 1e30 093e 527e 36be 9f07 f93d a5e6 cc3d
00000150: ebe9 43be bfb3 b2bd 34cf 91bd 8923 823d
00000160: 0547 01be 0195 203d d515 c4bd d3b5 12bd
00000170: a0c8 dbbd 0597 85bc 6b92 f5bc bc7a f03d
00000180: 3820 063d f2f2 18bc e98a f63b 6733 113e
00000190: 1330 b43d 5b53 a9bd e1ed 513e 078c 98bc
000001a0: ca24 bd3d 347a aa3d 6bd5 203e d0a1 613d
000001b0: f6d2 a33d 37fa 2f3d 63ff 213e cf31 133e
000001c0: c84c 0bbe f9eb 1f3d 9399 453d 6e6b 273e
000001d0: 5c71 afbd fce6 373d 009f ecbd ad58 f1bd
000001e0: 56aa be3d c502 8ebd a79c c3bd 227c 613d
000001f0: d4e0 8ebe c642 1d3d b8a4 7abd 933f 2d3e
00000200: 3c32 cc3d bc24 cd3d 879e 19bd c448 b93d
00000210: fd6b 2e3d 3401 23be 6188 ad3d ca2d cc3c
00000220: 38c8 9cbd f2ed cbbc 2fb9 a1bd f85d 333e
00000230: fd99 9b3b 115b a5bd 558e 47bd 3b40 c03c
00000240: b40f bbbd 6985 a43d b76a a53d e845 263e
00000250: d2eb 963d 6b48 b8bd ec1d cbbd 4533 c43d
00000260: b995 98bd e6a6 1dbc 87c7 2fbb dab5 debd
00000270: b53e ae3d 5560 fa3d e820 ffbd 980a 0fbd
00000280: b794 6cbd 7980 03be 68ab 04be 7f44 0dbe
00000290: aefa 07ba a2e8 89bd a0f7 fe3c 0a53 233e
000002a0: 2fed f7bd 0096 413e 2807 85bc 2c66 07be
000002b0: 55a9 13bd 41ba e3bd d18c 7abd d739 c4bd
000002c0: 418d 42bd 308a 88bd 89c1 053e 997a e5bd
000002d0: b489 07be 231c d8bd cf62 303e 8c26 b53d
000002e0: c498 8bbc 89a1 aebd 82dd 723d 665e 9e3d
000002f0: 5480 f63d 7fe7 013e 5350 463d 7671 db3d
00000300: dcbe 333c 1440 033c a59a 093c 3dd7 b5bd
00000310: a67d e3bc 4366 99bd b68e 18be 3237 dc3d
00000320: f2b7 e53d 49e2 58bd 7c87 3f3d e711 cd3d
00000330: 700f 043e aca5 013c f563 d2bd a29e 943d
00000340: 1d4f e8bc 5f60 193e 9494 b6bd a091 073e
00000350: 744c 40bd 899c 0c3e 7eb7 2f3e 1628 b1bd
00000360: 5296 523e 4c5c c73d 5fd2 21be f833 3e3e
00000370: 8c14 d1bc 1e65 b8bd 97ed ebbd 4f41 3cbc
00000380: dbd3 7bbd dfdd 873d 3e51 89bd 0b92 2abd
00000390: b5a6 d7bd 3aa9 b1ba 5176 da3c 1a1f 1ebe
000003a0: 8b28 b9bd 4159 7a3d ac94 0fbd 9958 8ebd
000003b0: 20f7 f8bd 9e99 ae3d 1d96 e6bd 37e2 70bb
000003c0: d836 afbd 57fa 02be 1794 353e 5de1 1bbd
000003d0: 134d 9dbd ab30 ecbd 9e13 00be 88b8 083e
000003e0: acba 3e3d d14e 63bd 681c fdbd c29b 3ebd
000003f0: 99d7 0b3e eb1b 35bc 5c25 463d f23b ed3d
-0.11629634 -0.017479315 -0.007894742 -0.029933864 0.09758565 -0.08196103 0.14206414 0.057168465
0.08320482 -0.13416862 -0.05445419 -0.017349472 0.021659918 0.063102394 -0.021197196 -0.06627216
0.023845568 -0.12286786 0.024075164 -0.09113669 -0.02557591 -0.11961367 -0.16108632 -0.040349755
-0.15612403 -0.05062279 -0.073034644 -0.052561652 -0.10958796 0.08187746 -0.029079117 -0.094483934
0.06713434 0.15876947 -0.027717516 -0.040488597 0.019075723 -0.11079202 -0.08498029 -0.06351357
0.03256976 0.17159808 -0.12678689 -0.14583828 0.068833135 0.10996849 0.15998586 0.023785437
-0.12684742 0.041576423 -0.15746853 0.09400012 0.0798819 -0.121638276 0.024078678 -0.119919784
0.10425114 -0.1782919 0.12125068 0.15566342 -0.16371995 -0.09106239 0.14849982 -0.061914805
-0.13377151 0.10089273 0.24518515 0.07289102 -0.0753498 0.10495031 -0.007593108 -0.1969412
0.18702057 0.15545838 -0.20648155 -0.15485303 -0.049002737 0.00283588 0.102752954 -0.01479623
0.13397262 -0.17821625 0.12159657 0.100049295 -0.19132201 -0.0872569 -0.07119599 0.06354434
-0.12624748 0.0392046 -0.09574477 -0.035817932 -0.107316256 -0.016307363 -0.029977044 0.1174216
0.03274557 -0.009335266 0.0075238836 0.14179765 0.08798232 -0.08267852 0.205009 -0.018621458
0.092355326 0.0832409 0.15706412 0.055085957 0.07999222 0.042963233 0.15820079 0.14374469
-0.13603508 0.0390434 0.048242163 0.16349575 -0.085665435 0.04489802 -0.11553764 -0.11784492
0.09309833 -0.06934122 -0.095513634 0.055050023 -0.27905905 0.03839376 -0.061192244 0.16918783
0.09970519 0.10016772 -0.0375047 0.09047082 0.042583454 -0.15918428 0.08473278 0.024924178
-0.07655376 -0.024893735 -0.07896649 0.17516315 0.0047485814 -0.0807401 -0.048719723 0.023468127
-0.091338545 0.080332585 0.08076995 0.16237605 0.07369198 -0.08998188 -0.099178165 0.095800914
-0.07450432 -0.009622311 -0.0026821808 -0.10874529 0.08508054 0.12225405 -0.12457448 -0.034922212
-0.057759013 -0.12841977 -0.12956011 -0.1379566 -0.00051871955 -0.06733824 0.031123936 0.15949646
-0.12105786 0.18904877 -0.016238764 -0.13222569 -0.03605016 -0.111195095 -0.06116945 -0.095813446
-0.04749799 -0.06666982 0.13062109 -0.11205024 -0.13236123 -0.10552242 0.17225192 0.08845243
-0.017040618 -0.08526904 0.059293278 0.07732849 0.120361954 0.12685965 0.048416447 0.10715
0.010970797 0.008010883 0.008398687 -0.08878944 -0.027769875 -0.07490208 -0.1489819 0.10752715
0.112167254 -0.052950177 0.046760067 0.1001318 0.12896514 0.007913034 -0.102729715 0.07256819
-0.028358037 0.14978169 -0.08915058 0.13239145 -0.04694791 0.13731588 0.1715984 -0.08650224
0.20565155 0.09734401 -0.15802906 0.18574512 -0.025522493 -0.090036616 -0.11519926 -0.01149018
-0.061481338 0.066341154 -0.06704949 -0.041643184 -0.10529844 -0.0013554462 0.026667746 -0.15441552
-0.09040936 0.061120275 -0.035053894 -0.069504924 -0.1215651 0.08525394 -0.112591006 -0.0036755928
-0.085553825 -0.1279081 0.17732273 -0.03805672 -0.07680716 -0.1153272 -0.12507483 0.13351643
0.046564743 -0.055495087 -0.12358934 -0.04653526 0.13656463 -0.011054019 0.048375472 0.11583699

bias f4 [10]
00000000: 744d f1bc 0cc1 9a3d ac26 f53c 65ef 70bd
00000010: e59f fb3d d54d 4dbd f491 49bc e370 c3bd
00000020: 3971 8ebd 1e82 863c
-0.029455878 0.07556352 0.029925667 -0.058822054 0.12286357 -0.050123055 -0.012302864 -0.09543016
-0.06955189 0.016419467
