test_1.pth (torch, 587207 bytes, 10 tensors)

weight f4 [32, 3, 5, 5]
000000 20 9b ac 3c 93 32 55 3d 7d 77 17 bd 05 79 1b 3d
       0.021070063 0.052050184 -0.036979187 0.03795721
000010 c9 10 e2 3d 93 a7 4d bd c9 bc b1 bc b3 af 67 bc
       0.11038358 -0.05020864 -0.021696465 -0.014141011
000020 db db 03 3d f0 78 b5 bd 22 39 79 3b be 3b b8 3d
       0.032192092 -0.088609576 0.0038028439 0.0899577
000030 03 0d a2 3d fb dd f9 3d 05 65 0e bd 20 6a 2f bc
       0.07912638 0.122005425 -0.03476431 -0.0107064545
000040 d0 73 03 bd c2 4a a6 bb 91 37 5f 3d 38 6c 46 3d
       -0.03209287 -0.00507483 0.05449635 0.04844305
000050 e6 a7 b9 bc 49 aa e2 3d 20 93 08 3e 9c 7a b5 3d
       -0.022663068 0.110676356 0.13337374 0.088612765
000060 d7 3b af bd c0 7e d7 bd 12 d5 39 bd e8 d4 de 3d
       -0.085563354 -0.105222225 -0.045369215 0.108804524
000070 a8 25 07 3d 7c 04 10 3e 15 bc 22 3d 8b cc 8b bc
       0.032994896 0.1406421 0.03973015 -0.017065307
000080 40 74 cf 3d c8 18 b7 3d 9b 18 1b 3e 6c 58 54 bc
       0.10129595 0.089402735 0.15146105 -0.012960535
000090 eb 81 09 3e d9 ff 89 3c 71 01 e7 bb bd f6 a5 3b
       0.13428466 0.01684563 -0.0070497324 0.005064814
0000a0 ea 7a 9d 3d e1 f3 a1 3d 9e ad ea 3d a9 7a 74 3d
       0.076894596 0.07907844 0.11458896 0.05968729
0000b0 ff 1f 9b 3d 6e d0 3b bd 07 4b 84 3d 75 d7 18 3e
       0.07574462 -0.04585307 0.06459623 0.1492594
0000c0 1b 96 6a 3d 3a 3a dd bc 06 db 2e be 9a 0f 1a be
       0.057272058 -0.027005304 -0.17075738 -0.15045014
0000d0 8d 4f 94 bd dd cb 41 bb aa 29 22 be 97 86 e8 bd
       -0.072417356 -0.0029570975 -0.15836206 -0.11353796
0000e0 83 b4 0a 3c 08 a4 9e bd b9 ba 11 be c8 6f 19 be
       0.008465889 -0.0774613 -0.14231385 -0.14984047
0000f0 16 5c 5e bd 27 eb 27 be 4f d8 1c be 4f 81 00 bd
       -0.05428704 -0.16398297 -0.1531689 -0.03137332
000100 59 63 fb 3c dc 4f cb bd fa 08 1c be e8 51 6d 3d
       0.030687021 -0.09927341 -0.152378 0.05793944
000110 9e 06 1e be c4 fb 10 bb bb 6a 75 bb 49 3b ff bd
       -0.15432212 -0.002212272 -0.003744765 -0.124624796
000120 e7 45 3f bd 3b ff c2 bd a3 54 4b 3c ff 0d ef bd
       -0.046697523 -0.095213376 0.012410316 -0.116725914
000130 a0 ed bf bc 20 7d b1 3d ec a6 5a 3b 15 ee ad bd
       -0.023428738 0.08666444 0.0033363653 -0.08492676
000140 4f 7e 60 bd 7c 5e 23 bc 90 cf a2 bd e4 b1 fb bc
       -0.054807957 -0.009971257 -0.07949746 -0.030724473
000150 1f 42 9e bd 6c 8b b7 3d fc e7 7c bd 96 9a a6 bd
       -0.07727455 0.089621395 -0.061744675 -0.08134954
000160 c7 2b b1 3d 07 b7 d1 bd 5d 75 c1 bd 96 49 a7 3b
       0.08650928 -0.10239988 -0.094462134 0.0051052077
000170 83 2e b7 bd 60 dc ae bd f8 d1 44 3d ae e0 cd 3d
       -0.08944418 -0.08538127 0.048051804 0.1005262
000180 6a 58 e0 bd 7f 8e f3 3d 11 1f d0 3c 9d 4e bd bd
       -0.10954364 0.11892413 0.025405439 -0.0924351
000190 51 38 d2 bd 9b 63 8b bc 99 6e 08 bc f8 05 da bc
       -0.10264648 -0.017015269 -0.00832715 -0.026614174
0001a0 b2 7a 84 3c b6 76 ce 3d 0b d5 f6 bd 11 31 85 bd
       0.016171787 0.10081236 -0.120523535 -0.06503499
0001b0 fc ed 0a bd b7 85 91 bb 5a ed b5 3d 46 8c 0a bd
       -0.033918366 -0.004440989 0.08883162 -0.03382518
0001c0 4c 15 29 3d 06 39 93 3d cf f2 b1 bc 5e a6 e5 3d
       0.041280076 0.07188611 -0.021722225 0.11213373
0001d0 58 07 ec 3d d5 94 3d 3d 3c 1d c9 3d ea 24 6e 3d
       0.11524838 0.046284515 0.09820029 0.058140673
0001e0 cc b4 f0 3d 91 99 ca 3d b2 b4 7c bd b8 27 7b bc
       0.11753234 0.09892572 -0.061695762 -0.015329294
0001f0 3c 70 bd 3d 0d c7 e1 bd b6 55 ca bd 32 ee d0 bd
       0.09249923 -0.11024294 -0.09879629 -0.10201682
000200 65 a7 d1 bb ff 24 88 3c 7e da 01 be 9b 49 b5 3c
       -0.006398129 0.016619204 -0.12681004 0.022129824
000210 9b 3a 78 3d 23 db ce bd d6 33 b4 3c e1 5f d4 bc
       0.060602766 -0.10100391 0.021997374 -0.025924625
000220 f7 0a bf bd bd a0 33 3d 56 69 d6 3c da 40 5f 3d
       -0.09328263 0.043854464 0.026173275 0.054505207
000230 ab 4c 84 bd a1 cd 66 bd d3 49 1f bc 31 16 dd bd
       -0.06459936 -0.056348447 -0.009722191 -0.10795248
000240 3d fb 85 3d d5 59 95 3d 50 28 52 3d 95 b0 bb 3d
       0.065420605 0.07292525 0.051307976 0.0916454
000250 b1 5c d1 3d ad c3 fa 3d 05 9e b7 bd 40 32 45 bd
       0.102227576 0.122443534 -0.08965687 -0.048143625
000260 93 dc c8 3c 5f e7 b8 bd 2d 68 75 bd 0b 47 d6 bc
       0.02451924 -0.090285055 -0.059913803 -0.026156923
000270 8d 0a c6 3d dc d0 43 bd b6 0e 6f 3d d3 cc 9a bc
       0.09669981 -0.047806606 0.05836364 -0.018896496
000280 98 13 14 bd a9 08 57 bd 89 0e b7 bd d2 d1 c3 3c
       -0.0361515 -0.052498493 -0.08938319 0.023903761
000290 03 cd 71 bc 79 63 c7 3d a9 34 8a 3d 1d b8 22 3d
       -0.014758351 0.0973577 0.067483254 0.039726365
0002a0 a9 41 c6 3b 6f 1e f9 bc 81 14 2e 3d 66 7b b4 bd
       0.006050308 -0.03041002 0.042500023 -0.08812599
0002b0 98 a4 a7 3d c1 e6 48 bc e5 e4 a7 3c 43 ed e4 bd
       0.08185691 -0.012262047 0.020494888 -0.111780666
0002c0 e0 82 f8 bc 35 72 20 bd ff 63 3f 3c 8e f6 74 3c
       -0.030335844 -0.039171416 0.011681556 0.014951361
0002d0 93 47 ea 3d 2e b5 93 bd ff dc 3c 3d b4 a3 ec 3c
       0.11439433 -0.07212292 0.046109196 0.028886653
0002e0 85 34 c5 3d 52 35 0c 3d 4b 16 37 bd fa 89 de 3d
       0.09629158 0.034230538 -0.044698995 0.10866161
0002f0 be 14 12 3d 6d 6b 87 bd 06 61 c4 3d b6 d1 6a bd
       0.035664313 -0.06612287 0.09588818 -0.057328902
000300 0a 11 ec 3d e1 eb ba 3d 63 d6 ad 3d 4b 54 dc 3d
       0.115266874 0.091270216 0.08488157 0.10758265
000310 a3 30 dd 3d 3d 60 52 3d 5f 67 4e bd 1f 43 84 3c
       0.10800292 0.05136131 -0.05039155 0.016145287
000320 24 b1 32 bd bc 00 d6 3d ec 44 1c 3d 38 d2 fc bb
       -0.043625966 0.10449359 0.038151667 -0.0077154897
000330 cb 05 ab bd 8b b6 ee 3d 18 b1 65 bd 03 15 bb bd
       -0.08350714 0.11655911 -0.056077093 -0.09134867
000340 11 83 85 bc 35 fa 16 bd f8 c9 76 3d 22 53 05 bd
       -0.016297849 -0.03685971 0.060251206 -0.032549985
000350 fd 08 9b bd 38 e4 f8 3d 46 41 b7 bd 8a fe c1 bb
       -0.07570074 0.12152904 -0.08947997 -0.005920236
000360 3f 3f 8b 3c ad 33 e2 bc a1 b9 dc 3d 08 6b 15 3d
       0.016997932 -0.027612532 0.107775934 0.036479026
000370 29 f7 f0 3d 81 58 8e bd 9e be bf bc 9a 46 95 bd
       0.11765892 -0.069504745 -0.023406323 -0.07288857
000380 f6 36 1c 3d 6b f2 d3 3d 06 3e 25 3d b4 29 1e 3d
       0.038138352 0.10348972 0.040342353 0.03861399
000390 85 44 b4 bb 2d 9f 98 bd 3a 68 5f 3d d2 e3 d4 3c
       -0.005501332 -0.07452235 0.054542758 0.02598754
0003a0 c5 20 ec 3d 49 b5 75 bd 21 a0 9b 3d 75 a0 85 3d
       0.11529688 -0.05998734 0.075989015 0.065247454
0003b0 6c d4 39 3b a8 6f 9c bd 60 bd 0a bd c5 dc a7 3d
       0.0028355373 -0.07638484 -0.03387201 0.08196405
0003c0 62 19 1c 3a d9 31 cb 3d 3e f6 ec bd f5 80 c4 bd
       0.000595471 0.09921617 -0.115704045 -0.09594909
0003d0 02 c8 f7 bd d5 e3 a7 3c 6a e0 9c bd 71 67 c4 3d
       -0.12098695 0.020494381 -0.07659991 0.095900424
0003e0 a0 88 8a 3d dc 1e a4 bc 32 3d cc 3d c0 39 cb bd
       0.067643404 -0.020034246 0.099726096 -0.09923124
0003f0 58 42 c3 3b ae 60 dc 3d 72 c2 ce 3d a5 bc 15 bd
       0.0059588365 0.10760628 0.10095681 -0.03655686

bias f4 [32]
000000 19 00 31 3e 6a 9d c9 bd eb b3 f7 3c a3 ae 9c bd
       0.17285194 -0.098444775 0.030237159 -0.07650497
000010 ce 99 21 bd 2c 6f 55 bd e5 87 9e bd 8a f0 a0 bd
       -0.03945332 -0.052107975 -0.077407636 -0.07858379
000020 65 95 e5 3b 84 7f e3 3d c8 72 f9 3d 23 6b 97 bd
       0.0070063346 0.11108306 0.12180096 -0.073934816
000030 5d f0 7b 3d 52 0e a3 bd 10 9e 82 3d f8 50 a8 3c
       0.061508525 -0.07961716 0.06377804 0.020546421
000040 c4 9e ad bd 4f d1 d0 3d 1d 79 41 3e 4a 66 32 3d
       -0.08477548 0.101961724 0.18893857 0.04355458
000050 4f f8 49 3c 88 73 73 3d 22 6a de bd 84 64 10 3c
       0.012327268 0.05943635 -0.10860087 0.008813027
000060 b7 c8 97 bb 4a 5a a9 bc 52 f3 15 3e 94 3d d4 bc
       -0.0046320814 -0.020672936 0.146436 -0.025908269
000070 54 08 fb bd 5f e5 26 be 93 4d f1 bd 91 3d 6c bc
       -0.12257448 -0.16298436 -0.11782374 -0.014418975

weight f4 [32, 32, 5, 5]
000000 83 94 43 bc 98 21 4e bc f6 99 9c 3c 33 65 5f bb
       -0.011937263 -0.012581252 0.019116383 -0.003408742
000010 b5 72 99 3c ce c6 a5 bb 7a 68 e7 3a 58 f8 f1 3b
       0.018731454 -0.0050590998 0.0017655038 0.007384341
000020 4c c7 89 bc 1e 83 ab bb 60 b5 1d 3d ea 95 04 3d
       -0.016818665 -0.0052341362 0.03850305 0.03236953
000030 b2 60 62 bb 44 96 96 bc f0 96 eb bb 3f fe 13 3d
       -0.0034542498 -0.0183822 -0.007189624 0.03613114
000040 d8 55 f8 bc bb 34 c8 39 f7 e6 0a 3c 42 7f 54 3c
       -0.030314371 0.0003818626 0.008477918 0.012969794
000050 b9 f4 83 bc 66 31 43 3c fa dd 7e 3b b0 be f7 3b
       -0.016107904 0.011913633 0.0038889633 0.0075605735
000060 a9 d9 82 3c 25 f4 8e 3c 0a 64 a9 bc b3 04 9a bb
       0.01597293 0.017450402 -0.020677585 -0.004700267
000070 1c 15 1f 3d a8 ba 8c bc fd 4f d8 3c 40 db c1 3b
       0.03883849 -0.017178848 0.026405329 0.005916029
000080 7f 5c b6 3c b3 4d 1f 3d ea 0a 93 3c 4e 31 c0 bc
       0.022260902 0.03889246 0.01794954 -0.02346101
000090 b8 2e cc bc c5 fb d5 bc 27 83 01 bd a9 e4 b2 bb
       -0.024924621 -0.02612103 -0.031619217 -0.0054593873
0000a0 4f e7 58 3c 19 6c c6 bc 9e 40 ee 3c 70 8e 85 bc
       0.013238742 -0.024221467 0.029083546 -0.016303271
0000b0 b9 ea f7 bc 1c cb ed 3c 85 30 5a 3c b2 fa ce 3c
       -0.030263292 0.029027514 0.013317232 0.025266025
0000c0 67 ff 10 bd 23 15 f2 bc 5d 76 89 3c 4e 67 09 bd
       -0.03539982 -0.029551094 0.016780073 -0.033545785
0000d0 84 01 4e 3c 98 c9 83 3c 45 c6 f7 3c 2f 7b 8b bc
       0.012573604 0.016087338 0.03024591 -0.017026512
0000e0 88 20 1d 3d d3 97 88 bc c6 27 f0 bb a2 14 ba bb
       0.038361102 -0.016673958 -0.00732896 -0.005678729
0000f0 f4 c8 07 3d 69 6f bd 3c 5f 2a 11 3d e4 1a d0 bc
       0.03315063 0.023124414 0.0354408 -0.025403447
000100 82 48 00 3d 8e 28 6f 3a fe 10 f0 bc 8a f2 db 3a
       0.03131915 0.00091231696 -0.029304978 0.0016780656
000110 2c 5b d7 bc 11 35 be 3c 38 2e 2c 3b 1b 42 0f bc
       -0.026288591 0.023218663 0.0026272666 -0.008743788
000120 1d 9d 75 3c 01 81 f5 3b 12 f4 b9 bb 08 21 aa bb
       0.014991072 0.007492185 -0.0056748474 -0.005191926
000130 e9 c6 30 bb 8d b3 de 3c 8f e2 b9 bc 75 48 78 3c
       -0.0026974028 0.027185226 -0.02269104 0.015153994
000140 19 fd b5 3c 36 59 02 3c d6 6e 95 bc c2 a6 c9 3c
       0.022215413 0.00795584 -0.018241327 0.02461565
000150 a1 c2 9c 3c 68 13 32 3c 5b 87 34 bc 5f b5 07 3d
       0.019135775 0.010868885 -0.011018599 0.033131953
000160 a5 87 ef bc 60 aa a8 bc da 8a bd 3c 63 12 07 3d
       -0.029239485 -0.020589054 0.023137499 0.03297652
000170 f5 3c 54 ba 9b fb 22 bc fd 05 f5 3c 1e c4 06 bc
       -0.00080962415 -0.009947683 0.029910082 -0.008225469
000180 26 db ed 3c 7a 5c 61 3c 29 84 bd 3c 1e 8b 81 bc
       0.029035162 0.013754958 0.023134308 -0.015813407
000190 ce 29 1e 3d 9f 9f 02 3d 84 8d 83 bc 28 6b f7 bc
       0.038614087 0.031890508 -0.01605869 -0.030202463
0001a0 7e 01 8c 3c 89 a3 10 3c d7 f6 20 3d df f6 63 bb
       0.017090555 0.008828052 0.039297905 -0.0034784598
0001b0 bc 0d e8 bb 0b 2f 72 3a 00 a6 ff 3c bf 94 0b bd
       -0.0070817154 0.00092385773 0.031207085 -0.034077402
0001c0 a3 d6 3d 3c 1f 92 a3 3c ee fc 35 39 9d f1 b2 3c
       0.011586818 0.019967137 0.00017355729 0.021843726
0001d0 0e e8 ce 3b d9 34 5a 3c 29 7a fb 3c 42 0d 04 ba
       0.006314284 0.013318264 0.030697899 -0.0005037376
0001e0 95 9d 4d 3c ee 2e 6c bc 43 2b 99 3c 1a 87 8e 3c
       0.0125497775 -0.014415486 0.018697387 0.017398406
0001f0 7f 1f 71 3b 2e d6 e1 bb ce 32 23 bc 8a 35 1b 3c
       0.0036792455 -0.0068919873 -0.009960843 0.009473214
000200 8b 62 84 bc 9b 96 2c 3c c8 e7 78 3b f8 5c 08 3d
       -0.01616027 0.010533954 0.003797995 0.033291787
000210 c0 5a 09 3d ca 6a e4 3c 87 7a 14 3d a9 f4 c2 3b
       0.03353381 0.027882952 0.036249664 0.005949576
000220 51 88 e0 bc 6b 00 11 3d 35 f8 82 bc 52 0b 9a 3c
       -0.02740875 0.03540079 -0.015987495 0.018804226
000230 aa 6b 6f bb 07 41 1d bc 73 be ac bc bd 1e 1c 3d
       -0.0036532679 -0.009598023 -0.021086907 0.03811525
000240 f9 40 b4 3c 88 55 4e 3c e6 38 a3 3c 27 b6 a8 bc
       0.022003638 0.012593634 0.019924592 -0.02059467
000250 f6 66 11 3d ba 24 0b 3d 25 d1 ad 3c 0c 36 fc bc
       0.03549858 0.033970572 0.021217892 -0.03078749
000260 f1 03 d0 bb 49 89 f9 bb cb 66 dc 3b 8b 1b 10 3d
       -0.006348126 -0.0076152426 0.006726121 0.035182517
000270 e6 39 97 bb 42 86 85 bc 08 5d b3 bc 0b 3d 86 bc
       -0.0046150563 -0.01629937 -0.021894947 -0.01638653
000280 28 cf 1e 3d 77 6a fa 3b 8a 80 cc 3b 74 b9 0d 3c
       0.03877178 0.007642086 0.006240909 0.0086501725
000290 8b 26 d5 3c 95 a2 b3 bb ea 25 02 3d fd 64 b0 3c
       0.026019355 -0.005482028 0.03177444 0.02153253
0002a0 64 71 db bc 1c 7a dc 3b dc 9a af 3c 1e ae 9c 3c
       -0.026787467 0.0067284238 0.021436147 0.019125994
0002b0 46 75 0d 3d 21 1e de bc d7 44 b1 3c 85 c4 0e 3d
       0.03453567 -0.027113976 0.02163927 0.034855384
0002c0 62 77 fc bc b6 a3 15 3d a8 2a 35 bc 53 44 05 3d
       -0.030818645 0.03653308 -0.011057533 0.032535862
0002d0 eb 5e 08 3d e8 a5 86 bb c2 54 b8 3c 30 e0 7d 3c
       0.033293646 -0.004109133 0.022501353 0.015495345
0002e0 1a 1a a1 3c 98 3a b1 3c d6 36 56 bc ee c3 50 3c
       0.019665767 0.021634385 -0.013074597 0.012742026
0002f0 86 66 69 3c d8 90 cf bc 3c 17 f4 3c 75 de 44 bc
       0.014245635 -0.025337622 0.029796235 -0.0120159285
000300 4c 17 46 bb 02 02 fd 3b 6b 1e f0 bc 85 37 07 3d
       -0.0030226288 0.0077211866 -0.02931138 0.033011932
000310 1a bc 6f bc 06 f3 ae 3c 6c 9f 92 bc 6a f7 3e 3c
       -0.014632249 0.021356117 -0.017898284 0.011655668
000320 b9 f0 a0 3c 89 60 86 3c a7 44 10 3c d2 42 45 bc
       0.019646036 0.016403453 0.0088054305 -0.012039857
000330 50 50 53 ba 28 c2 b7 b9 e8 49 8f 3c 93 8c f8 bc
       -0.0008060979 -0.00035049138 0.017491296 -0.030340469
000340 37 e1 b9 bb 34 94 ad 3c 2e b9 03 bc e4 62 21 3d
       -0.0056725997 0.021188833 -0.008039756 0.03940095
000350 53 0a 42 bc b8 a0 c1 3c ff 24 e1 3c 6c 3f 5b 3c
       -0.011843282 0.023636207 0.027483461 0.01338182
000360 fb 48 5e 3a b8 45 ad bc df 6f f2 39 74 fc b9 bc
       0.0008479503 -0.021151409 0.00046241187 -0.022703387
000370 1f 5b 36 3d 1f a3 28 3d f7 d5 83 3c c5 71 82 bc
       0.044520494 0.04117119 0.016093237 -0.01592339
000380 cc 74 d3 bc d9 5b b1 3c 9f 85 f3 bb 73 aa 86 bc
       -0.025812529 0.021650242 -0.0074317004 -0.016438698
000390 6a 8d a4 3c a1 42 dd bb 97 bc 8b bc df aa fd bb
       0.020086963 -0.0067523276 -0.0170577 -0.0077413167
0003a0 a6 c7 c9 bb 8d 55 92 3c af 40 5f 3a 73 a4 cd bc
       -0.006157833 0.01786306 0.00085164135 -0.02510283
0003b0 49 b2 24 3d 9f d4 a1 bc 25 85 63 3c 70 88 c2 3c
       0.04020909 -0.019754706 0.013886725 0.0237467
0003c0 fc b1 05 3c c3 4b 44 3c ca 74 57 bc 6b b9 e1 bc
       0.008160111 0.011980954 -0.013150403 -0.027554234
0003d0 fc 78 f2 3c 98 5e d8 3c 74 47 28 3d 1e 64 26 3d
       0.029598705 0.026412293 0.041083768 0.040622823
0003e0 80 e7 02 3c 43 3f 98 3c 3a a5 54 bc 9a 09 d1 bc
       0.007989764 0.018584853 -0.012978846 -0.025517274
0003f0 6b 19 1c 3d dc 3b 86 ba 40 6c 9c bc 2e 8b b4 3c
       0.038110178 -0.0010241228 -0.019094586 0.022039022

bias f4 [32]
000000 22 3e 14 bc 98 24 1a bd 85 36 70 bc 5d 29 0e 3d
       -0.009048017 -0.037632555 -0.014661436 0.034707416
000010 5c d9 c1 bc 82 e4 4d 3b 02 04 bc bc 8e bc 79 bd
       -0.023663215 0.003141672 -0.02295113 -0.060970835
000020 4c e5 6c 3c 30 ac 66 bc ce 8b 39 bc fe f6 be bc
       0.0144589655 -0.014079139 -0.011324836 -0.023311134
000030 35 d4 74 bc 48 27 47 bd 3f 2a 1c bd 27 cf e2 3c
       -0.014943172 -0.048621446 -0.038126227 0.027686669
000040 44 f8 0f bd 9c ba 88 bc cb df a1 bc 79 29 f0 3b
       -0.035148874 -0.016690545 -0.019760033 0.0073291627
000050 f1 33 0c 3d 6a 65 1c bc 2f 25 0c bd 7a b7 51 3c
       0.034229223 -0.009545663 -0.03421515 0.012800092
000060 79 9f 9f bc df 38 b3 bc ab ae 45 3b da ad a8 bc
       -0.019485222 -0.021877704 0.0030163925 -0.020590711
000070 ff 84 05 bd 57 f1 90 bc 09 f9 3f bd a3 7e d1 3c
       -0.032597538 -0.017693205 -0.046868358 0.02557308

weight f4 [64, 32, 5, 5]
000000 16 f1 65 3c d4 be 8b 3c bb 1d 85 3c c8 3f d0 3c
       0.01403453 0.017058767 0.016249528 0.025421038
000010 a8 e5 b6 bc a8 ed 3c 3c 7d 1a 05 3d e6 da 24 3c
       -0.022326306 0.011531271 0.032495964 0.010061955
000020 db 4d 08 3d cf 86 c0 3c 1a cd 67 3a 63 1e fe bb
       0.033277374 0.023501782 0.0008842513 -0.007755087
000030 35 eb 14 3d 58 85 8e b9 20 16 ad bb f8 79 cc 3c
       0.036357123 -0.000271837 -0.0052821785 0.024960503
000040 c0 99 c9 bc 1f 45 39 3c 3a 5f c3 3c 21 d1 f6 3b
       -0.024609447 0.011307984 0.023849119 0.0075322543
000050 63 bb b2 bc 1d ee 03 bd 66 86 77 3c 55 8a 48 bc
       -0.021817869 -0.032209504 0.015107727 -0.012240012
000060 39 56 2b 3c bf d8 aa 3c aa e4 a5 bc 0f a9 98 3b
       0.010457569 0.020855306 -0.020250637 0.004658825
000070 47 05 c0 3c c9 82 b6 bb 4d 9d 0f 3d 1f ca cd bc
       0.023440016 -0.00556979 0.035062123 -0.025120793
000080 5a 05 06 bb 33 0f f5 bc 8e d6 c8 bc 91 58 03 bd
       -0.0020449967 -0.029914474 -0.02451637 -0.032066885
000090 53 f9 20 3c d6 e8 bc 3c 49 89 ae 3c b4 84 97 bb
       0.0098250685 0.023060244 0.021305697 -0.0046239737
0000a0 c5 71 c5 3c 88 4e f5 3c ee c3 f0 bc 58 76 f2 bc
       0.024102101 0.029944673 -0.029390302 -0.029597446
0000b0 22 38 05 3d 25 9d 2a bc e8 20 da bc d7 f4 0f 3d
       0.032524236 -0.010413443 -0.026627019 0.035145607
0000c0 eb 7e 7c bb 72 ad fd 3c 4e 75 02 bb 77 37 a6 bc
       -0.0038527797 0.030966494 -0.0019906345 -0.02029012
0000d0 da d8 db 3c 14 41 c6 39 94 ef 8a bc 50 f5 e7 3c
       0.026836801 0.0003781399 -0.016959943 0.028315216
0000e0 d8 f8 e1 bc c3 7b ed 3c 05 0b 16 3c 92 16 d9 bb
       -0.027584478 0.028989678 0.009157901 -0.006625005
0000f0 18 7a b5 bc fd fb 38 bc 8c 8e 44 3b ca 04 dc 3c
       -0.022152945 -0.011290547 0.002999219 0.026857752
000100 17 d2 63 bc e1 d2 8d 3c c3 c4 d4 3c 45 d0 fe bc
       -0.01390507 0.017312469 0.02597273 -0.03110517
000110 c2 2d 76 3b 1e aa 84 b9 b2 10 09 bd 23 28 85 bc
       0.0037563895 -0.0002530375 -0.033463188 -0.01625449
000120 c7 8f a4 bc 2d 43 5c 3b 23 74 c0 bc fc 69 1d bc
       -0.02008809 0.0033609376 -0.023492878 -0.009607788
000130 80 d8 75 ba c9 89 27 bc 5b f0 01 bd 0e 58 c9 3a
       -0.00093782693 -0.010225722 -0.03172336 0.0015361325
000140 3c 8f e0 3c 56 1a 1a b9 a5 26 5d bc 7f 89 6e bc
       0.02741205 -0.00014696395 -0.013497983 -0.014559149
000150 65 d3 0f 3c 2b 3d 05 bd 87 1a 90 3b bd 31 6f 39
       0.008778428 -0.032529037 0.0043976936 0.00022811345
000160 77 1c 08 3d 90 24 03 bd 3a e9 ac 3b 82 e5 c6 bb
       0.03323027 -0.03201729 0.005276826 -0.00606984
000170 7e b4 e1 3c 2c e2 d4 bc 9a 7f a1 bc a3 06 c5 bc
       0.027551886 -0.025986753 -0.019714165 -0.024051016
000180 07 ff 7d 3c f0 cd f2 bc fd b5 e4 b9 ff 65 05 3d
       0.015502698 -0.029639214 -0.0004362314 0.032567974
000190 fb 23 80 bc c4 ff 09 bd 2b 5a 7e bc aa 6f 36 bb
       -0.015642157 -0.033691183 -0.015524427 -0.0027837553
0001a0 e5 60 e1 3c 56 2d b3 3b d4 5c 0a bc e7 0f 2f bc
       0.027512023 0.005468051 -0.0084449835 -0.010684944
0001b0 7f f3 8d bb fc f2 88 bc 75 de 01 3d b5 c3 9a 3b
       -0.0043320055 -0.016717426 0.031706292 0.004723037
0001c0 08 a6 ec bc 16 35 0b bb 3e 35 72 3b e7 22 0c 3d
       -0.028887764 -0.0021241358 0.0036958004 0.034212973
0001d0 98 05 04 bd f1 5f 40 bc 6a dc f1 3c ad 40 77 3c
       -0.032231897 -0.011741624 0.029524047 0.0150911035
0001e0 ab 6c 84 bc 7a d8 97 bc e1 69 68 3c eb 42 0f bc
       -0.016165098 -0.018535841 0.0141854 -0.008743982
0001f0 d4 e8 b2 3c 2a b8 a1 bb 8a a7 2a bc 3f cb 8e bb
       0.021839537 -0.004935284 -0.010415921 -0.004357725
000200 05 f2 04 3d 54 e5 d8 3c ee 2d 05 3c b0 99 63 3c
       0.03245737 0.02647654 0.008128626 0.013891622
000210 4b 21 d7 3b d1 a4 01 bc 65 70 5d bc 75 71 b3 bc
       0.006565248 -0.00791283 -0.0135155665 -0.021904686
000220 fb c4 e0 bc 9f b5 f2 3c 9f db 05 3c 3b a8 a6 3c
       -0.027437678 0.02962762 0.0081700375 0.02034389
000230 ea 0c 03 3c d4 54 57 bc 80 11 0f 3d fe 80 05 3c
       0.007998684 -0.013142783 0.0349288 0.00814843
000240 14 0b b4 3c f1 97 bc 3c 27 ff 12 bd 0c c1 82 3c
       0.021977939 0.02302167 -0.035887863 0.015961193
000250 7e b3 15 3c 76 43 71 bc bf 5b 27 bc 6d 21 d9 bc
       0.009137033 -0.014725557 -0.010214745 -0.026505196
000260 4e e9 00 3d f3 97 3e 3c 08 b7 9a 3b 70 7e f4 3c
       0.031472497 0.011632907 0.004721526 0.029845446
000270 be 58 c0 3c 6d 3f ac 3c 7d 99 e0 bc fb b7 62 bb
       0.023479816 0.021026338 -0.027416939 -0.0034594524
000280 ad 47 c9 3c 9b d9 bb bc 36 ad eb bb 35 e3 a8 bb
       0.02457031 -0.02293091 -0.007192279 -0.0051540383
000290 3f 4d c8 ba 3a 01 8a 3c 0f ed 08 3d 49 fe 0b 3d
       -0.001528181 0.016846288 0.0334292 0.034178052
0002a0 62 12 16 3a f3 25 1d bc e4 43 c0 39 20 27 ad bb
       0.0005724785 -0.009591567 0.00036671676 -0.005284205
0002b0 5e fc 37 bc da 0f 35 3a 49 0d 16 3d 57 63 41 bb
       -0.011229603 0.0006906964 0.036633763 -0.0029508674
0002c0 69 96 dc 3b 27 3f 66 3b 8c 5e 11 3d 4a d4 91 bc
       0.0067317975 0.0035132857 0.035490558 -0.017801423
0002d0 78 32 8c bb 46 88 aa bc 1a c3 57 bc 93 09 fe 3c
       -0.0042784773 -0.020816933 -0.013169074 0.031010425
0002e0 3a ad 95 3c b3 1f a8 3b 51 a7 bf 3c 45 c2 ec 3c
       0.018271077 0.005130732 0.023395212 0.028901229
0002f0 3d c3 eb 3b 79 41 c0 3c 76 37 49 3c 86 a1 f3 bc
       0.007194905 0.02346872 0.012281289 -0.029740106
000300 f0 91 9c bc e1 c4 c9 3b 0f 2e c7 bc 50 ee 9c bb
       -0.019112557 0.006157503 -0.024313955 -0.0047891513
000310 45 2f b7 bc 61 00 52 3b f2 1a 0d 3c 97 72 18 3d
       -0.022361407 0.0032043683 0.008612381 0.037218656
000320 c6 08 5c bc b8 8e de bb e5 0c ca bc 4e 79 bb bc
       -0.013429826 -0.0067919157 -0.024664352 -0.022884991
000330 7e fd 05 3d db 1f 6e 3b 3f e4 c3 3c 9f 7f 06 ba
       0.032712452 0.0036334905 0.023912547 -0.00051307114
000340 7b 9f 37 3c 3d 11 4c bc cf e2 66 bc 15 19 90 3c
       0.011207457 -0.012455282 -0.014092161 0.017590085
000350 8d ad 96 bb 79 a8 b1 bc 12 08 dc 3b d3 7c d4 3b
       -0.0045983256 -0.02168678 0.0067148292 0.006484607
000360 b2 e3 d2 3c 91 1f 90 bc 73 5f b2 3c a9 f2 a0 3c
       0.02574334 -0.017593177 0.02177403 0.01964696
000370 13 ca 57 3c c0 db 95 bc 8e 41 70 3c 66 ff e4 3c
       0.013170737 -0.018293262 0.014664067 0.027953815
000380 e8 93 03 3d 47 89 2c bc 5f 55 37 bc ca c8 cd bc
       0.032123476 -0.010530776 -0.011189788 -0.025120158
000390 d9 51 0a 3d f3 36 1f 3b 01 bf 52 bc 08 37 9c 3c
       0.033769462 0.0024294227 -0.012862922 0.01906921
0003a0 c8 4a 26 bc a6 04 85 bc 87 b1 17 3d df 90 54 3b
       -0.010149665 -0.016237568 0.037034538 0.0032434983
0003b0 f9 09 c9 bc 2e 24 4b bc bc 00 a6 bb 12 dd b6 3c
       -0.024540888 -0.012398763 -0.0050660055 0.022322211
0003c0 81 c3 56 bc 04 9d 44 bc d6 8f f9 3c 70 5e 5d bc
       -0.013108135 -0.012000326 0.030464094 -0.013511285
0003d0 4a 45 c7 3c 74 c1 39 3b 6e 4d 46 3a 91 3c de bc
       0.024325032 0.0028344067 0.00075646385 -0.02712849
0003e0 04 fb 03 bd df 4b 08 3d 31 2a e4 bc 77 c9 47 bc
       -0.03222181 0.03327548 -0.02785215 -0.012194029
0003f0 d7 0e c4 bc 6a c9 01 bd c5 54 2d 3c 84 23 b9 bc
       -0.023932857 -0.031686224 0.010579293 -0.022599943

bias f4 [64]
000000 4c 97 96 3a bc 67 21 bc 7d 23 08 bd 0e 4b cb 3c
       0.0011489182 -0.009851392 -0.03323697 0.024816062
000010 12 9f 42 bc 24 8a da bb 63 ec 13 bd 63 25 f9 bc
       -0.011878746 -0.0066692997 -0.036114108 -0.030413335
000020 92 3f 3b bd 7d d8 9c 3c 0d cb d8 3c d0 e5 21 bc
       -0.045714922 0.019146198 0.02646401 -0.009881452
000030 ef f5 c8 bc 12 9f 12 3d 6c 21 a6 3c d9 16 13 3d
       -0.024531333 0.035796233 0.020279609 0.03591046
000040 95 a1 76 bc 42 6b 13 bd 96 9e b4 3b 57 92 83 3c
       -0.015053173 -0.03599096 0.005512069 0.016060991
000050 33 43 07 bc 07 a8 4b bb a1 62 0a 3d a0 01 14 bc
       -0.008255768 -0.0031075494 0.033785466 -0.009033591
000060 49 48 c9 bc 33 e4 73 bc db 63 e5 bc 06 52 f3 bc
       -0.024570601 -0.01488595 -0.028001716 -0.029702198
000070 12 51 0e 3d 17 20 75 3c ba 85 31 3d 42 fe 5d 3a
       0.034745283 0.014961264 0.043340422 0.00084683683
000080 ec 63 c7 3c 4d 37 4c 3b af 05 48 bb 8e 86 ed 3c
       0.024339639 0.0031160892 -0.0030520966 0.028994825
000090 dd 9d c1 3c ac 13 aa 3b 59 27 f0 3b de bc b7 3c
       0.023634845 0.0051903334 0.0073289094 0.022428926
0000a0 21 98 a1 bc 23 6d d5 3a c8 4b 3a bc a6 53 1e 3d
       -0.019725861 0.0016283136 -0.011370607 0.038653992
0000b0 c3 cf c6 3c e9 4b 5b 3c 9b 57 9a 3c da cd 4c bc
       0.02426899 0.013384798 0.018840602 -0.012500251
0000c0 4a 78 5b bd 8e 9c 90 3c fd 0e 8e bc b6 8a 21 bd
       -0.053581513 0.017652776 -0.017341131 -0.039438926
0000d0 4b f2 81 3c 28 72 2a 3c 82 ad 03 bd 76 9f ad ba
       0.015862605 0.0104031935 -0.03214789 -0.0013246376
0000e0 11 35 a0 3c ed 78 9d bc 0d d1 05 3d 28 cc 05 bd
       0.019556554 -0.019222701 0.03267007 -0.0326654
0000f0 3c 4f 00 bb c0 5b c8 bb 80 78 a6 bb 24 21 5d 3c
       -0.0019578477 -0.006114453 -0.0050802827 0.013496671

weight f4 [64, 1024]
000000 c2 f9 80 bc 17 be 21 3b 29 61 a0 bc 4e 17 e2 3c
       -0.015744094 0.0024679953 -0.01957758 0.027599003
000010 95 eb 96 3c ce f5 bf 3c ef 0b 2e bc f1 52 99 bb
       0.018422881 0.023432638 -0.010622962 -0.004679077
000020 6a c7 59 3c c3 12 2a 3c 13 ae fe bc b8 7f 7e 3c
       0.013292173 0.01038045 -0.031088864 0.01553338
000030 7d 70 b7 3c 0f ae a9 3c 54 8b c6 3b 29 65 45 bc
       0.022392506 0.02071288 0.0060590897 -0.012048044
000040 28 a6 cb bc 53 2c a8 3c 13 09 1a 3a 61 ed 8f bc
       -0.024859503 0.020528948 0.0005875986 -0.017569246
000050 64 97 bc 3c 95 26 06 3d 87 46 99 bb 67 13 a3 3c
       0.023021407 0.03275164 -0.004677597 0.019906713
000060 e4 c2 45 3c 08 4d f0 3c 17 14 8c bb 24 01 55 3c
       0.012070391 0.029333606 -0.004274856 0.01300076
000070 67 f0 ad bc 8a 3c 36 bc 8e 53 df 3c 88 68 85 3c
       -0.021232797 -0.011122832 0.027261522 0.016285196
000080 8f bf 80 3b 7a 33 91 3c 8b 03 35 bb 1d 5f b0 3c
       0.0039290856 0.017724741 -0.002762052 0.021529729
000090 27 c0 00 3d 72 fe 0d 3b 81 ff 89 ba ed db 9e 3a
       0.03143325 0.0021666554 -0.0010528417 0.0012119986
0000a0 9f 1d f9 3c ab bb e0 bc df 5c d2 bb 66 e3 a6 3c
       0.030409632 -0.027433237 -0.0064197625 0.020372104
0000b0 7d b0 59 bc 2c 5b 95 ba 5d 6d c6 3c 35 62 ca bc
       -0.013286707 -0.0011394969 0.02422207 -0.024705032
0000c0 d4 de eb 3c e8 91 e8 3a ae ee 5c bb 72 17 23 3c
       0.028792776 0.0017743679 -0.00337116 0.00995432
0000d0 e7 d3 8e bc 2d 3a 72 3c 93 5a e7 bc d2 b7 e3 bc
       -0.017435027 0.014784378 -0.028241431 -0.027797613
0000e0 94 fa 9e 3c 91 ed 44 3c fa 6b f5 ba eb 31 04 bd
       0.019406594 0.012019531 -0.0018724196 -0.032274168
0000f0 94 57 57 bc 96 6c 3d 3c 7d c5 9c 3c 32 ea b1 3c
       -0.013143439 0.011561533 0.019137139 0.021718118
000100 c8 cf 0c bc cd 3d 9a bc 55 1a 46 3c 8d 36 a4 3c
       -0.008594461 -0.018828297 0.012091239 0.020045543
000110 10 32 d4 3c d0 f4 b0 bc ea da f2 3a de e2 31 bc
       0.025902778 -0.02160111 0.0018528376 -0.010857312
000120 64 91 51 3c 9b 7f b9 3b a8 01 de 3c 09 56 49 bb
       0.0127910115 0.0056609637 0.0271004 -0.0030721447
000130 59 9b c1 bc a1 81 c1 b9 5f 64 89 bc c9 28 83 3c
       -0.023633646 -0.0003690841 -0.016771493 0.016010659
000140 ef c6 b0 3c 00 46 d4 3c 20 64 51 bc c5 5b 93 3b
       0.021579234 0.025912285 -0.012780219 0.0044970238
000150 dd 46 8f bc 8a 37 be 3c 66 9e 44 bb e7 3b d6 3c
       -0.017489845 0.023219842 -0.003000164 0.02615161
000160 f8 fc 02 bd 48 f8 4f 3c 0e 99 83 3c e6 47 86 bc
       -0.03197953 0.012693472 0.016064193 -0.016391706
000170 83 53 16 3c ea bf 03 3c e3 d1 d1 3c 69 41 b0 bb
       0.009175184 0.008041361 0.025612777 -0.0053788912
000180 29 8b ae bc 78 bd 24 bc 96 f2 91 3c a5 ae 08 bc
       -0.021306591 -0.0100549385 0.01781587 -0.00834242
000190 98 65 80 3c eb ae c9 3c 58 ee 74 3b 0a d4 cb bc
       0.015673444 0.02461954 0.003737351 -0.024881382
0001a0 31 8e 88 bb 4b c0 e6 bc dc 32 74 b8 fc 26 aa 3c
       -0.004167341 -0.028167864 -5.82215e-05 0.020770542
0001b0 af bb f2 ba b1 6e 5e 3b de a3 dc bc 0c 68 77 bc
       -0.0018519069 0.003394049 -0.026933607 -0.01510049
0001c0 85 df 72 3c 6d 2b c2 bb 0d 21 3a bc 73 90 7b 3c
       0.014823799 -0.005925587 -0.011360419 0.015354264
0001d0 85 cd 74 3c 0c 48 e0 bc 31 1e 26 bc b2 ad ab bc
       0.014941578 -0.027378105 -0.010139034 -0.020956848
0001e0 28 49 a9 3a e6 9d 8c 3c a9 42 ea bb a5 e5 9f 3c
       0.0012915479 0.017165136 -0.00714906 0.019518683
0001f0 1d 63 b8 3c ce ed 7e bc b6 0b 26 b8 23 8d 16 3c
       0.022508198 -0.015559627 -3.958839e-05 0.009188923
000200 1e 1a ba bc 1c cb b2 3c 14 ce b4 3c 90 37 e0 3c
       -0.022717532 0.021825366 0.022070922 0.027370244
000210 36 76 03 bb 7b 0e 96 bb 0d 14 5a bc 57 fc 09 bc
       -0.0020059473 -0.004579363 -0.013310445 -0.008421979
000220 dd b1 d7 3c ef 08 00 3c 6a 8e b3 bc 9b c0 83 3c
       0.026329929 0.00781463 -0.021918494 0.016083052
000230 8b a4 17 3c e8 f5 f0 3c ae fa eb bc c5 3e ea bc
       0.009255539 0.029414132 -0.028806057 -0.028594384
000240 b2 b1 c1 3c 3b cd 1a 3b 05 a8 94 3c ba 97 b5 bc
       0.023644302 0.0023620862 0.018146524 -0.022167075
000250 a3 84 7e bc ca 56 ad bb 91 a1 82 3b 29 2d ca bc
       -0.015534553 -0.005289887 0.0039865454 -0.024679737
000260 b6 5b 16 bc 22 d6 ca 3c a8 39 db 3c 26 ba ed 3c
       -0.009177139 0.02476031 0.026760891 0.029019427
000270 05 40 d2 3b 85 0b 89 3c 25 1a 8c bc 4f 67 86 3c
       0.006416323 0.016729126 -0.01710231 0.016406683
000280 b2 b1 df 3c 5b f8 0e 3b f6 03 a9 bc 1f 4c 15 3a
       0.027306411 0.0021815512 -0.020631772 0.0005695242
000290 28 6c 6a bc 24 77 94 bc 9b 2c 47 3c 24 16 c3 ba
       -0.014308013 -0.018123217 0.012156631 -0.0014883918
0002a0 56 0c da 3c 83 5b 81 bc 86 54 1f bc c7 cb bc bc
       0.02661721 -0.015790707 -0.009724742 -0.023046387
0002b0 00 fa df 3b ad 2d f8 ba dc e3 bd 3c 84 78 e6 bc
       0.0068352222 -0.0018934511 0.02317994 -0.028133638
0002c0 62 61 b8 bc 67 e6 57 bc 17 1c 17 3c 20 13 32 ba
       -0.022507373 -0.013177491 0.009223006 -0.0006793011
0002d0 b9 cd 31 3b ba 39 f2 3c b2 9f 6c bc 0e 74 e1 bc
       0.0027130677 0.029568542 -0.014442371 -0.02752116
0002e0 2e 74 81 bc ae 87 f8 3c 07 83 8f bb 7d b6 a2 3b
       -0.01580247 0.030338135 -0.0043796333 0.004965602
0002f0 32 17 b8 bc bb 01 e7 3c 23 a9 c8 bc f4 77 2f 3b
       -0.022471998 0.028199067 -0.024494713 0.0026774378
000300 0a 58 d8 3c 54 1d d5 3b f5 fb c3 bc 0f bb 8b 3c
       0.026409168 0.0065037403 -0.023923853 0.01705697
000310 44 cf b9 3c 9a 1d d3 3c 4c ec 87 3c 13 4d e4 b9
       0.02268184 0.025770951 0.016592167 -0.00043544974
000320 e5 58 24 3c 5e f0 d0 3c 08 e5 fe bc 0a f6 e4 ba
       0.01003096 0.025505241 -0.03111507 -0.0017468345
000330 7e 1b 3b bc fb 12 ad bc c5 a3 b5 bc ef 5b 97 bc
       -0.011420129 -0.021127215 -0.022172818 -0.018476455
000340 7b 5f 08 3d 25 92 d4 3c 95 a9 83 3c c9 09 72 3c
       0.033294182 0.025948593 0.016072074 0.014772841
000350 20 16 b5 3c 5d f4 db bc db 3d b1 bb 76 da eb 3c
       0.022105277 -0.02684992 -0.005408985 0.028790694
000360 3d 74 ef 3b 46 4c f7 3c 24 5b 07 3c 3c c3 99 3c
       0.007307558 0.030187737 0.008261476 0.018769853
000370 25 54 74 bb f1 60 e3 3c 54 a6 88 3c 7a 43 a4 bc
       -0.00372816 0.027756186 0.016680874 -0.020051707
000380 b1 45 bd 3c ab 1f af bc 55 fc 3a bc eb f9 2f bc
       0.02310452 -0.021377405 -0.0114127 -0.010740737
000390 db 72 03 bc af 85 a5 3c c6 11 66 bb 9f e4 f2 3c
       -0.008022989 0.020205347 -0.0035105809 0.02965003
0003a0 27 ff c3 bc ae d0 0e bd 44 a5 d2 bc 77 42 d0 3c
       -0.023925377 -0.03486698 -0.02571357 0.025422318
0003b0 3c a0 3f 3c 1b be a6 bb 53 e6 93 3a 1f 73 44 bc
       0.011695918 -0.0050885803 0.0011283852 -0.011990338
0003c0 43 59 ce bc ce 52 be bb 97 c3 f7 3c 76 c0 a1 3b
       -0.025189048 -0.005808211 0.030244632 0.004936273
0003d0 eb 25 f2 bb ae 13 ec bc bb b5 b1 3c c9 ee bc bc
       -0.007389774 -0.028817978 0.021693101 -0.02306308
0003e0 c9 c6 d4 bc f2 b9 1b bc bb 11 8f 3b 93 c3 9a bc
       -0.025973694 -0.009504782 0.0043661273 -0.018892085
0003f0 29 97 b2 bc a3 2e 8a 3a 8e ea d1 3b ba c7 a8 3c
       -0.021800594 0.0010542463 0.006406135 0.02060305

bias f4 [64]
000000 bd 6a a5 bc 88 d8 da bc 63 88 e4 3c cc 3b 52 bb
       -0.020192498 -0.026714578 0.027897066 -0.0032079099
000010 bf 36 94 3b 82 65 76 bc 65 1d 29 bc 4c 2b 6e 3c
       0.004523128 -0.01503885 -0.01032195 0.01453669
000020 12 85 ce bc 9f aa 15 bc 20 30 46 3b 31 5c 4f bc
       -0.025209937 -0.0091349175 0.0030241087 -0.0126562575
000030 43 f4 c8 3c 53 bf 84 3b 7e 4b 22 bc 98 03 4a bb
       0.024530536 0.004051128 -0.009905694 -0.0030824896
000040 a1 30 0f bc c5 49 b8 3c 42 e0 86 39 67 f6 34 3d
       -0.008739621 0.022496114 0.00025725557 0.0441803
000050 5c ea de bb d1 37 19 3d 1f 1b c8 3c 37 6d a0 3a
       -0.00680284 0.037406746 0.024426995 0.001223958
000060 cc 4e 00 3c bf 32 ef bc ef af 96 3c 4d bb 80 bb
       0.007831287 -0.029199002 0.018394439 -0.003928578
000070 f8 20 d8 bc 2d 5f 0f bd 54 a8 54 3c 54 f0 ba 3a
       -0.026382908 -0.035002876 0.012979586 0.0014262297
000080 2f dd 4f bb 97 91 43 3c 8b 89 0f bd 4b f6 b9 3c
       -0.003171753 0.011936567 -0.03504328 0.02270045
000090 f6 c6 91 bc 76 7d 48 3d 6a ce 1b bc 87 07 c7 3c
       -0.017795067 0.048947774 -0.009509662 0.024295582
0000a0 55 1a 9c bb 0d 7a c3 3c 83 96 b2 bc 3b 87 05 3d
       -0.004763881 0.02386191 -0.021800285 0.03259967
0000b0 a7 40 a2 3c c9 27 8c ba 54 b2 1c bd 72 10 cd bb
       0.01980622 -0.0010693009 -0.038256004 -0.006258064
0000c0 77 9f 2e 3d 69 db 81 3b 98 f7 fb ba 10 61 19 3c
       0.042632546 0.0039629233 -0.0019223569 0.00936152
0000d0 cc 33 ed bb 69 10 92 3c 59 ec 78 3a 20 f9 a9 3c
       -0.0072388407 0.01783009 0.0009495668 0.020748675
0000e0 22 c9 78 3c ce bc 99 bc 4d 49 39 bd cb 9f 2a bc
       0.015184673 -0.018766787 -0.04523592 -0.010414074
0000f0 49 12 9c 3c 95 12 b8 3b 6f 8f 10 bd 08 3e f8 3c
       0.019051688 0.0056174495 -0.03529304 0.030303016

weight f4 [10, 64]
000000 26 47 b4 bd 43 8e 08 bd 3c 70 9b bc 84 7a 9a bc
       -0.08802633 -0.033338796 -0.018974416 -0.018857248
000010 79 0b b2 3d bc cd 9c bd 7a 9d de 3d af d0 a2 3d
       0.086935945 -0.07656428 0.1086988 0.079499595
000020 eb 92 8d 3d 3a 0f db bd d0 47 9e bc e2 04 2e bc
       0.06912788 -0.106962636 -0.019321352 -0.010621281
000030 fc 9e f0 3c f9 9f 7c 3d 59 4e 48 bd ea af 7e bd
       0.029372685 0.061676 -0.048902843 -0.062179483
000040 7f 7d 84 ba 52 40 38 bd e5 98 95 3b e1 38 b6 bd
       -0.0010108202 -0.044983216 0.0045653456 -0.088975675
000050 31 9f 1d bd 50 24 b4 bd a0 6e fd bd 9c 86 61 bd
       -0.038481895 -0.087959886 -0.12374616 -0.055060014
000060 29 ce bf bd 86 33 a3 bc 5a ab 62 bd 61 42 9a bc
       -0.09365494 -0.01992203 -0.055339195 -0.01883048
000070 f1 7c a0 bd 03 ae b4 3d 23 80 18 bd 14 7b d2 bd
       -0.07836331 0.088222526 -0.037231576 -0.102773815
000080 f7 a8 b3 3d 75 a9 ef 3d cc 10 50 ba 21 18 c1 bc
       0.08772462 0.11702243 -0.0007937073 -0.023571076
000090 1a 68 37 3c d9 7f d8 bd 2f ce c2 bd d6 c9 71 bd
       0.011194253 -0.1057126 -0.09511983 -0.059030376
0000a0 f2 f2 f9 3c ab 9f 01 3e 96 d4 d0 bd fc bd 0a be
       0.030511353 0.12658565 -0.101967975 -0.13549036
0000b0 65 f1 8a 3d e9 be db 3d c3 24 bf 3d c4 44 74 3c
       0.067843236 0.107297726 0.093331836 0.014908973
0000c0 c0 73 d8 bd e3 c3 aa 3c 73 a9 d1 bd 43 77 e2 3c
       -0.105689526 0.02084536 -0.10237398 0.027644759
0000d0 9f bc 96 3d 9f 89 02 be 11 b4 83 bb 7c 80 e5 bd
       0.07360195 -0.12747811 -0.0040192683 -0.11206147
0000e0 23 27 a9 3d 87 6c 00 be 6e 21 c0 3d c1 7e 10 3e
       0.08259418 -0.125414 0.09381376 0.14110853
0000f0 e2 a9 c4 bd 42 26 93 bd 50 c9 0a 3e c9 dc 22 bd
       -0.09602715 -0.071850315 0.13553357 -0.03976134
000100 62 37 c5 bd d5 6b c8 3d 17 c6 46 3e 98 92 6c 3d
       -0.09629704 0.09786192 0.19411503 0.05775699
000110 0c 0d 83 bd e8 76 88 3d 31 7d 89 bc 73 11 18 be
       -0.06398973 0.066633046 -0.016783329 -0.14850406
000120 15 50 17 3e 43 c8 0d 3e 19 50 25 be e3 97 ed bd
       0.14776643 0.13845925 -0.16143836 -0.11601236
000130 db 5e 9e bc 1a d2 c6 3c 61 f9 a0 3d b4 81 75 bc
       -0.01933234 0.024270106 0.07860065 -0.014984537
000140 90 61 cb 3d d8 f7 f9 bd aa e4 d8 3d 8b 89 b8 3d
       0.09930718 -0.122054756 0.10590489 0.09010609
000150 45 8d 27 be c7 be 58 bd a9 4d 36 bd ed 9d 08 3d
       -0.16362484 -0.052916314 -0.044507656 0.033353735
000160 d5 78 a6 bd 8f 83 3a 3d 4c 01 bd bd fd 8f 9a bc
       -0.08128516 0.04553562 -0.09228763 -0.018867487
000170 09 27 b5 bd 2c ef d7 bb ac ff 3b bc f6 b9 bc 3d
       -0.08845336 -0.006589791 -0.011474531 0.09215157
000180 d6 7c 2c 3d 1b cb fb bc 4d a0 da 3b d1 1b eb 3d
       0.04211124 -0.030736497 0.0066719414 0.11479915
000190 5d e6 8a 3d 9e 55 82 bd 82 57 20 3e 4d eb c4 bc
       0.067822196 -0.063639864 0.15658382 -0.024037981
0001a0 31 87 90 3d b2 3c 9b 3d 80 4e 07 3e d4 46 24 3d
       0.07057036 0.07579936 0.13213539 0.04010661
0001b0 58 af ab 3d 60 ea 3f 3d 9b ff ce 3d 5b 8e c3 3d
       0.083830535 0.046854377 0.101073466 0.095486365
0001c0 e1 4a ae bd 50 0b ab 3c 98 89 85 3d cd 93 ea 3d
       -0.08510376 0.020879418 0.065203846 0.11453972
0001d0 c0 64 bd bd a7 96 df 3c b1 da dd bd ec ae ac bd
       -0.09247732 0.027293516 -0.10832728 -0.08431801
0001e0 60 55 a6 3d 6c 43 17 bd 8f 27 cd bd c6 bf 02 3d
       0.08121753 -0.036929533 -0.10017311 0.03192117
0001f0 2c 1c 42 be eb ac 32 3d 69 17 32 bd 17 fd 17 3e
       -0.18956059 0.04362194 -0.043479357 0.1484264
000200 d2 ae 80 3d c3 60 b4 3d 5a 7c 23 bd d3 21 af 3d
       0.06283344 0.08807518 -0.039913513 0.08551373
000210 12 f0 44 3d 7d a1 d8 bd c3 08 f1 3d f9 a4 aa 3c
       0.04808051 -0.105776764 0.11769249 0.020830618
000220 e6 54 96 bd 82 5b 17 bd df 28 9e bd ed 95 08 3e
       -0.07340412 -0.036952503 -0.07722639 0.13338442
000230 3a 81 df bc 19 64 43 bd 9d c3 5f bd 16 94 33 3d
       -0.0272833 -0.047702882 -0.05462991 0.043842398
000240 1c 97 a8 bd e1 ab 3d 3d 26 e1 8b 3d 5b 4b 0a 3e
       -0.08231947 0.046306495 0.06830053 0.13505308
000250 f7 55 9f 3d 8a 10 b8 bd 24 db ba bd 28 36 c0 3d
       0.07780068 -0.089875296 -0.09123829 0.093853295
000260 55 eb cf bd dd d1 cf bc b6 7c 8a bc b0 87 0b be
       -0.10152308 -0.025368625 -0.01690517 -0.1362598
000270 ef b8 72 3d ec 57 bf 3d 62 6c ad bd c3 26 11 bd
       0.059258398 0.09342942 -0.08467938 -0.035437357
000280 f1 06 a1 bd d5 83 d8 bd 7a c0 d0 bd 30 a8 b5 bd
       -0.07862652 -0.1057202 -0.10192962 -0.0886997
000290 b8 4c eb 3b 27 b5 0b bd fb b1 22 3d 6d 1b 08 3e
       0.0071807764 -0.034108307 0.039720517 0.13291712
0002a0 5b 92 a0 bd 52 a9 22 3e 78 ae 35 bd 96 02 03 be
       -0.07840415 0.15884903 -0.04435584 -0.12793955
0002b0 73 03 06 bd bb f2 f6 bd 3f 2b 3c bd 22 2f 9d bd
       -0.032718133 -0.12058016 -0.04593968 -0.076750055
0002c0 06 7a 05 bd 68 68 8f bc 4e 60 c4 3d 97 6d 94 bd
       -0.032587074 -0.01750584 0.09588681 -0.07247465
0002d0 cf 7b e1 bd df 11 bb bd 9a 3f 13 3e db 44 d3 3d
       -0.11009943 -0.09134268 0.14379731 0.103158675
0002e0 b4 99 f2 bb 85 f7 7b bd 0c 06 11 3d 2e f5 9c 3d
       -0.0074035767 -0.06151535 0.035406157 0.07663952
0002f0 8a 08 cb 3d 60 26 c8 3d 42 a1 b4 3c 1e 78 80 3d
       0.09913738 0.097729445 0.02204955 0.062729105
000300 7a 17 ea bb d9 6c 86 3b 01 57 b0 3c 2b 80 8b bd
       -0.007143912 0.004102331 0.021525862 -0.068115555
000310 af 95 2f bd de 3e 69 bd 50 fc 0b be 5d e9 b4 3d
       -0.04286736 -0.05694472 -0.13670468 0.08833573
000320 4c 6d ea 3d 94 12 46 bd 81 fb 10 3d 06 d7 cb 3d
       0.11446628 -0.04835756 0.035396103 0.09953122
000330 34 1b f5 3d 99 f6 02 3d 63 c1 d5 bd 36 24 8a 3d
       0.11968079 0.031973455 -0.10437276 0.06745188
000340 b9 99 1d bb 8b 18 f7 3d 75 6b bd bd 0d 1d ce 3d
       -0.0024047925 0.12065228 -0.092490114 0.10064135
000350 73 a9 88 bd c1 e3 cf 3d 47 ca 06 3e 80 4d 9d bd
       -0.06672945 0.101508625 0.131631 -0.076807976
000360 c8 06 1a 3e b7 4f 8c 3d 54 e6 08 be de 9c 11 3e
       0.1504165 0.06851142 -0.13369113 0.14219996
000370 0d 77 57 bd 57 51 98 bd d0 c3 e6 bd 10 69 7e 3c
       -0.05260377 -0.07437389 -0.11267817 0.015527979
000380 50 05 6f bd ab d1 93 3d 99 14 59 bd 18 d0 32 bd
       -0.058354676 0.07217725 -0.05299816 -0.043655485
000390 c3 af cc bd 22 a2 42 bc 7b 36 24 3d a6 de 07 be
       -0.099944614 -0.011879476 0.04009102 -0.13268527
0003a0 ea b5 a7 bd 1d 94 e1 3c c1 95 60 bd af a4 9c bd
       -0.08188994 0.027536446 -0.054830316 -0.076485984
0003b0 e7 71 ec bd 8f 40 c5 3d 08 71 cb bd da 69 94 3c
       -0.11545163 0.09631454 -0.099336684 0.01811688
0003c0 3f 19 b9 bd c0 08 e5 bd cf 7f 12 3e d4 fc 71 bc
       -0.090380184 -0.111833096 0.14306568 -0.014769752
0003d0 6a f4 49 bd 2b 7c ca bd 0f 2a fd bd 0b 51 d1 3d
       -0.049305357 -0.098869644 -0.12361538 0.10220536
0003e0 28 9c 55 3d 27 60 8f bd 58 60 c1 bd 9c e2 14 bd
       0.052150875 -0.070007615 -0.09442204 -0.036348924
0003f0 55 c0 b2 3d 35 98 ad bc 98 2b 40 3d 8f 6e d4 3d
       0.08728091 -0.021190742 0.046916574 0.1037265

bias f4 [10]
000000 fb 23 e0 3b 5e 16 c2 3d 5e 66 fb 3c 8d 4f bc bd
       0.0068402267 0.094769225 0.03068846 -0.091948606
000010 7a d0 ad 3d 5b 4f 8d bb 5a f6 40 bd e0 65 8c bd
       0.084870294 -0.0043124384 -0.04710994 -0.068553686
000020 e3 08 ba bd 5f 84 70 3c
       -0.09083726 0.014679997
