test_9.pth (torch, 587207 bytes, 10 tensors)

weight f4 [32, 3, 5, 5]
0	0xbd6228ac	-0.05521457
1	0x3a1318f6	0.00056113245
2	0xbc2feb18	-0.010737203
3	0x3d4014e9	0.04689494
4	0x3d9a97e8	0.07548505
5	0xbe1957bf	-0.14974879
6	0xbd8c91d0	-0.06863749
7	0x3cdb753b	0.026789298
8	0x3d62a919	0.055337045
9	0xbdeb5df4	-0.114925295
10	0xbdc8bf08	-0.09802061
11	0x3d151b15	0.03640278
12	0x3de1a0be	0.11016987
13	0x3e1836b6	0.1486462
14	0xbd23a81f	-0.039955255
15	0xbdf98539	-0.12183613
16	0xbdc10eea	-0.09426673
17	0x3d8575db	0.0651662
18	0x3da8d628	0.08243972
19	0x3d091ef5	0.03347679
20	0xbde4e2d0	-0.111760736
21	0x3da12d21	0.07869936
22	0x3e680ad9	0.22660388
23	0x3dedb01c	0.11605856
24	0xbdf0eded	-0.11764131
25	0xbe20400e	-0.15649435
26	0xbd900350	-0.07031882
27	0x3e20518e	0.1565611
28	0x3d809f25	0.062803544
29	0x3e094edf	0.13408993
30	0xbcedf3ac	-0.029046856
31	0xbcf1bc5f	-0.029508768
32	0x3e320a2d	0.17386694
33	0x3e11229a	0.14173356
34	0x3e2131a5	0.15741594
35	0xbdae4466	-0.0850914
36	0x3ded6d2b	0.11593088
37	0x3da4325d	0.080174185
38	0x3d4870f8	0.04893586
39	0x3cf99b5a	0.030469585
40	0xba5f1512	-0.00085099146
41	0x3d5d95f9	0.054098103
42	0x3e5cbfeb	0.21557586
43	0x3deec0e0	0.11657882
44	0x3dbf382b	0.09336885
45	0xbdd2d63c	-0.10294768
46	0x3d8aa17c	0.06769082
47	0x3e8a0f2e	0.26964706
48	0x3de06476	0.109566614
49	0xbce8ffc8	-0.028442279
50	0xbe681f81	-0.22668268
51	0xbe37b231	-0.17939068
52	0xbd3c2cef	-0.04594129
53	0x3b9f4aab	0.004861196
54	0xbe3004e8	-0.17189372
55	0xbe40f1cd	-0.1884224
56	0xbc3bd4cb	-0.011464308
57	0xbd0258e3	-0.03182305
58	0xbdf2002c	-0.11816439
59	0xbe21e234	-0.15808946
60	0xbe124ccf	-0.14287113
61	0xbe4d2e73	-0.2003725
62	0xbe02820a	-0.12744918
63	0xbc732039	-0.014839225
64	0x3cf8d323	0.030374115
65	0xbe4d51b1	-0.20050694
66	0xbe50cccc	-0.20390624
67	0x3de409aa	0.11134656
68	0xbe14470b	-0.14480226
69	0xbc8e2710	-0.01735261
70	0xbda362ea	-0.07977851
71	0xbe13ec69	-0.14445652
72	0x3d05f539	0.032704566
73	0xbda6a30e	-0.08136569
74	0xbc513d30	-0.012770936
75	0xbe358831	-0.17727734
76	0xbd92c12b	-0.0716575
77	0x3d58a534	0.052891925
78	0xbd26efe4	-0.04075612
79	0xbde990d9	-0.114045806
80	0xbdf72fde	-0.12069677
81	0xbdb5015a	-0.088381484
82	0xbe1945f1	-0.14968087
83	0xbdd2a0d8	-0.10284585
84	0xbe0a50d1	-0.13507392
85	0x3d4360ae	0.047699623
86	0xbdf906ed	-0.12159524
87	0xbe05fc5d	-0.1308455
88	0x3d3c4f9d	0.045974363
89	0xbe173d70	-0.1476953
90	0xbdde224b	-0.108463846
91	0x3c1e0a3c	0.009645995
92	0xbda08c86	-0.07839303
93	0xbda6858f	-0.08130943
94	0x3d518661	0.051153544
95	0x3df225c0	0.118236065
96	0xbd96180c	-0.07328805
97	0x3e2b06e5	0.16701849
98	0x3d791559	0.060811374
99	0xbd8cd058	-0.06875676
100	0xbde4a201	-0.11163712
101	0xbc5b8b91	-0.013399974
102	0x3c176078	0.009239309
103	0xbca5ccf0	-0.020239323
104	0x3d128607	0.03577235
105	0x3dcd7d0c	0.100336164
106	0xbe0698e0	-0.13144255
107	0xbd8c75d5	-0.06858412
108	0xbd2b7d22	-0.041867383
109	0xbada64de	-0.0016662141
110	0x3df5efc5	0.12008623
111	0xbc948bd9	-0.01813309
112	0x3d87c4bf	0.06629323
113	0x3dd1e3e2	0.10248543
114	0xba59f427	-0.00083142746
115	0x3e219a8d	0.15781613
116	0x3e38cc3c	0.18046659
117	0x3dedffbd	0.11621044
118	0x3e216d0f	0.15764259
119	0x3de4c69f	0.111706965
120	0x3e36caea	0.17850843
121	0x3e36a328	0.17835677
122	0x3ceaa283	0.028641945
123	0x3d741c40	0.059597254
124	0x3e1b7062	0.1517959
125	0xbe0d7e18	-0.13817632
126	0xbde66216	-0.11249177
127	0xbdd9bbbf	-0.10631513
128	0xbcaa5e3c	-0.020796888
129	0x3c835be2	0.016035024
130	0xbe171731	-0.1475494
131	0xbbb35f47	-0.0054740044
132	0x3d1400ad	0.036133457
133	0xbe05edb7	-0.13078962
134	0x3b3fb33d	0.0029251121
135	0xbccc939e	-0.024972733
136	0xbdd70506	-0.10499005
137	0x3d18f0ea	0.03733913
138	0x3cbaf158	0.02282016
139	0x3d2f94fb	0.04286669
140	0xbd69b609	-0.057058368
141	0xbcf1d36e	-0.029519763
142	0x3c972b67	0.018453313
143	0xbdbc86dc	-0.0920541
144	0x3d9d18e6	0.076707646
145	0x3dc1f3f6	0.0947036
146	0x3db7cafa	0.089742616
147	0x3e0dc0f9	0.13843144
148	0x3e07b51b	0.1325268
149	0x3e0d8abf	0.13822459
150	0xbe33f6b0	-0.17574573
151	0xbdd2e04a	-0.10296686
152	0xbc15b6d0	-0.009137824
153	0xbe186e0c	-0.1488573
154	0xbe077ddc	-0.13231605
155	0xbd8c6bd8	-0.06856507
156	0x3d07a656	0.033117615
157	0xbdd5da21	-0.104419954
158	0x3c6de910	0.014520898
159	0xbdac31a2	-0.08407904
160	0xbd223847	-0.03960445
161	0xbdb0c068	-0.086304486
162	0xbdc43df0	-0.09582126
163	0x3d34ad34	0.044110492
164	0xbd575649	-0.052572522
165	0x3debfdfc	0.11523053
166	0x3d987baa	0.07445462
167	0x3da0ad50	0.07845557
168	0x3d31f27f	0.043444153
169	0xbd12875d	-0.035773624
170	0x3d45316f	0.048142847
171	0xbdc3763d	-0.095440365
172	0x3db5e73b	0.08881994
173	0xbd011cdf	-0.031521674
174	0x3b51cc9e	0.003201283
175	0xbe155f21	-0.1458707
176	0xbd01ed13	-0.031720232
177	0xbc9810f9	-0.01856278
178	0x3bc61a3f	0.0060456092
179	0xbbbcf3af	-0.005766354
180	0x3dfbdded	0.12298188
181	0xbda97f4f	-0.08276235
182	0x3d31c648	0.043401986
183	0x3d151632	0.03639812
184	0x3da52908	0.08064467
185	0x3d965856	0.073410675
186	0xbd105feb	-0.035247725
187	0x3e14b8be	0.14523599
188	0x3dc4a0c8	0.09600979
189	0xbd85d9af	-0.065356605
190	0x3e1212fe	0.14265057
191	0xbcafc14b	-0.021454474
192	0x3e3a23b3	0.1817768
193	0x3e1dc944	0.15408808
194	0x3dd5cdbe	0.10439633
195	0x3e0820c4	0.13293749
196	0x3df54555	0.11976115
197	0x3d9a35d0	0.07529795
198	0xbd60c7a9	-0.05487791
199	0x3c62ef1c	0.013850953
200	0xbdb4026d	-0.08789525
201	0x3dbc3546	0.091898486
202	0x3d2ae9ee	0.041727
203	0xbce65285	-0.02811552
204	0xbde80b15	-0.11330239
205	0x3dddda8e	0.108327016
206	0xbda55a96	-0.080739185
207	0xbde952bd	-0.11392734
208	0xbcfc9ff1	-0.030837985
209	0xbd8c5d33	-0.06853714
210	0x3d91e0a9	0.07122929
211	0xbd45d4a6	-0.0482985
212	0xbd947e92	-0.07250704
213	0x3e144aa6	0.14481601
214	0xbdee910d	-0.1164876
215	0x3ba489dd	0.0050213174
216	0x3c8e2adb	0.01735442
217	0xbb97b671	-0.004629903
218	0x3e00b95b	0.12570707
219	0x3ca0a472	0.019609664
220	0x3ddfe65e	0.10932611
221	0xbdbca03a	-0.09210248
222	0xbd1cc566	-0.03827419
223	0xbdebedc7	-0.11519962
224	0x3ac02308	0.0014658878
225	0x3dcff8a1	0.10154844
226	0x3d21d020	0.039505124
227	0x3d842a31	0.0645336
228	0x3cbc7505	0.023005018
229	0xbd69385b	-0.05693851
230	0x3d72359d	0.05913316
231	0x3d2fff94	0.042968348
232	0x3e199255	0.14997227
233	0xbd050495	-0.032475073
234	0x3dd391c7	0.10330539
235	0x3d6f150b	0.058369678
236	0xbbddc530	-0.0067678913
237	0xbdbe31a2	-0.092868105
238	0xbd5aabdd	-0.053386558
239	0x3da10eac	0.078641266
240	0xbb4ecd6b	-0.0031555544
241	0x3dad8ea3	0.084744714
242	0xbe1377e4	-0.14401203
243	0xbe0f9201	-0.1402054
244	0xbe268890	-0.16263032
245	0x3ca6a0be	0.02034032
246	0xbdafb65f	-0.085797064
247	0x3dbf55ba	0.09342523
248	0x3d451be4	0.0481223
249	0xbd5871b7	-0.052842822
250	0x3db16fe4	0.086639196
251	0xbde54b99	-0.1119606
252	0x3cd4e3db	0.025987556
253	0x3e0c85bf	0.13722895
254	0x3df95098	0.12173575
255	0xbd3fa570	-0.046788633

bias f4 [32]
0	0x3e7bff34	0.24609071
1	0xbd79d85f	-0.060997363
2	0x3c4565c9	0.012048193
3	0xbe1e5ab0	-0.15464282
4	0x3a9d606d	0.0012006887
5	0xbdf47130	-0.11935651
6	0xbe36323d	-0.17792602
7	0xbdfe8994	-0.12428585
8	0xbd6254b5	-0.055256564
9	0x3da84133	0.08215561
10	0x3e747cfa	0.238758
11	0xbd9bae9e	-0.07601665
12	0x3e2139c4	0.15744692
13	0xbd816c77	-0.06319516
14	0x3da8a891	0.082352765
15	0x3cdc3eb9	0.026885377
16	0xbd906a79	-0.07051558
17	0x3e09efb7	0.1347035
18	0x3eb98bfe	0.36239618
19	0xbd7d0c2d	-0.06177919
20	0x3c7e9573	0.015538561
21	0x3e311eab	0.17296855
22	0xbe1b5890	-0.15170503
23	0x3da541e0	0.08069205
24	0xbda1f82e	-0.07908665
25	0xbdc8a8eb	-0.097978435
26	0x3e937bb2	0.2880531
27	0xbe19e74b	-0.15029638
28	0xbe88d451	-0.26724485
29	0xbe9afa33	-0.30269012
30	0xbe884a10	-0.26619005
31	0xbd3f4ee1	-0.046706084

weight f4 [32, 32, 5, 5]
0	0xbca2a56b	-0.019854268
1	0xbd05602a	-0.032562412
2	0xb9fc8503	-0.00048164287
3	0xbcc597be	-0.024120208
4	0x3a2db4f4	0.00066263904
5	0x3bdf1b9c	0.006808711
6	0xba5a1476	-0.0008319089
7	0x3c12922e	0.008945985
8	0xbcace7eb	-0.02110668
9	0xbc0ca029	-0.008583107
10	0x3d51171f	0.05104744
11	0x3ce3d7c2	0.027812842
12	0xbad9e740	-0.0016624704
13	0xbcc75037	-0.024330242
14	0xbc7534d0	-0.014966205
15	0x3d41f255	0.047350246
16	0xbd176529	-0.03696171
17	0x3af84864	0.0018942473
18	0x3c271c88	0.0101996735
19	0x3bdd2060	0.006748244
20	0xbc1bdedb	-0.009513582
21	0x3b197931	0.0023418183
22	0x3a93bb4b	0.0011271028
23	0x3bdbac02	0.0067038545
24	0x3c1b605a	0.009483421
25	0x3c555dba	0.013022834
26	0xbcbcfc1e	-0.023069438
27	0xbbbeee6b	-0.0058267615
28	0x3d222f39	0.039595816
29	0xbc5e9fae	-0.013587875
30	0x3d658752	0.056037255
31	0x3d0f6db1	0.03501672
32	0x3d427e02	0.04748345
33	0x3d828a5d	0.06374047
34	0x3d34e0fa	0.044159867
35	0xbcfe21e7	-0.031022025
36	0xbd246ee3	-0.040144812
37	0xbd40bd25	-0.047055382
38	0xbd5cf5d8	-0.053945392
39	0xbc8aa24e	-0.016923096
40	0xbb69843f	-0.0035631803
41	0xbd328edd	-0.043593276
42	0x3c5275af	0.012845441
43	0xbcdaea6a	-0.026723105
44	0xbd290a8c	-0.041269824
45	0x3c831071	0.01599905
46	0x3a73a0f3	0.00092936977
47	0x3c7997fa	0.015233988
48	0xbd323e6e	-0.04351657
49	0xbd05c454	-0.032657936
50	0xba6732d4	-0.00088195247
51	0xbd420ed8	-0.047377437
52	0x393846ca	0.00017573978
53	0x3c04065c	0.008058157
54	0x3cb5ed3d	0.02220785
55	0xbb6f994c	-0.0036559878
56	0x3d639735	0.055564124
57	0xbab69a9e	-0.0013931578
58	0x3c0b525f	0.0085035255
59	0x3c16cf76	0.009204736
60	0x3d027d57	0.031857815
61	0x3c9072f7	0.017632945
62	0x3cc137e1	0.023586215
63	0xbd1a1ad4	-0.03762324
64	0x3cd275b3	0.025690889
65	0xbcb24c40	-0.021764874
66	0xbd5eb8fb	-0.05437563
67	0xbcafbfaa	-0.021453697
68	0xbd51d72a	-0.051230587
69	0x3bd429c8	0.0064747073
70	0xbc4d4f33	-0.01253109
71	0xbcb936aa	-0.022609074
72	0x3aad3ad1	0.0013216381
73	0xbbaf8480	-0.0053563714
74	0xbc25dfa9	-0.0101241255
75	0x3c25d698	0.010121964
76	0x3c0d7ce9	0.008635738
77	0x3d0971d6	0.033555828
78	0xbc845159	-0.01615207
79	0x3ca44772	0.020053599
80	0x3c4b54a8	0.01241032
81	0xbb800040	-0.00390628
82	0xbcfd41e9	-0.030915217
83	0x3c4e9c10	0.01261045
84	0x3c05ab6e	0.008158548
85	0x3c444a1f	0.0119805625
86	0xbb9096ad	-0.004412493
87	0x3d1f1434	0.038837627
88	0xbccf8f09	-0.02533676
89	0xbc947aaf	-0.018124906
90	0x3c69b9e7	0.014265514
91	0x3cafffc6	0.021484267
92	0xbc66b936	-0.014082244
93	0xbc954e64	-0.018225856
94	0x3cde29fa	0.027119625
95	0xbcdecd6a	-0.027197558
96	0x3c3ba17d	0.011452076
97	0xbac75cc5	-0.0015210143
98	0x3c31d06e	0.010852916
99	0xbcd668b3	-0.026172971
100	0x3d2d2b33	0.042277526
101	0x3d23747b	0.039906006
102	0xbc342594	-0.010995287
103	0xbc991741	-0.018687846
104	0x3cd829f4	0.026387192
105	0x3c984e76	0.0185921
106	0x3d55ed86	0.052228473
107	0x3a3f1b5a	0.00072901475
108	0x3b3f2ec6	0.0029172166
109	0x3c29aaf7	0.010355703
110	0x3c2ee1ab	0.010673921
111	0xbd490d43	-0.049084913
112	0xbc694fe1	-0.014240236
113	0xba8c0d1b	-0.0010685058
114	0xbc3edf28	-0.011649884
115	0x3ca6e1bb	0.020371309
116	0x3c9df477	0.019281609
117	0x3c9c6cb6	0.019094806
118	0x3d13f352	0.03612072
119	0x3bcc6e51	0.0062387367
120	0x3c0fdd28	0.008780755
121	0xbb444664	-0.0029949183
122	0x3cafc217	0.021454854
123	0x3c9eccd7	0.019384785
124	0x3c5bfe19	0.013427281
125	0xbcd29531	-0.025705906
126	0xbcf46946	-0.029835355
127	0xbc314e19	-0.010821843
128	0xbd0fe100	-0.035126686
129	0xbba545d7	-0.005043726
130	0x3b8499db	0.0040466613
131	0x3d07c120	0.033143163
132	0x3d0c2291	0.034212653
133	0x3d001b8e	0.03127628
134	0x3d17e434	0.037082866
135	0x3cc01693	0.023448264
136	0xbc2397df	-0.009984939
137	0x3d698c22	0.057018407
138	0x3c16fbe5	0.00921533
139	0x3d293698	0.04131183
140	0xbbb5d06d	-0.005548528
141	0xbc421b7f	-0.011847376
142	0xbca413fa	-0.020029057
143	0x3d255dc8	0.04037264
144	0x3ccf3208	0.025292411
145	0x3ccada65	0.024762342
146	0x3d0b9118	0.03407392
147	0x392b7052	0.00016349673
148	0x3d57208b	0.05252127
149	0x3d46055e	0.048344962
150	0x3bd0bdc8	0.00637028
151	0xbd43eafb	-0.047831517
152	0xbcb64b55	-0.022252718
153	0xbcb8ea45	-0.022572646
154	0xbb3728d9	-0.002794793
155	0x3d25cf12	0.04048068
156	0xba4fa80d	-0.0007921465
157	0xbc45d434	-0.012074519
158	0xbc870ee3	-0.01648659
159	0xbbc2993a	-0.005938676
160	0x3d524c88	0.051342517
161	0x3c9d250b	0.019182703
162	0x3c8702f5	0.016480902
163	0x3cb05c1a	0.021528292
164	0x3d22c14c	0.039735124
165	0xbb85c2cf	-0.004082061
166	0x3cde8bc9	0.027166264
167	0x3ca463b0	0.020067066
168	0xbcc4f2d4	-0.02404157
169	0x3c074008	0.008255012
170	0x3cb3a31a	0.021928359
171	0x3c87c3c8	0.016572848
172	0x3d12adf9	0.035810445
173	0xbca6d63c	-0.020365827
174	0x3ce710af	0.028206198
175	0x3d0f4710	0.03497988
176	0xbd072690	-0.03299576
177	0x3d255d7c	0.040372357
178	0xbc025409	-0.007954606
179	0x3d1bb4a5	0.038014073
180	0x3d406641	0.046972517
181	0x3c1f4bfd	0.009722707
182	0x3d1e873b	0.038703185
183	0x3ce1ba19	0.027554559
184	0x3cfa7825	0.030574868
185	0x3d313f2e	0.043273143
186	0x3bf8ecc3	0.0075965836
187	0x3d09551e	0.03352844
188	0x3d1635c3	0.036672365
189	0xbc09f2d2	-0.008419709
190	0x3cd3e3c7	0.025865449
191	0xbc876a04	-0.016530044
192	0xbba49cce	-0.0050235754
193	0x3c176b64	0.0092419125
194	0xbcec7b1a	-0.028867293
195	0x3ce4e961	0.027943315
196	0xbc927e46	-0.017882477
197	0x3cb774e1	0.0223946
198	0xbc8dd1ae	-0.017311897
199	0x3bc2936b	0.0059379837
200	0x3cac374d	0.021022463
201	0x3c8233e0	0.015893877
202	0x3bd385ee	0.0064551746
203	0xbc8d5edc	-0.017257147
204	0xbb9e3dd2	-0.004829147
205	0xbc969f71	-0.018386574
206	0x3ae172d9	0.0017200365
207	0xbd2f28a7	-0.04276338
208	0xbc93cbb9	-0.018041478
209	0x3bb96ebc	0.0056589525
210	0x3a4dd345	0.0007851611
211	0x3d70971f	0.05873787
212	0x3c5a46e4	0.013322566
213	0x3d44a95c	0.048013076
214	0x3d328be7	0.043590453
215	0x3c9fe887	0.019520057
216	0x3c466a21	0.012110264
217	0xbc5ba6db	-0.013406481
218	0x3b696ace	0.003561664
219	0xbca0d4f5	-0.019632796
220	0x3d43ef79	0.0478358
221	0x3d33fb81	0.043941025
222	0x3c7287c0	0.014802873
223	0xbc88d380	-0.016702414
224	0xbce37368	-0.02776499
225	0x3c88eecb	0.016715428
226	0xbcbcdd5b	-0.02305477
227	0xbce5e570	-0.028063506
228	0x3b568d03	0.0032737858
229	0xbc68d8b8	-0.014211826
230	0xba28715e	-0.00064255844
231	0xbc082dd5	-0.008311708
232	0x3ada269b	0.0016643585
233	0x3c8d75ea	0.01726814
234	0x3b71acba	0.0036876635
235	0xba92b668	-0.0011193277
236	0x3d4183db	0.047244888
237	0xbb8712f8	-0.0041221343
238	0x3cb31339	0.021859752
239	0x3d0238dc	0.031792507
240	0x3cdc191c	0.026867442
241	0x3c351dec	0.011054497
242	0xba06dbb0	-0.00051444303
243	0xbc7d6263	-0.015465352
244	0x3d0ab55b	0.03386436
245	0x3d31d27f	0.043413635
246	0x3d2754e0	0.040852427
247	0x3d47cbaa	0.048778214
248	0x3ca78820	0.020450652
249	0x3cb1f923	0.021725243
250	0xbc06458f	-0.008195295
251	0xbca36bc8	-0.019948855
252	0x3d3b07c8	0.045661718
253	0x3b723b16	0.0036961487
254	0xbc2168e6	-0.00985167
255	0x3d9514af	0.07279336

bias f4 [32]
0	0xbdc0c905	-0.094133414
1	0xbe068319	-0.13135947
2	0xbaa959d5	-0.0012920449
3	0x3b0bf054	0.0021352964
4	0xbda0f1e7	-0.07858639
5	0xbd04dbe8	-0.03243628
6	0xbc952913	-0.018208062
7	0xbdfc3367	-0.12314492
8	0xbc85b489	-0.016321437
9	0xbdfa0134	-0.12207261
10	0xbd7563aa	-0.0599095
11	0xbc9a4a3c	-0.018834226
12	0xbd0704ed	-0.032963682
13	0xbdb418a8	-0.08793765
14	0xbd7ee313	-0.062228274
15	0x3becabf9	0.007222649
16	0xbd8f219a	-0.06988831
17	0xbc5bc3bf	-0.013413369
18	0xbdd0a1c3	-0.101871036
19	0xbcc1e084	-0.023666628
20	0x3d8a8fc1	0.067657
21	0xbcf4a179	-0.029862152
22	0xbd746322	-0.059664853
23	0xbd7913e7	-0.060809996
24	0xbd0cd93c	-0.03438686
25	0xbd909fd6	-0.07061736
26	0x3bd797c7	0.0065793726
27	0xbd373dc9	-0.044736657
28	0xbddd314e	-0.1080042
29	0xbd34bff2	-0.044128366
30	0xbd9b6e40	-0.07589388
31	0x3cfcbc6d	0.030851567

weight f4 [64, 32, 5, 5]
0	0x3c86159a	0.016367722
1	0x3c90cb1d	0.017674977
2	0x3bbe15b1	0.0058009257
3	0x3ca574d3	0.020197308
4	0xbcb61c89	-0.022230403
5	0x3c4f3252	0.012646275
6	0x3c45d5bd	0.012074885
7	0x3b16af59	0.00229927
8	0x3d3d4779	0.04621074
9	0x3cc4c3c1	0.024019124
10	0xbc8f17fa	-0.017467488
11	0xbc2a3938	-0.010389619
12	0x3d5bcde2	0.053663142
13	0x3c10d17c	0.0088390075
14	0xbc33b385	-0.010968094
15	0x3cd4caa4	0.025975533
16	0xbcc2cac6	-0.02377833
17	0x3c1a4605	0.009416108
18	0x3d1bbb6c	0.038020536
19	0x3cc8273a	0.024432767
20	0xbca9b3c7	-0.020715607
21	0xbc8c66a1	-0.017138781
22	0x3d0c6fe7	0.034286406
23	0xbbd1ab6e	-0.00639861
24	0x3a849695	0.0010115678
25	0xba9096e4	-0.0011031297
26	0xbcff8dca	-0.03119554
27	0xbc2f23fb	-0.010689731
28	0x3cd42a0f	0.025898961
29	0x3bfc09bb	0.0076915896
30	0x3c3dae36	0.01157718
31	0xbd1f558c	-0.038899943
32	0x3cc5ee35	0.024161438
33	0xbaea44b2	-0.0017873256
34	0xbca5fb74	-0.020261504
35	0xbd574f81	-0.052566055
36	0x3c31cff2	0.010852801
37	0x3d2d7b41	0.042353872
38	0x3c8c0c62	0.017095748
39	0x3c0e105e	0.008670894
40	0x3ce73cda	0.028227258
41	0x3cacbc48	0.021085873
42	0xbd6f60a2	-0.058441766
43	0xbc959ca6	-0.018263172
44	0x3d7b07d4	0.061286762
45	0xbc381d42	-0.011237444
46	0xbcd1c96f	-0.025608746
47	0x3d421d1c	0.047391042
48	0x3c651b0f	0.013983502
49	0x3cd58d4a	0.026068348
50	0xbc125094	-0.008930344
51	0xbcbb4077	-0.022857888
52	0x3d061673	0.032736253
53	0x3bddcde6	0.00676893
54	0xbcc29bf2	-0.023756001
55	0x3cc28a6f	0.02374765
56	0xbc9e0ef6	-0.019294243
57	0x3d141861	0.036156062
58	0x3abcc9e7	0.0014403433
59	0xbc97e2ed	-0.018540824
60	0xbc8c1e57	-0.01710431
61	0xbc39169b	-0.0112968935
62	0x3bcc68a1	0.0062380587
63	0x3d03ee9f	0.03220999
64	0xbc8295c9	-0.015940564
65	0x3ce50095	0.02795438
66	0x3d226d2f	0.039654907
67	0xbce6032a	-0.02807768
68	0xbb83a4d9	-0.004017454
69	0xbb46c00f	-0.0030326878
70	0xbcf9cca8	-0.030493096
71	0xbc88de0e	-0.016707446
72	0xbcebe81c	-0.028797202
73	0xbb8e2780	-0.004338205
74	0xbce6f9d1	-0.028195294
75	0xbcaa7423	-0.020807331
76	0xbbcb5258	-0.0062048845
77	0xbc274105	-0.010208373
78	0xbcd8ffb4	-0.026489116
79	0xbb241c0c	-0.0025041131
80	0x3c32ba8e	0.010908736
81	0xbbaa5af6	-0.0051988317
82	0xbca40872	-0.020023558
83	0xbcab9343	-0.020944243
84	0x3b868880	0.0041056275
85	0xbd40f879	-0.047111962
86	0x39e8db1a	0.00044413732
87	0xbbbe5742	-0.005808742
88	0x3cc5be56	0.02413861
89	0xbd1c44d3	-0.038151573
90	0xbb10af07	-0.002207698
91	0xbc2035b4	-0.009778429
92	0x3c22a36a	0.009926656
93	0xbce887ca	-0.028385062
94	0xbcc8dfc2	-0.024520759
95	0xbcba98c4	-0.022777922
96	0x3c2b348e	0.010449542
97	0xbcf3397d	-0.029690498
98	0x3c143923	0.009046826
99	0x3cebef8e	0.028800752
100	0xbcb97c58	-0.0226423
101	0xbd4585d4	-0.04822333
102	0xbced6e48	-0.02898325
103	0x3bd75d17	0.0065723765
104	0x3d15d41e	0.036579244
105	0xbc65d67e	-0.01402819
106	0xbd19767f	-0.037466522
107	0x3b1a8d83	0.0023582883
108	0x3c1d8b5f	0.009615748
109	0xbc36690b	-0.011133443
110	0x3cb7500d	0.022377038
111	0xbba2fe13	-0.0049741357
112	0xbc8fc586	-0.017550241
113	0xbaf24528	-0.0018483745
114	0x3cb1fbc1	0.02172649
115	0x3d158b12	0.03650958
116	0xbcf0ac88	-0.029379144
117	0xbc921d37	-0.017836196
118	0x3d122499	0.035679433
119	0x3ccc8afb	0.024968615
120	0xbc3b397c	-0.01142728
121	0xbc1963a3	-0.009362134
122	0x3c007acf	0.00784178
123	0xbc2b1470	-0.010441884
124	0x3c4713a3	0.012150678
125	0x37c03fcf	2.2917897e-05
126	0xbc01a93f	-0.007913887
127	0xbc022640	-0.00794369
128	0x3cd156ec	0.025554143
129	0x3cc385a2	0.023867432
130	0x3ac74256	0.0015202265
131	0xbbdd65b8	-0.0067565106
132	0xbc00619f	-0.007835775
133	0xbb70189d	-0.0036635764
134	0xba09df7a	-0.0005259436
135	0xbd2d82cc	-0.042361066
136	0xbd3b99a9	-0.04580084
137	0x3d056d3f	0.03257489
138	0x3c24d838	0.010061316
139	0x3c413c8f	0.011794223
140	0x3bf7052e	0.0075384593
141	0xbbe337c7	-0.0069341394
142	0x3d0ddc10	0.034633696
143	0xbb806c2c	-0.003919145
144	0x3ca3dabb	0.02000176
145	0x3cd54250	0.026032597
146	0xbd09a306	-0.033602737
147	0x3c96b188	0.0183952
148	0x3c5486ea	0.012971619
149	0xbc20a1c7	-0.009804196
150	0x3b853e67	0.004066277
151	0xbcbafe28	-0.02282627
152	0x3d0f67f0	0.035011232
153	0x3b7835e8	0.0037873928
154	0xbbeadb33	-0.007167244
155	0x3cfcc73a	0.030856717
156	0x3cf8ef9a	0.030387688
157	0x3cbd9ca0	0.023145974
158	0xbd3dae39	-0.04630873
159	0xbbe3199f	-0.0069305445
160	0x3d260ae0	0.040537715
161	0xbcc763df	-0.024339614
162	0xbd04cbb0	-0.032420814
163	0xbaca7cf0	-0.0015448611
164	0x3d066086	0.032806896
165	0x3c3ba33d	0.011452493
166	0x3d012cea	0.031536974
167	0x3d293d6b	0.04131834
168	0x3c1a57f0	0.00942038
169	0xbc0d66ad	-0.008630437
170	0x3bdd2130	0.006748341
171	0xba9935d3	-0.0011689015
172	0xbc8e972f	-0.017406074
173	0xbc42d6c9	-0.011892029
174	0x3d437cd1	0.047726456
175	0xbc84b952	-0.016201649
176	0xbba5a249	-0.0050547463
177	0xb9eba2cc	-0.00044943986
178	0x3d197297	0.037462797
179	0xbc4b4db0	-0.012408659
180	0xbca449e0	-0.020054758
181	0xbcc48f18	-0.023994014
182	0xbb7455af	-0.0037282517
183	0x3d28672a	0.04111401
184	0x3cd4b5e7	0.025965644
185	0x3b33a3c3	0.0027410842
186	0x3cb34731	0.021884533
187	0x3cf6d512	0.030130897
188	0x3c73b2bc	0.014874157
189	0x3d0829ec	0.033243105
190	0x3c491cc3	0.012274924
191	0xbd00006b	-0.0312504
192	0xbcb4bb82	-0.022062067
193	0x3a499c70	0.00076908525
194	0xbca6f7c9	-0.020381825
195	0xba8b100b	-0.001060964
196	0xbcc06110	-0.023483783
197	0xbb9ad63e	-0.0047252467
198	0x3be13501	0.0068727736
199	0x3d216e8e	0.039412074
200	0xbca7c47a	-0.02047943
201	0xbcc4042e	-0.023927774
202	0xbd0eece4	-0.034893885
203	0xbc33b940	-0.01096946
204	0x3cf0ef80	0.029411077
205	0xbc9d84ca	-0.019228358
206	0x3aefdb31	0.0018299577
207	0x3b932bd8	0.0044913106
208	0x3c9a3d26	0.018827986
209	0xbd08cf3c	-0.03340076
210	0xbce00aa2	-0.02734882
211	0x3c7e267e	0.015512107
212	0x3bcf4837	0.0063257474
213	0xbd11293a	-0.035439707
214	0xbbde208e	-0.006778783
215	0x3b93af44	0.0045069773
216	0x3cd20bf3	0.025640463
217	0xbd135da4	-0.035977975
218	0x3c8e2db6	0.017355781
219	0x3cbdd85f	0.023174463
220	0x3c7c70d3	0.015407759
221	0xbcaf8cc5	-0.021429429
222	0x3ba48ca6	0.0050216494
223	0x3d0ba312	0.034091063
224	0x3ca3b49f	0.019983588
225	0xbb4ab3dd	-0.003092996
226	0xbcb367cf	-0.021900086
227	0xbd28195c	-0.04103981
228	0x3d0d74f3	0.03453536
229	0xbbd4974f	-0.006487764
230	0xbc876325	-0.016526768
231	0xbcb2410c	-0.021759532
232	0xbce2a3be	-0.027665969
233	0xbb6d0491	-0.0036166052
234	0x3cbc38bf	0.022976277
235	0xbbba8ee0	-0.0056933016
236	0xbd420198	-0.0473648
237	0x3b08b2dc	0.0020858562
238	0x3913367e	0.00014039312
239	0x3bdcb4f0	0.0067354366
240	0xbc9047ea	-0.017612416
241	0xbb3241d9	-0.0027199893
242	0x3d325dac	0.043546364
243	0xbc869cc6	-0.016432177
244	0x3cb91d7f	0.022597073
245	0x3b0a3cbb	0.0021093327
246	0x3c96b233	0.018395519
247	0xbcf404fa	-0.02978753
248	0xbd0076e6	-0.03136339
249	0x3ce9702c	0.02849587
250	0xbd1118e5	-0.035424132
251	0xbc74325c	-0.014904585
252	0xbce9e1e7	-0.028550101
253	0xbd0c3696	-0.034231745
254	0x3ba32ee0	0.004979953
255	0xbcea07d2	-0.028568182

bias f4 [64]
0	0xbc4fb95b	-0.0126784695
1	0xbcf5c7a0	-0.030002415
2	0xbd84eadb	-0.064901076
3	0xbc4924ea	-0.012276867
4	0xbd053c87	-0.032528426
5	0xbd5fc932	-0.054635234
6	0xbda1374f	-0.078718774
7	0xbd121245	-0.035661954
8	0xbd735a48	-0.05941227
9	0x3c5410e9	0.012943485
10	0xbac96702	-0.0015365782
11	0xbcae47dd	-0.021274501
12	0xbd842237	-0.064518385
13	0x3cb9d26a	0.022683341
14	0x3cbb4d66	0.022864055
15	0x3d28f611	0.041250292
16	0xbcfc6951	-0.030811938
17	0xbceecc61	-0.02915019
18	0xbccd9c8e	-0.025099065
19	0xbb34a0a9	-0.0027561581
20	0x3acbb9eb	0.0015543079
21	0xbca14a1a	-0.019688655
22	0xbb1694f7	-0.0022976974
23	0xbd376f33	-0.044783782
24	0xbd261b6a	-0.040553488
25	0xbc8a0319	-0.01684718
26	0xbd46abbe	-0.04850363
27	0xbd57ee34	-0.052717403
28	0x3ca0e936	0.019642454
29	0xbab41ea2	-0.001374204
30	0x3c732d15	0.014842291
31	0xbc947edb	-0.018126896
32	0x3bc3bd65	0.0059735053
33	0xbba9a72a	-0.005177398
34	0xbd78200d	-0.06057744
35	0x3cffdc5f	0.03123301
36	0x3c9dfc61	0.019285383
37	0xbd0f156f	-0.03493255
38	0xbd1efdf0	-0.038816392
39	0xbcc09012	-0.023506198
40	0xbd3e31fc	-0.046434388
41	0xbc8a5294	-0.01688508
42	0xbcc6a915	-0.024250546
43	0x3d0ddbb7	0.034633365
44	0x3aaafd6d	0.0013045497
45	0x3cce41fb	0.025177946
46	0xbc3cd4c8	-0.01152534
47	0xbc87a253	-0.016556894
48	0xbda89cb4	-0.08233014
49	0xbc13e154	-0.00902589
50	0xbc44293b	-0.011972721
51	0xbd56936a	-0.05238668
52	0xbaa1e400	-0.0012351274
53	0xbbecd81c	-0.0072279107
54	0xbd1918d7	-0.037377205
55	0xbc8e0583	-0.017336613
56	0x3b93b0b7	0.00450715
57	0xbcf262fa	-0.029588211
58	0x3ce2a882	0.027668241
59	0xbd4027d5	-0.046912987
60	0xbd0b79cb	-0.034051698
61	0xbd0ca588	-0.03433755
62	0xbd34a139	-0.044099066
63	0xbc9474bb	-0.018122068

weight f4 [64, 1024]
0	0xbb74cc42	-0.0037353192
1	0x3c11fd83	0.00891054
2	0xbcbc09fd	-0.022953982
3	0x3cced3b3	0.02524743
4	0x3c9f58ba	0.019451488
5	0x3d0487c0	0.032356024
6	0xbc60c0c1	-0.013717831
7	0xbc4027d4	-0.011728246
8	0x3c421310	0.011845365
9	0x3b5e3d65	0.0033911106
10	0xbd310c82	-0.04322482
11	0x3c2409cb	0.0100121
12	0x3d0e9bb5	0.034816463
13	0x3cb92243	0.022599345
14	0x3b0c472c	0.0021404726
15	0xbbde5bb5	-0.0067858347
16	0xbcc7fead	-0.024413431
17	0x3d18f49b	0.03734265
18	0x3c89df53	0.016830122
19	0xbcd38fc3	-0.025825387
20	0x3c854618	0.016268775
21	0x3cf36943	0.029713279
22	0xbc4d33b2	-0.012524532
23	0x3bd57679	0.006514367
24	0x3c36de48	0.011161394
25	0x3cff93b8	0.031198367
26	0xbc404b1c	-0.0117366575
27	0x3c326e52	0.01089056
28	0xbc7ad4b0	-0.015309498
29	0x3b1a0010	0.0023498572
30	0x3cd30d92	0.025763307
31	0x3c132ec8	0.0089833215
32	0x3c688107	0.014190919
33	0x3c971c3f	0.018446086
34	0x3b7de072	0.0038738516
35	0x3ce54ff1	0.02799222
36	0x3d29039f	0.04126322
37	0x3c9a226d	0.018815244
38	0x3c80b1d3	0.015709793
39	0x3c0544d2	0.008134084
40	0x3cdfc299	0.027314471
41	0xbcb2d7f2	-0.021831486
42	0x3c05d120	0.008167535
43	0x3ccb478e	0.024814393
44	0xbc40a4b4	-0.011758018
45	0xbb159b62	-0.002282821
46	0x3d00beb9	0.031431887
47	0xbcd0b612	-0.025477443
48	0x3cbc1638	0.022959813
49	0xbbccd5a8	-0.0062510557
50	0xbc58fbae	-0.013243599
51	0x3bee2600	0.0072677135
52	0xbc8a882e	-0.016910639
53	0x3cc4b1d7	0.024010582
54	0xbc535d66	-0.012900686
55	0xbcf10147	-0.029419554
56	0x3c02f4a0	0.007992893
57	0x3ccc220d	0.02491858
58	0x3bf3edb9	0.0074441102
59	0xbd1f5053	-0.038894963
60	0xbd0b142c	-0.033954784
61	0xbaaf7c45	-0.0013388476
62	0x3c7181a1	0.014740379
63	0x3b174ba5	0.002308586
64	0xbc3bddec	-0.0114664845
65	0x3b184e8d	0.002324018
66	0x3d029934	0.031884387
67	0x3c3e393d	0.011610326
68	0x3ca7c221	0.02047831
69	0xbc90d64b	-0.017680308
70	0xbb7af82e	-0.00382949
71	0xbc88d46c	-0.016702853
72	0x3c070a7a	0.008242244
73	0x3c2ab739	0.01041966
74	0x3cb55be6	0.022138547
75	0xbb3bc960	-0.0028653964
76	0xbccbbf95	-0.024871627
77	0xbb0b9710	-0.0021299757
78	0xbc8f2a71	-0.017476292
79	0x3c296773	0.010339606
80	0x3c04e270	0.0081106275
81	0x3cb9ad56	0.02266566
82	0xbce402af	-0.02783331
83	0x3b15b5e4	0.002284401
84	0xbc597ac7	-0.013273901
85	0x3d5985ff	0.053106304
86	0x3c67d046	0.014148777
87	0x3cb1bfc1	0.02169788
88	0xbcd39caf	-0.025831548
89	0x3cdbd578	0.026835188
90	0x3ca2876b	0.019839963
91	0xbcd11920	-0.025524676
92	0xbb129fde	-0.002237312
93	0x3c899e41	0.016799094
94	0x3cc24556	0.023714703
95	0xbcadcd13	-0.021215951
96	0xbceed072	-0.029152129
97	0xb9995c61	-0.00029251262
98	0x3ce180e9	0.02752729
99	0xbc2f34a8	-0.010693707
100	0x3c5b637f	0.013390421
101	0x3d33c8ee	0.043892793
102	0x3c76a8eb	0.015054922
103	0xbca655d6	-0.020304602
104	0xbb953f17	-0.00455464
105	0xbca68425	-0.020326683
106	0x3b0df3d0	0.0021660216
107	0x3ca1c17e	0.019745585
108	0xbb86fb84	-0.0041193385
109	0x3b8a3c45	0.0042186105
110	0xbcbeb0b4	-0.023277618
111	0xbc491bc7	-0.012274689
112	0x3c417ffb	0.011810298
113	0xbb9172d7	-0.004438739
114	0xbc019f09	-0.007911452
115	0x3c61491f	0.013750344
116	0x3c41643f	0.011803686
117	0xbd0935c4	-0.03349854
118	0xbc492f8c	-0.012279402
119	0xbc98d75b	-0.018657377
120	0xbbce0503	-0.0062872185
121	0x3c7d57a5	0.015462791
122	0xbc091d0b	-0.008368741
123	0x3c8b080a	0.016971607
124	0x3cc2c5e8	0.02377601
125	0xbc57180d	-0.013128293
126	0x3b7224ad	0.003694813
127	0x3c5b5c2e	0.013388677
128	0xbc8145a5	-0.01578028
129	0x3d177a0a	0.03698162
130	0x3cc51db4	0.024062015
131	0x3ceee2d2	0.02916089
132	0x3ba67916	0.0050803525
133	0x3aa88563	0.0012857135
134	0xbc4fe39f	-0.012688546
135	0xbc44ff5a	-0.012023771
136	0x3cc24281	0.023713352
137	0x3b33f3f9	0.0027458651
138	0xbcbd86f4	-0.02313564
139	0x3c355ab6	0.01106899
140	0x3bf54750	0.0074853078
141	0x3ce246e4	0.027621694
142	0xbd1a0eda	-0.03761182
143	0xbd1758ac	-0.0369498
144	0x3ca9c204	0.020722397
145	0xbb2ba40d	-0.0026190311
146	0x3c4dc84c	0.0125599615
147	0xbcc2e1e0	-0.023789346
148	0xbc671692	-0.014104502
149	0xbab741ef	-0.0013981442
150	0xb9db5b7e	-0.00041839102
151	0xbcc2b206	-0.023766529
152	0xbb5fd57d	-0.0034154349
153	0x3d16cec2	0.036818273
154	0x3d0a5f6b	0.033782404
155	0x3d0126aa	0.031531014
156	0x3aea497c	0.0017874683
157	0x3c8eed6c	0.017447196
158	0xbc7669e0	-0.015039891
159	0x3be789d8	0.007065993
160	0x3ce32724	0.027728625
161	0x3bff82d9	0.0077975807
162	0xbc2d395a	-0.010572756
163	0xbba05cd5	-0.004893879
164	0xbc80657d	-0.015673393
165	0xbc1d9a74	-0.009619344
166	0x3cdfb9b5	0.027310232
167	0xbb168e00	-0.0022972822
168	0x3d021b62	0.031764396
169	0xbc91d13c	-0.017799966
170	0xbae1e808	-0.0017235288
171	0xbc0dc5c2	-0.008653106
172	0x3ba19c62	0.0049319724
173	0xbb1f3e75	-0.0024298702
174	0x3cdce2e9	0.026963668
175	0xbcc9d70c	-0.024638675
176	0xbcb478f4	-0.022030331
177	0xbc979462	-0.018503372
178	0x386a315d	5.583592e-05
179	0xbb479234	-0.0030452134
180	0x3b2ae2ca	0.0026075118
181	0x3d0d31a9	0.034471188
182	0xbc99fecb	-0.018798253
183	0xbcc51041	-0.024055602
184	0xbc650d1f	-0.013980179
185	0x3d3a45df	0.04547679
186	0x3c193c8b	0.0093528135
187	0x3c68d2e7	0.014210439
188	0xbcdeb3e3	-0.027185386
189	0x3cfb0300	0.030641079
190	0xbcda6fd5	-0.026664654
191	0x38bf24ae	9.114422e-05
192	0x3c98ea73	0.018666482
193	0x3c41222e	0.011787934
194	0xbcd16abc	-0.02556359
195	0x3c92fdab	0.017943224
196	0x3cd01bd8	0.025403902
197	0x3d1d27da	0.038368084
198	0x3d04d757	0.032431927
199	0xba9265fc	-0.001116931
200	0x3c210899	0.00982871
201	0x3d17fb75	0.037105042
202	0xbcdd8209	-0.027039545
203	0xbc112ec9	-0.008861252
204	0xbbe7ef70	-0.0070781037
205	0xbc18be4b	-0.009322713
206	0xbcaa3587	-0.020777477
207	0xbc91a8bb	-0.017780652
208	0x3d2f3248	0.04277256
209	0x3cfe1f56	0.031020802
210	0x3caa6d60	0.020804107
211	0x3c86df96	0.016464036
212	0x3cfe9068	0.031074718
213	0xbd08dd74	-0.03341432
214	0x3a39bd72	0.00070854195
215	0x3cb5a34f	0.022172598
216	0x3c0cd761	0.008596272
217	0x3ce76201	0.028244974
218	0x3b4c0c37	0.003113521
219	0x3c855ca2	0.016279522
220	0x3baa4832	0.0051965946
221	0x3cfe5819	0.031047868
222	0x3c51151f	0.012761383
223	0xbcc4dcc3	-0.024031049
224	0x3caf0894	0.021366395
225	0xbd083241	-0.03325105
226	0xbcb66d1d	-0.022268826
227	0xbc9d6b3b	-0.01921617
228	0xbc922bdc	-0.01784318
229	0x3c8fde20	0.017561972
230	0xbb5c294a	-0.0033593946
231	0x3cb9c6b0	0.02267775
232	0xbd2430a6	-0.040085457
233	0xbcf8a750	-0.030353218
234	0xbca5b0d8	-0.020225927
235	0x3cc0b7d7	0.023525162
236	0x3c18de55	0.009330352
237	0x3c408322	0.0117500145
238	0x3c27e9bb	0.010248597
239	0xbc8139b9	-0.015774595
240	0xbd21386b	-0.039360445
241	0xbc283fa1	-0.010269077
242	0x3cf9b45e	0.030481514
243	0xbad6d6b7	-0.0016390894
244	0xbc9b11c5	-0.018929372
245	0xbcd6e87b	-0.026233902
246	0x3c2c9c6b	0.01053534
247	0xbcdf8fcd	-0.02729025
248	0xbcb9bf01	-0.022674086
249	0xbc35820c	-0.011078369
250	0x3b134aa9	0.002247492
251	0xbc962af2	-0.018331025
252	0xbca970cd	-0.02068367
253	0xbbf8a031	-0.0075874557
254	0x3abe2ed3	0.0014509804
255	0x3c9bb5b6	0.019007545

bias f4 [64]
0	0xbd01a188	-0.03164819
1	0xbd14331d	-0.036181558
2	0x3ca522c3	0.020158177
3	0xbc791440	-0.015202582
4	0x3c02be31	0.0079799155
5	0x3bd9e189	0.0066492003
6	0x3afc5529	0.0019251454
7	0x3c6b5735	0.0143640535
8	0xbd207451	-0.039173428
9	0xbcb5111b	-0.022102883
10	0x3ab2477b	0.0013601625
11	0xbc724380	-0.014786601
12	0x3cc70e0d	0.024298692
13	0x3b812efc	0.0039423686
14	0xbce2cf72	-0.027686808
15	0x3c972132	0.018448446
16	0xbc3e2c30	-0.011607215
17	0x3c76f44c	0.015072893
18	0xbc375124	-0.011188779
19	0x3d4abc5f	0.04949605
20	0x3c7dbc36	0.0154867675
21	0x3d7b744a	0.0613902
22	0x3d4213c1	0.04738212
23	0xba107209	-0.00055101566
24	0x3b3663b2	0.002783042
25	0xbd254609	-0.040349994
26	0x3c177ecf	0.009246542
27	0xbca36a3f	-0.019948123
28	0xbd21cbd3	-0.039501023
29	0xbd5568c5	-0.05210187
30	0x3cceb547	0.025232924
31	0xbad65879	-0.0016353271
32	0xbce2391c	-0.027615122
33	0x3cf47735	0.029841999
34	0xbd02e165	-0.031953234
35	0x3d009cc2	0.031399496
36	0xbce2132a	-0.027597029
37	0x3da68a71	0.08131874
38	0xbb6e40ab	-0.0036354463
39	0x3c5fafcd	0.013652754
40	0xbb450387	-0.0030061917
41	0x3c9497d4	0.018138804
42	0xbd0c7563	-0.034291636
43	0x3d20f2d0	0.039294064
44	0x3c3f1da5	0.011664783
45	0xbce6b5ae	-0.028162804
46	0xbd33281c	-0.043739423
47	0xbc9c4de7	-0.019080115
48	0x3d4431bf	0.047899004
49	0x3c9c926b	0.019112786
50	0xbb8ee889	-0.0043612164
51	0x3c54f912	0.012998836
52	0xbc6a047c	-0.014283296
53	0x3cb460ef	0.022018878
54	0xbb299799	-0.0025877713
55	0x3d6bc5cb	0.057561677
56	0x3c909df5	0.017653445
57	0x3ac86654	0.0015289285
58	0xbd74cceb	-0.059765738
59	0xbcdc4330	-0.026887506
60	0x3d089a35	0.03335019
61	0xbbc50233	-0.006012225
62	0xbd40ba10	-0.047052443
63	0x3c275926	0.010214126

weight f4 [10, 64]
0	0xbdbfbb8f	-0.09361946
1	0xbd0c2c29	-0.034221802
2	0xbcbc5dfd	-0.022994036
3	0xbd39cf27	-0.04536357
4	0x3d957afe	0.072988495
5	0xbe1d6d15	-0.15373643
6	0x3e320d64	0.1738792
7	0x3d9f28e7	0.077714734
8	0x3dad4a0d	0.0846139
9	0xbe280b23	-0.16410498
10	0xbd987e3d	-0.07445953
11	0x3d2775b8	0.04088375
12	0x3c84778b	0.016170284
13	0x3d66583c	0.05623649
14	0xbbcb202e	-0.0061989045
15	0xbdec94c6	-0.11551814
16	0x3bb6a5e4	0.005573975
17	0xbe14e8ad	-0.14541884
18	0x3cd2deba	0.02574097
19	0xbdc1e6d1	-0.09467853
20	0xbad77bae	-0.0016440058
21	0xbdebf86e	-0.115219936
22	0xbe5e2a18	-0.21695745
23	0xbc286302	-0.010277512
24	0xbe14cd86	-0.14531526
25	0xbd9bbb39	-0.07604069
26	0xbd7b3374	-0.061328366
27	0xbd071e45	-0.03298785
28	0xbdb4d6b6	-0.08830015
29	0x3db9b47a	0.09067626
30	0xbd0e7c66	-0.034786604
31	0xbe0df314	-0.13862258
32	0x3d931f3c	0.07183692
33	0x3e40f418	0.18843114
34	0xbda62527	-0.08112555
35	0xbda20bd9	-0.07912416
36	0x3ccf1df8	0.025282845
37	0xbde9d0a2	-0.11416747
38	0xbdcab46a	-0.098976925
39	0xbd97ce06	-0.07412343
40	0x3d12503d	0.035721052
41	0x3e6ef1ae	0.23334381
42	0xbe09b540	-0.13448048
43	0xbe57f570	-0.2108972
44	0x3d27cf54	0.040969208
45	0x3e261f89	0.16222967
46	0x3e375712	0.17904308
47	0xbc6fcb43	-0.014635864
48	0xbdf808e9	-0.121110745
49	0x3d1f6340	0.03891301
50	0xbe55424a	-0.20826069
51	0x3de218f4	0.11039916
52	0x3d9e1be6	0.07720165
53	0xbdfeafdf	-0.124358885
54	0x3d386d77	0.04502627
55	0xbdfe191c	-0.12407133
56	0x3e067490	0.13130403
57	0xbe77cd82	-0.24199489
58	0x3e1a1c8a	0.1504995
59	0x3e4f1f17	0.20226704
60	0xbe5c1e8e	-0.2149603
61	0xbdf6f506	-0.12058453
62	0x3e4055be	0.18782708
63	0xbde2e0c9	-0.110780306
64	0xbe27813d	-0.16357894
65	0x3dc934b4	0.098245054
66	0x3e979699	0.29607084
67	0x3da7fc77	0.08202451
68	0xbde1214f	-0.10992681
69	0x3e211d97	0.15733944
70	0xbd013b23	-0.031550538
71	0xbe8338ff	-0.25629422
72	0x3e6cf3b6	0.23139843
73	0x3e535ebe	0.2064161
74	0xbe72e4ff	-0.23720168
75	0xbe58c828	-0.21170104
76	0xbd759d88	-0.059964687
77	0xbc5407aa	-0.01294128
78	0x3e01b977	0.12668405
79	0x3c166cee	0.009181244
80	0x3e33322e	0.17499611
81	0xbe65b489	-0.2243215
82	0x3e147172	0.14496401
83	0x3e028b58	0.12748468
84	0xbe7eb607	-0.24874125
85	0xbda6c3f5	-0.081428446
86	0xbd89f6b5	-0.06736509
87	0x3da4b5bb	0.08042475
88	0xbe1cbcd3	-0.15306406
89	0x3d7af8b2	0.06127233
90	0xbdefe462	-0.117134824
91	0xbcce3e0b	-0.025176069
92	0xbdf6d96f	-0.12053191
93	0xbc9dd0ad	-0.019264543
94	0xbd2b7b17	-0.041865434
95	0x3e23cd57	0.159963
96	0x3d20271e	0.039099805
97	0xbc717b54	-0.014738876
98	0x3ccc9528	0.024973467
99	0x3e458220	0.1928792
100	0x3dddf742	0.10838176
101	0xbdb8385f	-0.08995127
102	0x3e814bd9	0.2525318
103	0xbb3aad8b	-0.0028484787
104	0x3ddf992d	0.10917888
105	0x3d81af62	0.0633228
106	0x3e62242e	0.22084114
107	0x3dd1e746	0.1024919
108	0x3dbdbeab	0.09264883
109	0x3cfc59b1	0.030804487
110	0x3e3fb412	0.18721035
111	0x3e512623	0.20424704
112	0xbe0d8b6c	-0.13822716
113	0x3d39542e	0.045246296
114	0x3d8b7cee	0.06810938
115	0x3e378ac7	0.17924033
116	0xbdce8764	-0.100844175
117	0x3dac0e7a	0.08401199
118	0xbe300846	-0.17190656
119	0xbe168d53	-0.14702348
120	0x3dd20aa3	0.10255935
121	0xbd4cdb45	-0.0500138
122	0xbdffbf42	-0.124876514
123	0x3d0b674d	0.034034062
124	0xbea450ca	-0.32092887
125	0x3d440800	0.047859192
126	0xbdd417b4	-0.103560835
127	0x3e4df5cb	0.20113294
128	0x3de0e453	0.109810494
129	0x3df1ea77	0.11812299
130	0xbd60577a	-0.054770924
131	0x3dc86bdf	0.097862
132	0x3c4ab328	0.012371816
133	0xbe3b043e	-0.18263337
134	0x3ddb55b8	0.10709709
135	0x3c958ff6	0.018257122
136	0xbdef4af4	-0.11684218
137	0xbd1ceff8	-0.03831479
138	0xbde739a8	-0.11290294
139	0x3e626cfc	0.22111887
140	0x3bb39081	0.0054798727
141	0xbdb76b59	-0.08956022
142	0xbd734551	-0.059392277
143	0x3ac39cb8	0.0014924025
144	0xbe08ae46	-0.1334773
145	0x3dbb8108	0.0915547
146	0x3dac07d6	0.08399932
147	0x3e4d2768	0.20034564
148	0x3df850c2	0.12124778
149	0xbdb34752	-0.08753838
150	0xbdff9a9a	-0.1248066
151	0x3deaa32c	0.11456904
152	0xbd9236b8	-0.07139343
153	0xbcf3fbc0	-0.02978313
154	0x3b2503f7	0.0025179365
155	0xbdd4805a	-0.103760436
156	0x3e0048c6	0.12527761
157	0x3e0b8a77	0.13627039
158	0xbe1a554b	-0.15071599
159	0xbda811f9	-0.08206553
160	0xbda0f65d	-0.0785949
161	0xbe3a71ef	-0.18207525
162	0xbe3ccf12	-0.18438366
163	0xbe2838ae	-0.16427872
164	0xbb992683	-0.0046737804
165	0xbd5a34f6	-0.053273164
166	0x3cd9bcd6	0.026579302
167	0x3e3a55cc	0.18196791
168	0xbe15ef47	-0.14642058
169	0x3e80a4bc	0.25125682
170	0xbca68eaf	-0.020331709
171	0xbe31d0a3	-0.17364745
172	0xbd96738e	-0.07346259
173	0xbe0a1f59	-0.1348852
174	0xbd9f4808	-0.07777411
175	0xbe1e0bc2	-0.15434173
176	0xbd5906fc	-0.052985176
177	0xbd8e0130	-0.0693382
178	0x3df5f5ba	0.12009759
179	0xbdf202b2	-0.1181692
180	0xbe396af5	-0.18107207
181	0xbe0e4fda	-0.13897648
182	0x3e5ec3a9	0.21754326
183	0x3e06ab78	0.13151348
184	0xbc832089	-0.016006725
185	0xbdc4ddae	-0.096125945
186	0x3d9b614e	0.07586919
187	0x3dd961d6	0.10614364
188	0x3e0bccf8	0.13652408
189	0x3e1d42ad	0.15357466
190	0x3d5b8406	0.053592704
191	0x3d8d9e4a	0.06914957
192	0xbbb46c66	-0.005506086
193	0x3b1c2a73	0.0023829013
194	0xba6d5fce	-0.00090551085
195	0xbdc96d54	-0.09835306
196	0x3bfc4001	0.0076980595
197	0xbd8584bf	-0.0651946
198	0xbe194d4f	-0.14970897
199	0x3df73210	0.120700955
200	0x3e05b7e8	0.13058436
201	0xbd6c8a95	-0.05774935
202	0x3d4db9c4	0.050225988
203	0x3dbf773f	0.09348916
204	0x3dff2fa5	0.12460259
205	0x3ce467ce	0.02788153
206	0xbddbabf7	-0.10726159
207	0x3d5d2fdd	0.054000724
208	0xbcebc014	-0.028778113
209	0x3e11aef7	0.142269
210	0xbdb2fcc9	-0.08739621
211	0x3e15a2fc	0.14612955
212	0xbcc2735e	-0.023736652
213	0x3e167231	0.14691998
214	0x3e35be6d	0.17748423
215	0xbdbeb5da	-0.09312029
216	0x3e61249c	0.21986622
217	0x3dbd1315	0.09232155
218	0xbe358afa	-0.17728797
219	0x3e4832bd	0.19550605
220	0xbca9c666	-0.020724487
221	0xbdf65fb9	-0.120299764
222	0xbdd81588	-0.10550982
223	0xbd328dfe	-0.043592446
224	0xbdb48daf	-0.088160865
225	0x3d96033b	0.07324835
226	0xbd9d3a1a	-0.076770976
227	0xbcb63f3e	-0.022246953
228	0xbdd3daa7	-0.10344439
229	0x3bc49bfb	0.0060000396
230	0x3c4f8d9e	0.0126680415
231	0xbe50bad7	-0.20383774
232	0xbda84e26	-0.08218031
233	0x3dc697cd	0.096969225
234	0xbd117f50	-0.035521805
235	0xbdb69dd4	-0.08916822
236	0xbe056be6	-0.13029441
237	0x3db815aa	0.08988507
238	0xbddfe601	-0.10932542
239	0x3ba5de26	0.0050618825
240	0xbddfc04d	-0.1092535
241	0xbdec9dfb	-0.1155357
242	0x3e2158f6	0.15756592
243	0xbc7d8242	-0.01547295
244	0xbd9c7118	-0.076387584
245	0xbdeceedc	-0.11568996
246	0xbdfb8405	-0.1228104
247	0x3e20cf1e	0.15704009
248	0x3d771733	0.06032486
249	0xbd3deb1f	-0.046366807
250	0xbe087ddd	-0.13329263
251	0xbccc99d6	-0.024975698
252	0x3e008eea	0.12554517
253	0x3ad834f3	0.0016495272
254	0x3d28bc88	0.041195422
255	0x3ddc4d1a	0.107568935

bias f4 [10]
0	0xbce312dc	-0.027718954
1	0x3d73bad5	0.05950435
2	0x3c62d725	0.01384524
3	0xbd817abf	-0.0632224
4	0x3e144869	0.14480747
5	0xbd8cc249	-0.068729945
6	0x3c881326	0.016610693
7	0xbdce7541	-0.10080958
8	0xbd69d649	-0.057089124
9	0x3c42c5fa	0.011888022
