test_7.pth (torch, 587207 bytes, 10 tensors)

weight f4 [32, 3, 5, 5]
0	0xbd34a865	-0.044105906
1	0x3bfc2964	0.007695364
2	0xbc7a6fb9	-0.015285426
3	0x3d4395df	0.04775035
4	0x3db139c4	0.08653596
5	0xbe07382c	-0.13205022
6	0xbd7ad5e3	-0.061239135
7	0x3c9bde0c	0.019026779
8	0x3d584509	0.052800212
9	0xbdd85958	-0.10563916
10	0xbd9f9889	-0.07792766
11	0x3d3ba056	0.045807205
12	0x3dd3583a	0.10319562
13	0x3e13621a	0.14392892
14	0xbd161c23	-0.036647927
15	0xbdc723ef	-0.09723651
16	0xbda7b4a2	-0.0818875
17	0x3d5495d4	0.0519007
18	0x3da10633	0.078625105
19	0x3d2679ee	0.040643625
20	0xbdbf8283	-0.09351065
21	0x3dab1c06	0.083549544
22	0x3e556ed5	0.2084306
23	0x3de54081	0.11193944
24	0xbddb8b45	-0.10719923
25	0xbe1a553c	-0.15071577
26	0xbd8c4104	-0.06848338
27	0x3e16042f	0.14650033
28	0x3d6c9c25	0.0577661
29	0x3e0cf557	0.13765465
30	0xbc8ac8ac	-0.016941391
31	0xbce7741f	-0.028253613
32	0x3e23cb52	0.1599553
33	0x3e0835b6	0.13301739
34	0x3e237616	0.15963015
35	0xbd90fec0	-0.0707984
36	0x3df3a570	0.11896789
37	0x3d8a8549	0.067637034
38	0x3d1ef4a1	0.038807515
39	0x3ce120f1	0.027481528
40	0x3c8b0ce6	0.016973924
41	0x3d73fd24	0.059567586
42	0x3e49fee1	0.19726135
43	0x3ddd95f5	0.10819618
44	0x3dc17806	0.09446721
45	0xbdb8b51b	-0.09018918
46	0x3d898e75	0.06716625
47	0x3e7e65d7	0.24843536
48	0x3dd287b4	0.102797896
49	0xbcb95db0	-0.022627681
50	0xbe63abdc	-0.22233528
51	0xbe370fff	-0.17877196
52	0xbd5be28e	-0.053682856
53	0x3b02b84e	0.001994628
54	0xbe2e8586	-0.17043123
55	0xbe359cd8	-0.17735612
56	0xbc2a0447	-0.010376996
57	0xbd2a0105	-0.04150488
58	0xbdfafc40	-0.12255144
59	0xbe1f5550	-0.15559888
60	0xbe02fe01	-0.12792207
61	0xbe485894	-0.1956504
62	0xbe091dd5	-0.13390286
63	0xbc972c33	-0.018453693
64	0x3cf3ddc1	0.029768826
65	0xbe3aab79	-0.18229474
66	0xbe48fd9a	-0.19627991
67	0x3dcce238	0.10004085
68	0xbe15c46b	-0.14625709
69	0xbc5e09f6	-0.01355218
70	0xbd8b7174	-0.06808749
71	0xbe1378c4	-0.14401537
72	0x3c8632b6	0.016381603
73	0xbdabae19	-0.08382816
74	0xbbdc1f04	-0.0067175645
75	0xbe310e32	-0.17290571
76	0xbd90bfae	-0.0706781
77	0x3d5bbcf1	0.053646985
78	0xbd1acbe7	-0.037792113
79	0xbdee57db	-0.11637851
80	0xbdec214c	-0.115297884
81	0xbda14004	-0.07873538
82	0xbe0f5dc7	-0.14000617
83	0xbdbdbd42	-0.09264614
84	0xbe049986	-0.1294919
85	0x3d4eafaa	0.050460495
86	0xbde61262	-0.11233975
87	0xbdfaee8c	-0.122525305
88	0x3d53ab8c	0.05167727
89	0xbe0f8c5c	-0.14018387
90	0xbddaa877	-0.10676663
91	0x3b9ed297	0.0048468816
92	0xbda9523d	-0.08267639
93	0xbda96747	-0.08271652
94	0x3d519daa	0.05117575
95	0x3deb4ab2	0.114888564
96	0xbdacbdf2	-0.08434667
97	0x3e1cee0b	0.15325181
98	0x3d56dbeb	0.052455824
99	0xbd913e3b	-0.07091948
100	0xbde673ed	-0.1125258
101	0xbc927fff	-0.017883299
102	0x3b848c8e	0.0040450757
103	0xbcbe020d	-0.023194337
104	0x3ce762ef	0.028245417
105	0x3dc71414	0.097206265
106	0xbe0651c7	-0.13117133
107	0xbd8c8f3f	-0.068632595
108	0xbd27d498	-0.04097423
109	0xbb85874f	-0.004074968
110	0x3de6d12a	0.11270364
111	0xbca58b60	-0.02020806
112	0x3d80cf10	0.06289494
113	0x3dc70943	0.097185634
114	0xbb24f38a	-0.0025169575
115	0x3e1b74ee	0.15181324
116	0x3e2b0456	0.16700873
117	0x3dd3030e	0.10303317
118	0x3e17fe31	0.1484306
119	0x3dd87a12	0.10570158
120	0x3e2ef54c	0.17085761
121	0x3e2645b1	0.16237523
122	0x3c1d8bca	0.009615848
123	0x3d3feccc	0.046856686
124	0x3e15df26	0.14635906
125	0xbe03f71e	-0.12887236
126	0xbdda893f	-0.10670709
127	0xbdceb728	-0.10093528
128	0xbc64cf28	-0.0139654055
129	0x3c8ea574	0.017412879
130	0xbe1080ec	-0.1411168
131	0x3b744e64	0.003727817
132	0x3d39d68a	0.045370616
133	0xbdf731dd	-0.120700575
134	0x3c19662c	0.009362739
135	0xbcb05c65	-0.021528432
136	0xbdc62740	-0.09675455
137	0x3d379486	0.044819377
138	0x3cecb567	0.028895093
139	0x3d540bf8	0.051769227
140	0xbd54fd03	-0.051999103
141	0xbd00e44b	-0.031467717
142	0x3c8eafde	0.017417844
143	0xbdb5ee1d	-0.08883307
144	0x3da8b8b7	0.082383566
145	0x3dc671de	0.09689687
146	0x3dad3a7e	0.08458422
147	0x3e05dfe5	0.1307369
148	0x3e067509	0.13130583
149	0x3e132c7f	0.14372443
150	0xbe264f90	-0.16241288
151	0xbdc777e7	-0.097396664
152	0xbc0ff1b6	-0.008785656
153	0xbe104810	-0.1408999
154	0xbdfc72f6	-0.123266146
155	0xbd895594	-0.06705776
156	0x3d32bd97	0.04363784
157	0xbdc1d638	-0.09464687
158	0x3ca8d236	0.020608049
159	0xbd978683	-0.07398703
160	0xbd390fb3	-0.045180988
161	0xbda2df24	-0.07952717
162	0xbdc26e94	-0.09493747
163	0x3d11baf8	0.035578698
164	0xbd381396	-0.044940554
165	0x3dded71a	0.10880871
166	0x3d954b78	0.07289785
167	0x3d8dabc8	0.0691753
168	0x3d05f196	0.032701097
169	0xbd108ab8	-0.035288543
170	0x3d3ef38c	0.046618983
171	0xbdbf3e34	-0.09338036
172	0x3db3426b	0.087529026
173	0xbcd79c84	-0.02631975
174	0x3b9f835d	0.0048679546
175	0xbe0f8f4c	-0.14019507
176	0xbd0bc898	-0.034126848
177	0xbcd83c8c	-0.026396058
178	0x3bc76972	0.006085568
179	0xbb81273a	-0.0039414437
180	0x3deedf61	0.116637
181	0xbda506f4	-0.08057967
182	0x3d3638ba	0.044487692
183	0x3d0cef71	0.034408037
184	0x3dab0ae7	0.08351689
185	0x3d7bbe87	0.061460998
186	0xbd0ff40d	-0.035144854
187	0x3e0ec4d3	0.1394227
188	0x3da6a86b	0.08137592
189	0xbd816b56	-0.06319301
190	0x3e07ed75	0.13274176
191	0xbcdb51f0	-0.02677247
192	0x3e2d1ee3	0.16906314
193	0x3e0fb34b	0.14033239
194	0x3dd0ed76	0.10201542
195	0x3e04dfb5	0.12975962
196	0x3df6202f	0.12017857
197	0x3d95dd2b	0.07317575
198	0xbd4c8aac	-0.049936935
199	0x3c760790	0.0150164515
200	0xbda41412	-0.080116406
201	0x3dbcf085	0.09225563
202	0x3d1bd7cd	0.0380476
203	0xbccae20b	-0.024765989
204	0xbde05198	-0.10953063
205	0x3dd7fa7e	0.105458245
206	0xbd9ada64	-0.07561186
207	0xbdde5d93	-0.108576916
208	0xbce4c24c	-0.02792468
209	0xbd7e6491	-0.062107626
210	0x3d851706	0.06498532
211	0xbd300bca	-0.042979993
212	0xbd912595	-0.07087246
213	0x3e0e0c93	0.13871984
214	0xbdddf8d3	-0.10838475
215	0x3b071fd7	0.0020618343
216	0x3ca03fa1	0.01956159
217	0xbbf4b435	-0.0074677714
218	0x3dfa19d8	0.122119606
219	0x3ccb9c79	0.024854885
220	0x3de55a24	0.111988336
221	0xbdadb32d	-0.08481441
222	0xbd03d6ae	-0.032187156
223	0xbdd188cb	-0.10231169
224	0x3c209518	0.009801172
225	0x3ddab7b0	0.10679567
226	0x3d3f502d	0.04670732
227	0x3d7f30d2	0.062302418
228	0x3c894add	0.01675933
229	0xbd7133a6	-0.058887146
230	0x3d87bef0	0.06628215
231	0x3d3bbb52	0.04583294
232	0x3e171cd3	0.1475709
233	0xbd0e4753	-0.03473599
234	0x3dc73d12	0.09728445
235	0x3d845ede	0.06463407
236	0xbb06bdf9	-0.002056001
237	0xbda9c510	-0.0828954
238	0xbd34f3d7	-0.044177856
239	0x3d9ea060	0.07745433
240	0xbb34a653	-0.0027564957
241	0x3db094cc	0.08622131
242	0xbe0b94ac	-0.13630933
243	0xbe026bef	-0.12736486
244	0xbe1ba695	-0.15200265
245	0x3c9f1fea	0.019424397
246	0xbdaadb36	-0.083425924
247	0x3dbb2c74	0.09139338
248	0x3d56ad51	0.05241138
249	0xbd2c4bfb	-0.042064648
250	0x3db9b4ad	0.09067664
251	0xbdd9f62f	-0.10642659
252	0x3cabd72f	0.020976631
253	0x3e020246	0.1269618
254	0x3dec44a5	0.115365304
255	0xbd28df6e	-0.041228704

bias f4 [32]
0	0x3e80be79	0.2514532
1	0xbd72f2ef	-0.05931371
2	0x3c91d942	0.017803792
3	0xbe19206c	-0.14953774
4	0x3bc26fda	0.005933744
5	0xbde3aaf9	-0.11116595
6	0xbe2528b9	-0.16128816
7	0xbdffe74c	-0.12495288
8	0xbd517e3f	-0.05114579
9	0x3db99f7b	0.090636216
10	0x3e63fa93	0.22263555
11	0xbd993790	-0.07481301
12	0x3e1926c9	0.14956202
13	0xbd8dde25	-0.06927136
14	0x3d9e24ea	0.077218845
15	0x3cb3d7d2	0.021953497
16	0xbd8a8cf6	-0.067651674
17	0x3e0be297	0.13660656
18	0x3eae6240	0.34059334
19	0xbd62bb86	-0.055354618
20	0x3c38d2a3	0.011280688
21	0x3e24f626	0.16109523
22	0xbe160e2d	-0.14653845
23	0x3d8fefda	0.0702817
24	0xbda1811e	-0.07885955
25	0xbdbdb131	-0.09262312
26	0x3e8bddbd	0.2731761
27	0xbe07ccc3	-0.13261704
28	0xbe81221e	-0.25221342
29	0xbe92616a	-0.28589946
30	0xbe807ac5	-0.25093666
31	0xbd396d12	-0.045270033

weight f4 [32, 32, 5, 5]
0	0xbc8e09ba	-0.017338622
1	0xbcebf71c	-0.028804354
2	0x3b949b0a	0.0045350837
3	0xbca818c9	-0.020519631
4	0x3b64f2c8	0.0034934748
5	0x3bb6167f	0.005556881
6	0x3a99f0ea	0.0011744772
7	0x3c277aed	0.010222179
8	0xbca596d2	-0.020213518
9	0xbbffb84f	-0.0078039537
10	0x3d48abb6	0.04899188
11	0x3cf3a757	0.02974288
12	0xbab27305	-0.0013614601
13	0xbcb9ae63	-0.022666162
14	0xbc3d446b	-0.011551957
15	0x3d38ce35	0.04511853
16	0xbd0e1fde	-0.03469836
17	0x3b61787a	0.0034404085
18	0x3c3f0ebb	0.011661227
19	0x3c3a11ce	0.011356784
20	0xbc2b6859	-0.01046189
21	0x3bdca419	0.006733429
22	0x3ba76ae5	0.0051091784
23	0x3c1890c1	0.009311856
24	0x3c621d25	0.013800894
25	0x3c65ecf9	0.014033549
26	0xbcbebd0b	-0.023283502
27	0xbba03a86	-0.004889789
28	0x3d20ef50	0.039290726
29	0xbc828df3	-0.015936827
30	0x3d5299ec	0.051416323
31	0x3cf9e2db	0.03050368
32	0x3d374871	0.04474682
33	0x3d784d07	0.060620334
34	0x3d228b91	0.039683882
35	0xbceed902	-0.029156212
36	0xbd188fa8	-0.037246376
37	0xbd308084	-0.043091312
38	0xbd46c3ab	-0.048526447
39	0xbc65038a	-0.013977895
40	0x394ef4b7	0.00019736854
41	0xbd2219cc	-0.039575383
42	0x3c8f72d5	0.01751081
43	0xbcc23d37	-0.02371083
44	0xbd1bc9e4	-0.038034335
45	0x3c91abea	0.01778217
46	0x3b19e88d	0.0023484558
47	0x3c8fee5a	0.01756971
48	0xbd2fa7d5	-0.042884666
49	0xbd0e0b17	-0.034678545
50	0x3b60855e	0.003425918
51	0xbd36d620	-0.0446378
52	0x3b443567	0.0029939057
53	0x3c26c4cb	0.010178755
54	0x3cc7851b	0.024355462
55	0xbbe4178a	-0.006960814
56	0x3d52d947	0.051476743
57	0xbb9e732f	-0.0048355083
58	0x3bb017e5	0.005373942
59	0x3bbbc73c	0.0057305377
60	0x3d013acb	0.03155021
61	0x3c9cbf8c	0.019134305
62	0x3cdac33b	0.026704421
63	0xbd09a757	-0.033606853
64	0x3ce8417f	0.028351543
65	0xbc8cd41b	-0.017190984
66	0xbd48e40e	-0.049045615
67	0xbc8ad7b1	-0.016948553
68	0xbd3a99dc	-0.045556888
69	0x3c35ee11	0.011104123
70	0xbc391272	-0.011295902
71	0xbcaec38b	-0.021333477
72	0x3b6bd7fa	0.0035986886
73	0xbb73d1c8	-0.0037203897
74	0xbc32b3ab	-0.010907094
75	0x3bae836f	0.0053257267
76	0x3b8c6933	0.0042850017
77	0x3cf917ff	0.03040695
78	0xbc9dacd4	-0.01924745
79	0x3c931de4	0.017958589
80	0x3c657f87	0.014007456
81	0xbb12a8ca	-0.0022378438
82	0xbced7b09	-0.028989332
83	0x3c76d73b	0.015065963
84	0x3c3a092a	0.011354724
85	0x3c61dc87	0.013785488
86	0xbb71e633	-0.003691089
87	0x3d21acba	0.039471366
88	0xbcd2b1a9	-0.02571948
89	0xbc9b0032	-0.018920992
90	0x3c907964	0.017636009
91	0x3cd3d4ff	0.0258584
92	0xbc27260c	-0.010201942
93	0xbc84b020	-0.016197264
94	0x3cdac21b	0.026703885
95	0xbcacf840	-0.021114469
96	0x3c8743c5	0.016511807
97	0x3b18d8a9	0.00233225
98	0x3c79ff89	0.015258678
99	0xbcb043d2	-0.021516714
100	0x3d2cdf74	0.04220529
101	0x3d24ddd9	0.040250633
102	0xbc392d90	-0.011302367
103	0xbcb258d6	-0.021770876
104	0x3cc36dbc	0.023856036
105	0x3ca2e208	0.01988317
106	0x3d592fa8	0.053023964
107	0x3b4625c9	0.0030234924
108	0x3b2bc8b9	0.002621217
109	0x3c2a008e	0.010376109
110	0x3c8e96ed	0.017405951
111	0xbd357bb8	-0.04430744
112	0xbbde2364	-0.0067791212
113	0x3b895901	0.0041915183
114	0xbc198c0d	-0.00937177
115	0x3cb0c71a	0.021579314
116	0x3c920628	0.017825201
117	0x3c9ee4c7	0.019396199
118	0x3d0da8f5	0.034584958
119	0x3afb72d5	0.0019184003
120	0x3c32c0f6	0.010910263
121	0xbb9a938a	-0.004717295
122	0x3cb67ca7	0.022276236
123	0x3c93a65a	0.018023659
124	0x3c01cf39	0.007922941
125	0xbcb8450a	-0.022493858
126	0xbcdda128	-0.027054384
127	0xbbfa9944	-0.007647665
128	0xbd030dd2	-0.031995602
129	0xbb513250	-0.0031920858
130	0x3baf9828	0.0053587146
131	0x3d0d42bc	0.03448747
132	0x3d0e244a	0.034702577
133	0x3cfb59a6	0.030682396
134	0x3d15785f	0.036491748
135	0x3ca14428	0.01968582
136	0xbc658ce1	-0.014010639
137	0x3d547449	0.05186871
138	0x3b630b2c	0.003464411
139	0x3d1330a2	0.03593505
140	0xbb91d6bc	-0.004450647
141	0xbc351ec7	-0.011054701
142	0xbca43f11	-0.020049604
143	0x3d28a465	0.041172404
144	0x3cdabf9e	0.026702698
145	0x3caf50dd	0.021400863
146	0x3cf8a30d	0.030351186
147	0xbb955631	-0.004557394
148	0x3d4979de	0.049188487
149	0x3d3d4cae	0.046215706
150	0x3c34117f	0.0109904995
151	0xbd352fd4	-0.044235066
152	0xbc922a99	-0.017842578
153	0xbc997b7e	-0.018735643
154	0xbb11c068	-0.0022239927
155	0x3d27a8fa	0.040932633
156	0xbaad817f	-0.0013237445
157	0xbc365abe	-0.011130033
158	0xbc88be44	-0.016692288
159	0xbc1c91f3	-0.009556281
160	0x3d4af070	0.049545705
161	0x3c87cfa9	0.016578512
162	0x3c7966a5	0.015222226
163	0x3ca1636e	0.019700732
164	0x3d182c81	0.037151817
165	0xbb47a920	-0.0030465797
166	0x3ceb020b	0.028687498
167	0x3cb33e75	0.021880368
168	0xbcb4bbe7	-0.022062255
169	0x3c294c26	0.010333097
170	0x3cb6917e	0.022286173
171	0x3c923079	0.01784538
172	0x3d18b7de	0.037284724
173	0xbca31613	-0.019907987
174	0x3ce7dd98	0.028303906
175	0x3d123483	0.03569461
176	0xbd03ccb7	-0.032177653
177	0x3d226b72	0.03965325
178	0xbbfc86b9	-0.00770649
179	0x3d149312	0.03627307
180	0x3d370aea	0.044688143
181	0x3bfd28eb	0.007725825
182	0x3d14426f	0.03619617
183	0x3ccfb84c	0.025356434
184	0x3ce156e4	0.027507253
185	0x3d269064	0.040665045
186	0x3bbdfe39	0.005798128
187	0x3d0145b0	0.0315606
188	0x3d087340	0.033313036
189	0xbc3af351	-0.01141055
190	0x3cec748a	0.028864164
191	0xbc5625fc	-0.01307058
192	0xbb0551c8	-0.0020342935
193	0x3c44b369	0.012005665
194	0xbcddd271	-0.027077885
195	0x3cff40ca	0.031158824
196	0xbc6bf006	-0.014400488
197	0x3ccafc33	0.024778461
198	0xbc7472ad	-0.014919919
199	0x3c1022d6	0.008797368
200	0x3ca25bac	0.019819103
201	0x3c837dd8	0.016051218
202	0x3bc133bf	0.005896061
203	0xbc890a10	-0.016728431
204	0xbb8fe38d	-0.00439114
205	0xbc71239a	-0.014717961
206	0x3b9d9849	0.0048094136
207	0xbd29e1c8	-0.041475087
208	0xbc88c14e	-0.016693737
209	0x3c0f727e	0.008755324
210	0x3a6e85d3	0.0009098921
211	0x3d67d5a5	0.05660023
212	0x3c235eab	0.009971301
213	0x3d367d0e	0.044552855
214	0x3d2802d2	0.041018315
215	0x3c9e48db	0.01932185
216	0x3c2a3f1d	0.010391024
217	0xbc63ced7	-0.013904295
218	0x3b9ce80d	0.004788405
219	0xbc9e9c57	-0.019361658
220	0x3d47e0fd	0.04879855
221	0x3d39f0c0	0.045395613
222	0x3c8e1981	0.017346146
223	0xbc632491	-0.013863699
224	0xbcc31deb	-0.023817977
225	0x3c9d8031	0.019226165
226	0xbc9c7c26	-0.019102167
227	0xbccdead2	-0.025136385
228	0x3bdb56e4	0.006693708
229	0xbc7437da	-0.014905894
230	0xbb16eb6e	-0.002302851
231	0xbba62437	-0.005070235
232	0x3b19a478	0.0023443978
233	0x3c944728	0.018100336
234	0x3adbf931	0.0016782639
235	0xbb88a09a	-0.004169536
236	0x3d49748a	0.049183406
237	0xbbb790e2	-0.005601988
238	0x3cb379a8	0.021908596
239	0x3cfd39f3	0.030911421
240	0x3cc18041	0.023620727
241	0x3c593db8	0.013259344
242	0xbabe83e7	-0.001453516
243	0xbc879717	-0.016551537
244	0x3d0de4cb	0.034642022
245	0x3d27738e	0.040881686
246	0x3d35f467	0.044422533
247	0x3d4f6911	0.05063731
248	0x3c9fabb8	0.019491062
249	0x3cb5d4f4	0.02219627
250	0xbc5c17f4	-0.013433445
251	0xbcd0daef	-0.02549502
252	0x3d29a131	0.04141349
253	0xb9dc7101	-0.00042045864
254	0xbc8bcbde	-0.017064985
255	0x3d724782	0.059150226

bias f4 [32]
0	0xbd9df226	-0.07712202
1	0xbde010cb	-0.10940703
2	0xbba2a307	-0.004963282
3	0x3c49d347	0.012318439
4	0xbd721580	-0.059102535
5	0xbcd0ab9a	-0.025472451
6	0xbc1eff15	-0.009704371
7	0xbde02ac6	-0.109456584
8	0xbbd2da77	-0.0064347344
9	0xbdbcbac0	-0.09215307
10	0xbd441cdc	-0.047879085
11	0xbc891050	-0.016731411
12	0xbcb1f4f3	-0.021723246
13	0xbdacaa0e	-0.08430873
14	0xbd421278	-0.047380894
15	0x3c2f29ff	0.010691165
16	0xbd8ad6d2	-0.06779255
17	0xbc34d38d	-0.011036766
18	0xbdac632b	-0.08417352
19	0xbc66d693	-0.014089244
20	0x3d7a87c8	0.061164647
21	0xbce614a6	-0.028086018
22	0xbd587b34	-0.05285187
23	0xbd31e842	-0.04343439
24	0xbd05b49e	-0.032642953
25	0xbd880722	-0.066419855
26	0x3c861fdd	0.016372615
27	0xbd400b0e	-0.046885543
28	0xbdc426e2	-0.09577729
29	0xbd40dbae	-0.047084503
30	0xbd8fccaf	-0.07021462
31	0x3cf5f239	0.030022727

weight f4 [64, 32, 5, 5]
0	0x3c906cf0	0.01763007
1	0x3c90e49c	0.017687134
2	0x3c19639e	0.0093621295
3	0x3cbf2718	0.023334071
4	0xbc9eb4e1	-0.01937336
5	0x3c282767	0.0102633005
6	0x3c956de2	0.018240873
7	0x3ba74dab	0.0051056943
8	0x3d2f30df	0.042771216
9	0x3cca86fd	0.02472257
10	0xbc2c53b5	-0.010518004
11	0xbc028afe	-0.007967709
12	0x3d4a09b6	0.049325667
13	0x3bd1b655	0.0063999095
14	0xbc07beee	-0.008285267
15	0x3cd682af	0.026185362
16	0xbccf3db6	-0.02529798
17	0x3bd8d54a	0.006617223
18	0x3cefaa24	0.029255934
19	0x3c91abdc	0.017782144
20	0xbcaf0b1e	-0.021367606
21	0xbca7814d	-0.020447398
22	0x3cf24c73	0.02957747
23	0xbbe5f41a	-0.0070176246
24	0x3ba3024e	0.00497464
25	0x3b1b96f8	0.0023741107
26	0xbd09cfc7	-0.033645418
27	0xbbe13d24	-0.0068737436
28	0x3cd8ac47	0.026449336
29	0x3b6cd586	0.0036138012
30	0x3c4eff1b	0.012634064
31	0xbd11c097	-0.03558406
32	0x3c9d4677	0.01919864
33	0xbc1fed4b	-0.009761165
34	0xbcb427e1	-0.021991672
35	0xbd32313d	-0.04350399
36	0x3c43b3fb	0.011944766
37	0x3d1acb7c	0.037791714
38	0x3c92b6aa	0.017909367
39	0x3b91dbab	0.0044512353
40	0x3ce792f2	0.028268311
41	0x3c991eae	0.018691387
42	0xbd5f5541	-0.054524664
43	0xbcef2378	-0.029191718
44	0x3d52bec2	0.051451452
45	0xbc1c2c8a	-0.009532103
46	0xbcdbc20b	-0.026825925
47	0x3d2b8e2c	0.041883633
48	0x3c193f34	0.009353448
49	0x3d09f2a3	0.033678662
50	0xbbe1e8fe	-0.00689423
51	0xbca7e5d3	-0.02049533
52	0x3d0885b0	0.03333062
53	0x3bf8f00c	0.007596975
54	0xbcb01c3b	-0.021497836
55	0x3cd55b91	0.026044639
56	0xbcb6fc2d	-0.022337044
57	0x3d0d290b	0.03446297
58	0x3bbc31d2	0.0057432437
59	0xbc885c6b	-0.01664563
60	0xbca230b7	-0.01979862
61	0xbc463154	-0.012096722
62	0x3b083008	0.0020780582
63	0x3cef8f5b	0.029243162
64	0xbc70a32f	-0.0146873435
65	0x3cca9ed0	0.02473393
66	0x3d1255b6	0.03572627
67	0xbcea1386	-0.028573763
68	0x3a113613	0.0005539369
69	0xbabb4094	-0.0014286214
70	0xbd055145	-0.032548208
71	0xbc8a7828	-0.016902998
72	0xbcdc927a	-0.026925314
73	0xbb009c04	-0.0019624243
74	0xbcdbfb5b	-0.026853254
75	0xbc926cde	-0.017874178
76	0xbb7bc1c1	-0.0038415047
77	0xbc07c7d1	-0.008287386
78	0xbcdadaa1	-0.026715579
79	0x3a75a0aa	0.0009369949
80	0x3c886f42	0.016654614
81	0xbb273714	-0.0025515007
82	0xbc78a694	-0.015176434
83	0xbc8c209c	-0.017105393
84	0x3c034011	0.00801088
85	0xbd2c447a	-0.04205749
86	0x3a85f88c	0.0010221167
87	0xbab53687	-0.0013825455
88	0x3ce8db3b	0.02842485
89	0xbd08e508	-0.033421546
90	0x3ac3a685	0.0014926946
91	0xbc18bba2	-0.009322079
92	0x3c9da1c5	0.019242177
93	0xbcdd8588	-0.027041212
94	0xbca1fee6	-0.019774865
95	0xbcc350f4	-0.023842312
96	0x3c24bec3	0.010055247
97	0xbcf7eca2	-0.030264203
98	0x3beb2117	0.0071755755
99	0x3d068888	0.03284505
100	0xbcbd1815	-0.023082772
101	0xbd3ac3f3	-0.045597028
102	0xbcc38cee	-0.023870911
103	0x3bb3f32c	0.005491635
104	0x3d073812	0.033012457
105	0xbc1decc6	-0.009638971
106	0xbce121c8	-0.027481928
107	0xbb3e0ebe	-0.0029000486
108	0x3c0efd99	0.008727455
109	0xbc5123a0	-0.012764841
110	0x3cba53b6	0.022744995
111	0xbb281355	-0.0025646288
112	0xbcb90a01	-0.022587778
113	0x3b453272	0.0030089882
114	0x3c887276	0.016656142
115	0x3d10ddf9	0.03536794
116	0xbd065272	-0.03279347
117	0xbc9022e2	-0.017594758
118	0x3d110040	0.03540063
119	0x3cc18571	0.0236232
120	0xbc428ef4	-0.011874903
121	0xbc6dc7d7	-0.014512978
122	0x3bfc9fc5	0.0077094757
123	0xbc11104e	-0.008853985
124	0x3c8174a2	0.015802685
125	0xbb03f8ca	-0.0020137304
126	0xbc188780	-0.0093096495
127	0xbc0d011c	-0.0086062215
128	0x3cdf524a	0.027260918
129	0x3cdb7e98	0.026793763
130	0x3ac7b839	0.0015237398
131	0xba8e42ed	-0.0010853686
132	0xbafd03a9	-0.0019303459
133	0xbad78d69	-0.0016445342
134	0xba8100a1	-0.0009842106
135	0xbd226368	-0.039645582
136	0xbd25971f	-0.040427323
137	0x3d0b18ad	0.03395908
138	0x3c419bd4	0.0118169375
139	0x3c8817e3	0.016612953
140	0x3c136ada	0.008997643
141	0xbbd9e7f3	-0.006649965
142	0x3d0d9084	0.03456165
143	0xbb371ca9	-0.0027940667
144	0x3c9e87d2	0.019351874
145	0x3cca0ef3	0.024665331
146	0xbd10dd47	-0.035367277
147	0x3c7eac8d	0.015544069
148	0x3c2dd1a5	0.010609065
149	0xbc3baa2f	-0.011454149
150	0xbb23dcb9	-0.0025003387
151	0xbccaf179	-0.024773346
152	0x3d01f7c9	0.031730447
153	0x3b98642c	0.0046506133
154	0xbb78d8ca	-0.0037971013
155	0x3d076cf9	0.03306291
156	0x3cff8f56	0.031196278
157	0x3ca58b9b	0.02020817
158	0xbd3560a5	-0.04428162
159	0xbc307dd0	-0.010772184
160	0x3d1322c2	0.03592182
161	0xbcc4abe0	-0.024007738
162	0xbccee9ee	-0.02525803
163	0xbb2e97f4	-0.0026640864
164	0x3cc73f12	0.024322066
165	0x3c41e3e9	0.011834123
166	0x3d0d34d6	0.034474216
167	0x3d305f08	0.04305938
168	0x3c4929c6	0.012278026
169	0xbab84261	-0.0014057868
170	0x3bfc9239	0.007707861
171	0xba0753db	-0.0005162337
172	0xbc6b8bf8	-0.014376633
173	0xbc09f054	-0.008419115
174	0x3d2ef93f	0.04271817
175	0xbc631b52	-0.013861494
176	0xbb379a72	-0.002801564
177	0x3ac78838	0.0015223091
178	0x3d17ae51	0.037031475
179	0xbc7d9d73	-0.015479433
180	0xbc8f34ba	-0.017481197
181	0xbcc79eeb	-0.02436777
182	0xbbd2ede3	-0.0064370497
183	0x3d1a017c	0.03759907
184	0x3cb34538	0.021883592
185	0x3acd46b2	0.0015661328
186	0x3ca69385	0.020334015
187	0x3ced8e55	0.028998533
188	0x3c370272	0.011170017
189	0x3cf10ed3	0.029426014
190	0x3c327394	0.010891814
191	0xbd02d729	-0.031943474
192	0xbcc39f31	-0.02387962
193	0x3a4339f6	0.00074472965
194	0xbcb12446	-0.021623742
195	0xbb225334	-0.0024768831
196	0xbcc797df	-0.02436441
197	0xbbb9fcac	-0.005675873
198	0x3ba6ea67	0.005093861
199	0x3d239c97	0.039944258
200	0xbcb67e56	-0.022277039
201	0xbca67cdd	-0.020323211
202	0xbce8d95f	-0.028423963
203	0xbc363152	-0.011120157
204	0x3d03b03f	0.032150503
205	0xbc7a26cd	-0.01526804
206	0x3c0dfbfb	0.008666034
207	0x3b7d0e8d	0.003861341
208	0x3c8bca46	0.017064225
209	0xbcd19cb9	-0.025587426
210	0xbccf51d0	-0.025307566
211	0x3c734a3a	0.01484924
212	0x3b62a886	0.003458531
213	0xbcd82fc5	-0.026389966
214	0x39e15019	0.00042975022
215	0x3bade155	0.0053064027
216	0x3cbb19aa	0.022839386
217	0xbcf5e348	-0.030015603
218	0x3cadf426	0.021234583
219	0x3cd71ca7	0.02625878
220	0x3c75c6a6	0.015000975
221	0xbcbfa8df	-0.023395954
222	0x3beeb79d	0.007285072
223	0x3d0f62d4	0.03500636
224	0x3cd92bd2	0.026510153
225	0xbbd493a3	-0.006487326
226	0xbca25c0f	-0.019819288
227	0xbd1104ae	-0.035404854
228	0x3d238ff9	0.039932225
229	0x3aa697d8	0.0012710048
230	0xbc850610	-0.016238242
231	0xbbc2f587	-0.0059496793
232	0xbcb78212	-0.02240089
233	0x3a166f89	0.0005738666
234	0x3d004091	0.031311575
235	0xbb9f12f3	-0.004854554
236	0xbd14a374	-0.036288694
237	0xbb2ac787	-0.002605887
238	0x3c0d00b3	0.008606124
239	0x3c704cf5	0.0146667855
240	0xbc95deac	-0.018294655
241	0xbb5caa7c	-0.0033670953
242	0x3d213918	0.03936109
243	0xbc19aead	-0.009380025
244	0x3cc7d805	0.024394998
245	0xb8594ebc	-5.181016e-05
246	0x3c46d1a1	0.01213494
247	0xbcee2fe0	-0.029075563
248	0xbd067cea	-0.03283397
249	0x3ce296b5	0.027659753
250	0xbd07ca59	-0.03315196
251	0xbc72c5ee	-0.014817698
252	0xbccba7ff	-0.02486038
253	0xbd01143b	-0.031513434
254	0x3c090bba	0.008364612
255	0xbcf2c0a2	-0.02963287

bias f4 [64]
0	0xbc19ce29	-0.009387531
1	0xbcd84765	-0.026401231
2	0xbd65bda7	-0.05608907
3	0xbb925ed0	-0.004466869
4	0xbcf2804f	-0.029602198
5	0xbd3735ae	-0.044728927
6	0xbd8b9027	-0.06814604
7	0xbd092c1d	-0.033489335
8	0xbd73668a	-0.05942396
9	0x3c667b00	0.014067411
10	0x3be1ae5f	0.0068872417
11	0xbc92ad2a	-0.017904837
12	0xbd63c4e5	-0.055607695
13	0x3ce56c3f	0.028005717
14	0x3ca1b798	0.019740865
15	0x3d331979	0.043725464
16	0xbcce6824	-0.025196142
17	0xbcda970d	-0.026683355
18	0xbca51728	-0.020152643
19	0x3b880818	0.0041513555
20	0xbab8b23f	-0.0014091207
21	0xbc96843c	-0.018373601
22	0x3ba1ddfc	0.0049397927
23	0xbd17811f	-0.036988374
24	0xbd0d8b48	-0.034556657
25	0xbc7f1a7b	-0.015570278
26	0xbd28d849	-0.04122189
27	0xbd3515f3	-0.044210386
28	0x3cc32853	0.023822939
29	0x3b607885	0.0034251523
30	0x3cba92a7	0.022775007
31	0xbc50b8fb	-0.012739415
32	0x3c2ad999	0.010427856
33	0xbb5de48d	-0.003385815
34	0xbd428540	-0.04749036
35	0x3cf9e90f	0.030506639
36	0x3cbe9369	0.02326365
37	0xbccd0f9d	-0.025031859
38	0xbce6ea96	-0.028188031
39	0xbc838e97	-0.016059203
40	0xbd31c0e6	-0.043396853
41	0xbc41e306	-0.011833912
42	0xbcb2d872	-0.021831725
43	0x3d1b69cd	0.037942696
44	0x3c30be2e	0.01078753
45	0x3cc9bc6e	0.024625983
46	0xbb8047e5	-0.0039148205
47	0xbc31361c	-0.010816123
48	0xbda55be9	-0.08074171
49	0xbb616b72	-0.0034396318
50	0xbc3d1912	-0.011541622
51	0xbd589c0b	-0.05288319
52	0x3b63db0b	0.003476801
53	0xbb944d4d	-0.0045258165
54	0xbd16a3ee	-0.03677743
55	0xbc568867	-0.013094044
56	0x3be50db9	0.0069901613
57	0xbcc525c7	-0.024065865
58	0x3d00dae3	0.031458747
59	0xbd2ef85d	-0.042717326
60	0xbce187f7	-0.027530653
61	0xbcf0ea9e	-0.02940875
62	0xbd0bfafd	-0.034174908
63	0xbc56e228	-0.013115443

weight f4 [64, 1024]
0	0xbbf48b81	-0.007462919
1	0x3c0b00b7	0.008484057
2	0xbcc73efe	-0.02432203
3	0x3cbe4f7c	0.02323126
4	0x3c96af34	0.01839409
5	0x3d065a12	0.03280074
6	0xbc86110d	-0.016365552
7	0xbc25c09a	-0.010116721
8	0x3c608398	0.013703249
9	0x3bf6cb67	0.0075315717
10	0xbd3b8988	-0.045785457
11	0x3c275f90	0.010215655
12	0x3d02e1f9	0.031953786
13	0x3caea28c	0.021317743
14	0x3a4f4ca9	0.00079078466
15	0xbc0e397c	-0.0086806975
16	0xbcd17c9b	-0.025572112
17	0x3d120107	0.03564551
18	0x3c6fcf81	0.014636875
19	0xbcb8ac75	-0.022543171
20	0x3ca277f3	0.019832587
21	0x3d0eedb1	0.03489465
22	0xbc1376c2	-0.009000482
23	0x3c40735a	0.011746252
24	0x3c265862	0.010152908
25	0x3cec77f0	0.028865784
26	0xbc4f039a	-0.012635136
27	0x3c171115	0.009220381
28	0xbc88fb2d	-0.016721332
29	0xbafcdbab	-0.001929154
30	0x3cbc9920	0.023022234
31	0x3c10304d	0.008800578
32	0x3c537088	0.0129052475
33	0x3cae2a61	0.021260442
34	0x3b5c6e9f	0.0033635271
35	0x3ced98ef	0.029003588
36	0x3d26ad00	0.04069233
37	0x3c921c1b	0.017835667
38	0x3c5ea140	0.01358825
39	0x3c10aefd	0.008830783
40	0x3ce34445	0.027742514
41	0xbcb287a7	-0.0217932
42	0x3be6f815	0.0070486167
43	0x3cbdb144	0.023155816
44	0xbc5062a8	-0.012718834
45	0xbaaa98cf	-0.0013015511
46	0x3d040f6d	0.032241274
47	0xbcd7cd3a	-0.026342977
48	0x3cca47b5	0.024692396
49	0xbbddae7b	-0.0067651845
50	0xbc317c98	-0.010832928
51	0x3c246710	0.010034338
52	0xbc957797	-0.018245501
53	0x3ca86743	0.020557052
54	0xbc8101b3	-0.01574788
55	0xbcf01ae7	-0.029309703
56	0x3c263473	0.010144341
57	0x3cb151e5	0.021645496
58	0x3be10373	0.0068668663
59	0xbd20302b	-0.039108437
60	0xbcf3ab82	-0.029744867
61	0x3ae753ba	0.0017648854
62	0x3c706564	0.014672611
63	0x3bd8a020	0.0066108853
64	0xbc2f1544	-0.010686222
65	0xbae2cb80	-0.0017303079
66	0x3cd86415	0.02641491
67	0x3c732d0a	0.014842281
68	0x3cbc1d0b	0.022963068
69	0xbc83e4f0	-0.016100377
70	0xb845765b	-4.7078687e-05
71	0xbc63bae5	-0.01389954
72	0x3c02063f	0.0079360595
73	0x3c06ab7e	0.008219598
74	0x3c9d58c7	0.019207371
75	0xbaa4ce1d	-0.0012573634
76	0xbcc844ec	-0.024446927
77	0xbac0866f	-0.0014688502
78	0xbc8c453f	-0.017122863
79	0x3c4b5370	0.01241003
80	0x3c19dffd	0.009391782
81	0x3cbf240b	0.023332616
82	0xbcbe4cb4	-0.023229934
83	0x3b69888b	0.0035634364
84	0xbc726690	-0.014794961
85	0x3d41405c	0.04718052
86	0x3c536843	0.012903276
87	0x3cad96c2	0.021190051
88	0xbcd4fc4a	-0.025999207
89	0x3cd7aa2f	0.026326267
90	0x3cab7b8d	0.020932937
91	0xbcba2dc1	-0.022726895
92	0x3a49b39f	0.0007694307
93	0x3c798ee7	0.0152318245
94	0x3cc3afb4	0.023887493
95	0xbc8ce9c5	-0.017201314
96	0xbcdd35b7	-0.027003152
97	0xba786cc7	-0.00094766583
98	0x3cdab3d9	0.026697086
99	0xbc1fa327	-0.009743488
100	0x3c551a29	0.013006725
101	0x3d2bc319	0.041934106
102	0x3c5ec403	0.0135965375
103	0xbcbe8d86	-0.023260843
104	0xbbb18d55	-0.0054184594
105	0xbca7bbff	-0.020475386
106	0x3b2b94bd	0.0026181184
107	0x3c9f8fde	0.01947778
108	0xbb04ced7	-0.0020264888
109	0x3b80a3aa	0.0039257603
110	0xbcc63019	-0.024192857
111	0xbc4bcf5a	-0.012439573
112	0x3c304aa2	0.010759981
113	0xbbc39a97	-0.0059693563
114	0xbc1e08c2	-0.009645643
115	0x3c487b9f	0.012236505
116	0x3c35377e	0.011060594
117	0xbcf45d1d	-0.029829556
118	0xbc499e64	-0.01230583
119	0xbca4c2a6	-0.020112347
120	0xbbad3fbb	-0.0052871383
121	0x3c5b590d	0.013387931
122	0xbc3e0430	-0.011597678
123	0x3c905e75	0.017623166
124	0x3cb64477	0.022249443
125	0xbc7ebc80	-0.015547872
126	0x39ff44a6	0.00048688537
127	0x3c369743	0.011144462
128	0xbc7fe036	-0.015617421
129	0x3d0f0a21	0.03492177
130	0x3cbc8648	0.023013249
131	0x3cf2becf	0.029632
132	0x3bba7bdd	0.005691035
133	0x3b4db3b1	0.0031387622
134	0xbc3280bf	-0.010894953
135	0xbc31c1c9	-0.010849425
136	0x3ccee7f7	0.025257094
137	0x3bb7a7f1	0.005604737
138	0xbca8cf0d	-0.020606542
139	0x3c2aaa0b	0.010416518
140	0x3c264a8c	0.010149609
141	0x3cf549be	0.02994239
142	0xbd0df1ed	-0.034654547
143	0xbd11af26	-0.035567425
144	0x3ca8aee2	0.020591203
145	0xbb35d1c3	-0.0027743436
146	0x3c54a7cd	0.01297946
147	0xbcbd73f7	-0.023126585
148	0xbc60d8cf	-0.013723566
149	0xbb345bc2	-0.0027520512
150	0xba9fa006	-0.0012178428
151	0xbcb9cb37	-0.022679908
152	0xbbb3b8cb	-0.0054846755
153	0x3cfb26c1	0.030658128
154	0x3cef736d	0.029229844
155	0x3cf3655e	0.029711422
156	0x3b091191	0.0020915011
157	0x3c9189ff	0.017765997
158	0xbc69261b	-0.014230276
159	0x3bfd357d	0.0077273236
160	0x3cd54ab3	0.026036596
161	0x3c05ccab	0.008166472
162	0xbc58e76b	-0.013238768
163	0xbba13bb5	-0.0049204477
164	0xbc8131b0	-0.015770763
165	0xbc5054fb	-0.012715573
166	0x3cbd8b15	0.023137609
167	0xbb2062c7	-0.0024472938
168	0x3d09d557	0.033650722
169	0xbc88e564	-0.016710944
170	0xb9d03a92	-0.0003971649
171	0xbc1da34c	-0.009621453
172	0x3bd2b747	0.00643054
173	0xbb4bf1b9	-0.003111942
174	0x3ccf7e2b	0.025328716
175	0xbcc795c2	-0.024363402
176	0xbcabdb5b	-0.02097862
177	0xbc86d2c5	-0.016457925
178	0x3b157fc4	0.002281175
179	0xbb121cbd	-0.0022294961
180	0x3b0290ff	0.001992285
181	0x3d08b835	0.0333788
182	0xbc86b0b4	-0.01644168
183	0xbccd4379	-0.025056588
184	0xbc80fb78	-0.01574491
185	0x3d2e4f8a	0.042556323
186	0x3c0563ce	0.008141471
187	0x3c2d1b3b	0.010565574
188	0xbcdd3256	-0.027001541
189	0x3cf8d88c	0.030376695
190	0xbcc9cff9	-0.024635302
191	0x3a6a8f17	0.00089477136
192	0x3cb4110a	0.021980781
193	0x3c66abb3	0.014079022
194	0xbcbae568	-0.022814468
195	0x3c8f3237	0.017479999
196	0x3cbe2c15	0.02321438
197	0x3d1e6d9c	0.03867875
198	0x3ce2ff5a	0.027709652
199	0xbb27eee7	-0.0025624575
200	0x3c2188e5	0.009859298
201	0x3d14849b	0.036259275
202	0xbce61293	-0.028085029
203	0xbc25af68	-0.010112621
204	0xbbdccbcb	-0.006738161
205	0xbc339d3f	-0.010962783
206	0xbca8491b	-0.020542672
207	0xbc8f6968	-0.017506316
208	0x3d296458	0.04135546
209	0x3cf31df7	0.029677374
210	0x3caa4e93	0.02078942
211	0x3c85c0f4	0.016327359
212	0x3ceb4846	0.028720986
213	0xbd093c51	-0.033504788
214	0x3a0f1efb	0.00054596335
215	0x3cbcbc2d	0.023038948
216	0x3bf689aa	0.007523735
217	0x3cf4b46b	0.029871186
218	0x3b7af82a	0.003829489
219	0x3c7f7b27	0.015593327
220	0x3b3dba36	0.0028950102
221	0x3cfa17b0	0.030528873
222	0x3c5cedcf	0.013484432
223	0xbcbaf851	-0.022823485
224	0x3cb5a5ab	0.022173723
225	0xbd0075b1	-0.03136224
226	0xbca48098	-0.02008085
227	0xbc8e0787	-0.017337574
228	0xbc944129	-0.018097477
229	0x3c53c8cd	0.012926293
230	0xbb9c9280	-0.0047782063
231	0x3cba8196	0.02276687
232	0xbd1f8adc	-0.038950786
233	0xbd00186f	-0.0312733
234	0xbcaae43c	-0.020860784
235	0x3cb0d27a	0.021584738
236	0x3c1f63d0	0.009728387
237	0x3c1d8f96	0.009616753
238	0x3c164c1e	0.009173421
239	0xbc7feec8	-0.015620895
240	0xbd1f825c	-0.03894268
241	0xbc001b21	-0.007818968
242	0x3cf73a77	0.030179245
243	0xbb326e60	-0.0027226433
244	0xbc8b3fa7	-0.016998125
245	0xbcd8853c	-0.026430719
246	0x3c446632	0.011987256
247	0xbcf2b9ae	-0.029629555
248	0xbcb33a06	-0.021878254
249	0xbc23262b	-0.00995783
250	0x3a41d3a7	0.00073939044
251	0xbca1d9c2	-0.019757155
252	0xbca61e92	-0.020278249
253	0xbbe0d63d	-0.0068614767
254	0x3a9fdeb4	0.0012197108
255	0x3ca2d634	0.01987753

bias f4 [64]
0	0xbcf03e85	-0.029326687
1	0xbd07dbf6	-0.033168755
2	0x3ca866e1	0.020556869
3	0xbc6407b3	-0.013917851
4	0x3be5803e	0.007003813
5	0x3b84bba9	0.004050691
6	0xbaaa56d1	-0.0012995844
7	0x3c6b13c3	0.014347973
8	0xbd162b34	-0.036662295
9	0xbca73504	-0.020411022
10	0x3b01cf69	0.0019807464
11	0xbc5763b6	-0.0131463315
12	0x3cce2e3a	0.025168527
13	0x3b37b7b6	0.0028033084
14	0xbce2f566	-0.027704906
15	0x3c8f96e8	0.017528012
16	0xbc241a91	-0.0100161
17	0x3c8c6b54	0.017141022
18	0xbc353ce6	-0.011061883
19	0x3d518e56	0.051161133
20	0x3c5317f6	0.012884131
21	0x3d73f980	0.059564114
22	0x3d4157ee	0.047202997
23	0xb855a308	-5.0934992e-05
24	0x3b996aa3	0.0046819015
25	0xbd1f1358	-0.038836807
26	0x3c1bb966	0.009504652
27	0xbc8ff29a	-0.017571736
28	0xbd1e6d94	-0.03867872
29	0xbd5434ad	-0.051808048
30	0x3cadfdb2	0.021239135
31	0x3a884d5d	0.0010399033
32	0xbcda05dc	-0.026614122
33	0x3cee31c7	0.02907647
34	0xbd095280	-0.033525944
35	0x3cee298e	0.02907255
36	0xbce0050a	-0.027346153
37	0x3d9ef866	0.07762222
38	0xbb643ac3	-0.0034825064
39	0x3c705651	0.014669017
40	0xbba2a0f7	-0.004963036
41	0x3c91dffb	0.017806998
42	0xbd0afd95	-0.03393324
43	0x3d20702b	0.03916947
44	0x3c2988c2	0.010347547
45	0xbcd623c7	-0.026140107
46	0xbd33a4bf	-0.043858286
47	0xbc86de03	-0.016463285
48	0x3d3cedf4	0.046125367
49	0x3c7666aa	0.015039125
50	0xbae35945	-0.001734533
51	0x3c51707a	0.012783164
52	0xbc647f37	-0.013946346
53	0x3cb0e8b0	0.021595329
54	0xbb1b5c65	-0.0023706194
55	0x3d62bb4e	0.05535441
56	0x3c900fe4	0.017585702
57	0xba3c8a50	-0.0007192241
58	0xbd6eaee3	-0.058272254
59	0xbcdd7244	-0.027032025
60	0x3d063952	0.03276951
61	0xbb83d74c	-0.004023468
62	0xbd3986aa	-0.04529444
63	0x3c81a2d1	0.015824707

weight f4 [10, 64]
0	0xbdd2b871	-0.10289086
1	0xbd013bf4	-0.031551316
2	0xbc773172	-0.015087472
3	0xbd38f0f9	-0.045151684
4	0x3d9f625b	0.07782432
5	0xbe03386d	-0.12814493
6	0x3e28da93	0.1648963
7	0x3d856724	0.06513813
8	0x3da73668	0.08164674
9	0xbe1e0255	-0.15430577
10	0xbd8d1303	-0.06888392
11	0x3ca3012d	0.019898022
12	0x3ca2e41c	0.019884162
13	0x3d68af8b	0.056808036
14	0xbba71fb8	-0.0051002167
15	0xbdc25ce3	-0.09490373
16	0x3c3b9199	0.011448287
17	0xbe130b25	-0.1435972
18	0x3cde312e	0.02712306
19	0xbdb2940d	-0.08719645
20	0xbb8e48d1	-0.0043421765
21	0xbddcf343	-0.10788586
22	0xbe462598	-0.19350278
23	0xbc900002	-0.017578129
24	0xbe1694fd	-0.14705272
25	0xbd8df08f	-0.069306485
26	0xbd8e2bbf	-0.06941938
27	0xbd202da6	-0.039106034
28	0xbdc5ba84	-0.09654716
29	0x3db064fd	0.08613012
30	0xbcd07d0d	-0.025450254
31	0xbe04b2e9	-0.12958874
32	0x3d7f2581	0.062291626
33	0x3e36ffc6	0.17871007
34	0xbd80de20	-0.06292367
35	0xbd846cd2	-0.06466068
36	0x3cb40966	0.021977138
37	0xbdd0ae3b	-0.10189482
38	0xbdaf6cc4	-0.08565667
39	0xbd95a1df	-0.07306265
40	0x3cfd2097	0.03089933
41	0x3e5ff3ef	0.21870397
42	0xbe07f479	-0.13276853
43	0xbe3d3976	-0.18478951
44	0x3d4533a8	0.048144966
45	0x3e0fcabd	0.14042182
46	0x3e2d2531	0.16908719
47	0xbbf98b19	-0.0076154587
48	0xbdf76d86	-0.12081437
49	0x3d22802d	0.03967302
50	0xbe40ab09	-0.18815245
51	0x3dda8bbe	0.10671185
52	0x3d907ae5	0.0705469
53	0xbdfe0742	-0.12403728
54	0x3d11b1a0	0.035569787
55	0xbde21836	-0.11039774
56	0x3e0071f3	0.12543468
57	0xbe60a734	-0.21938783
58	0x3e08d5d8	0.13362825
59	0x3e377336	0.17915043
60	0xbe452af7	-0.19254671
61	0xbde77319	-0.1130125
62	0x3e2cd752	0.16879013
63	0xbdcf3513	-0.10117545
64	0xbe1834c2	-0.14863876
65	0x3dde98d9	0.10868997
66	0x3e8b7618	0.27238536
67	0x3dafb425	0.08579282
68	0xbdbd7f28	-0.09252769
69	0x3e113228	0.1417929
70	0xbca0a879	-0.019611584
71	0xbe713822	-0.23556569
72	0x3e5823d8	0.21107423
73	0x3e414eb6	0.18877682
74	0xbe6c4d81	-0.2307644
75	0xbe425adf	-0.18979977
76	0xbd82ea84	-0.063923866
77	0xbbd6e83c	-0.006558446
78	0x3ddc3b48	0.107534945
79	0xbb4e711e	-0.0031500529
80	0x3e24f119	0.16107596
81	0xbe4fbaf8	-0.20286167
82	0x3e064068	0.13110507
83	0x3deaabd1	0.11458553
84	0xbe659da5	-0.22423418
85	0xbda676f1	-0.08128155
86	0xbd8978b4	-0.067124754
87	0x3d9f0398	0.07764357
88	0xbe10e8bd	-0.14151283
89	0x3d5751df	0.052568313
90	0xbdda2ddc	-0.10653278
91	0xbce71ce8	-0.028212026
92	0xbdeb7f08	-0.11498839
93	0xbcb8125d	-0.022469694
94	0xbd4f7664	-0.050650015
95	0x3e142dd7	0.14470612
96	0x3d126418	0.035739988
97	0xbc7192cc	-0.014744472
98	0x3c9e06a6	0.01929028
99	0x3e3771e3	0.17914538
100	0x3dd3cbba	0.10341592
101	0xbdb8edb7	-0.090297155
102	0x3e6d00d2	0.23144844
103	0xbbcf3691	-0.0063236435
104	0x3ddc229e	0.1074879
105	0x3d8bff2c	0.068357795
106	0x3e4b00a2	0.1982446
107	0x3dae2959	0.0850398
108	0x3da8431b	0.08215924
109	0x3d00ce1e	0.03144657
110	0x3e33a537	0.17543493
111	0x3e434241	0.19068243
112	0xbe16508c	-0.14679164
113	0x3d3b1c54	0.045681313
114	0x3d7d078c	0.061774775
115	0x3e2fa524	0.1715284
116	0xbdcddd6e	-0.10052
117	0x3d8f4baf	0.069968574
118	0xbe199c79	-0.15001096
119	0xbe092aed	-0.13395281
120	0x3dc09645	0.09403662
121	0xbd5f8c53	-0.054577183
122	0xbdebdfd2	-0.115173
123	0x3d2a3839	0.041557524
124	0xbe9fd591	-0.31217626
125	0x3d49eb1f	0.049296495
126	0xbd9dfe16	-0.07714479
127	0x3e4778bc	0.1947965
128	0x3dd72ed3	0.10506978
129	0x3de272dc	0.11057064
130	0xbd3d4ded	-0.046216894
131	0x3dc49d5e	0.09600328
132	0x3cc522a8	0.024064377
133	0xbe2b8f39	-0.16753854
134	0x3dc458af	0.095872276
135	0x3ca62739	0.020282375
136	0xbdc2a9cb	-0.09505042
137	0xbd055f4d	-0.03256159
138	0xbdc6cec9	-0.0970741
139	0x3e4e549e	0.20149466
140	0x3c1c37c8	0.009534784
141	0xbda86ebc	-0.08224246
142	0xbd6cc6b7	-0.057806697
143	0x3bd91515	0.0066248276
144	0xbde3a863	-0.111161016
145	0x3dae8a96	0.08522527
146	0x3da3685f	0.079788916
147	0x3e386c79	0.18010129
148	0x3dcc1029	0.0996402
149	0xbdb76db7	-0.08956473
150	0xbde35276	-0.110997126
151	0x3dd9f84a	0.106430605
152	0xbd954c6c	-0.07289967
153	0xbcb05761	-0.02152604
154	0x3b2ee38e	0.0026685926
155	0xbddc4312	-0.1075498
156	0x3dd35516	0.10318963
157	0x3e05eb38	0.1307801
158	0xbe0b2a65	-0.13590391
159	0xbd6c17d1	-0.0576399
160	0xbd8aedef	-0.067836635
161	0xbe1f0233	-0.15528183
162	0xbe20d575	-0.15706427
163	0xbe19e2ba	-0.15027896
164	0xbbc434d3	-0.0059877425
165	0xbd70d7bd	-0.058799494
166	0x3ce1a20a	0.027543087
167	0x3e2b666a	0.16738287
168	0xbe0a637c	-0.13514513
169	0x3e612266	0.21985778
170	0xbc9035c7	-0.017603768
171	0xbe1b5f1a	-0.15172997
172	0xbd6652a5	-0.05623116
173	0xbdfde52a	-0.12397225
174	0xbd932f80	-0.07186794
175	0xbe011a6f	-0.1260774
176	0xbd5725bb	-0.052526217
177	0xbd86da84	-0.06584647
178	0x3df8c8c4	0.12147668
179	0xbdee9629	-0.116497345
180	0xbe21b48b	-0.15791528
181	0xbdf9303b	-0.12167402
182	0x3e4942e1	0.19654419
183	0x3de15368	0.110022366
184	0xbc8e4fff	-0.01737213
185	0xbdb1ca72	-0.086811915
186	0x3d8eb8ee	0.06968866
187	0x3dbe0674	0.092785746
188	0x3e0187cb	0.12649457
189	0x3e0ed269	0.13947453
190	0x3d49a54b	0.0492299
191	0x3db23e32	0.08703269
192	0xb83a0e8b	-4.43594e-05
193	0xb83ee023	-4.5508274e-05
194	0x3b2f883d	0.0026784085
195	0xbdc4ac1f	-0.09603142
196	0xbb5f7158	-0.0034094658
197	0xbd8dfdf3	-0.069332026
198	0xbe119b1a	-0.14219323
199	0x3de74df3	0.112941645
200	0x3df3b426	0.11899595
201	0xbd7548a8	-0.059883744
202	0x3d4987d7	0.049201813
203	0x3dbf1a03	0.09331133
204	0x3dfd2ffd	0.12362669
205	0x3c905b8b	0.017621776
206	0xbdd220a5	-0.10260133
207	0x3d820eb3	0.0635046
208	0xbce4aaba	-0.02791344
209	0x3e0de1ea	0.1385571
210	0xbdac1e49	-0.08404214
211	0x3e13bccf	0.14427494
212	0xbce217a7	-0.027599169
213	0x3e10b987	0.14133273
214	0x3e31419c	0.17310184
215	0xbdb321d2	-0.08746685
216	0x3e570dbf	0.21001337
217	0x3dbd3e1c	0.09240362
218	0xbe30b3b6	-0.17256054
219	0x3e3d0767	0.18459855
220	0xbcb769f3	-0.022389388
221	0xbdd8cca7	-0.10585909
222	0xbdd8fb68	-0.10594827
223	0xbd111c3c	-0.035427317
224	0xbda4929e	-0.080357775
225	0x3d8c65c8	0.06855351
226	0xbd9536ea	-0.07285865
227	0xbce6e258	-0.028184101
228	0xbdd59839	-0.10429425
229	0x3bc7594b	0.0060836426
230	0x3c9716dd	0.01844352
231	0xbe3c5a04	-0.18393713
232	0xbdad8f27	-0.0847457
233	0x3db71450	0.08939421
234	0xbd1ab19c	-0.037767038
235	0xbda3c69b	-0.07996865
236	0xbdf8b4f2	-0.121438876
237	0x3daf247e	0.08551882
238	0xbdde557d	-0.10856149
239	0xbb3f4206	-0.002918364
240	0xbdc42a39	-0.09578366
241	0xbdf2e23d	-0.11859558
242	0x3e278b65	0.16361769
243	0xbcb81e22	-0.022475306
244	0xbd9a136d	-0.075232364
245	0xbdef5f6c	-0.11688122
246	0xbdf4e0ab	-0.119569145
247	0x3e16bc16	0.14720187
248	0x3d640a32	0.055673786
249	0xbd49adb7	-0.049237933
250	0xbe0491ce	-0.12946245
251	0xbd128743	-0.035773527
252	0x3e0587e0	0.13040113
253	0xbb67846f	-0.003532674
254	0x3d2fb545	0.04289748
255	0x3ddb0af1	0.10695446

bias f4 [10]
0	0xbcf56de2	-0.029959623
1	0x3d81c24a	0.06335886
2	0x3c948771	0.01813099
3	0xbd6b17f3	-0.057395887
4	0x3e113cc6	0.1418334
5	0xbd87a82e	-0.066238746
6	0x3ba8666d	0.005139163
7	0xbdcbbcb8	-0.099481046
8	0xbd732cba	-0.059368826
9	0x3c561965	0.013067578
