test_0.pth (torch, 587207 bytes, 10 tensors)

weight f4 [32, 3, 5, 5]
000000 14 16 3d 3d dc fd 8f 3d de 12 01 bd 39 2b 2f 3d
       0.046163633 0.07030842 -0.031512134 0.04276583
000010 0c 98 f7 3d 46 a4 e1 bc d6 6d 12 bc 14 31 53 bc
       0.120895475 -0.027544152 -0.00893732 -0.012890119
000020 ef a5 ff 3c a0 33 ae bd 0d 96 f0 3c 3d f4 da 3d
       0.031207053 -0.085059404 0.029368425 0.10691116
000030 0f 1d b5 3d 4d 82 03 3e 11 e8 d8 bc 29 db 8d 3c
       0.08843433 0.12842675 -0.026477845 0.017316418
000040 32 09 3c bc d5 98 25 3b 23 d2 89 3d ea 20 83 3d
       -0.011476802 0.0025268097 0.067295335 0.06402762
000050 d8 8b 2e 3b 1c 66 02 3e 3d 88 09 3e 2b f0 c5 3d
       0.0026633646 0.12734264 0.13430877 0.09664949
000060 62 03 93 bd 3a 42 e3 bd a9 06 6f bd 1e d7 ad 3d
       -0.071783796 -0.11096616 -0.05835596 0.08488296
000070 e0 e0 01 3c 30 a9 f8 3d 5c 12 f4 3c 20 3a 1c bd
       0.0079271495 0.12141645 0.02979391 -0.03814137
000080 ee b8 8d 3d 3c 46 61 3d 9f de fc 3d cb 3e a0 bc
       0.06920038 0.05499862 0.12347149 -0.019561192
000090 7d 61 ef 3d cd 24 0f bc f3 36 10 bd eb a9 93 bc
       0.11688516 -0.008736801 -0.035208654 -0.01802536
0000a0 8c ab 93 3d 5e c9 84 3d dc c7 b2 3d ad 4d 1a 3d
       0.07210454 0.0648372 0.087295264 0.037671734
0000b0 4b 49 73 3d bc 92 57 bd 29 b8 40 3d c7 07 ee 3d
       0.05939607 -0.05263017 0.04705063 0.11622577
0000c0 5d bc 03 3d 73 ac 32 bd fb 07 0c be 71 36 fc bd
       0.03216206 -0.04362149 -0.1367492 -0.123150714
0000d0 26 ff 60 bd 4e a3 5b 3c d3 c3 0d be 75 07 aa bd
       -0.05493083 0.013405634 -0.13844232 -0.083022036
0000e0 26 de ea 3c 43 37 89 bd 44 61 09 be 00 cd 0c be
       0.028670382 -0.066999935 -0.1341601 -0.13750076
0000f0 57 ce 92 bc c5 c1 0c be 0b bc 08 be 3b 67 6c bc
       -0.017920656 -0.13745792 -0.13352983 -0.014428909
000100 3c 91 4e 3d ec e5 73 bd 8d f3 f7 bd b5 a4 9e 3d
       0.050431475 -0.059545442 -0.121070005 0.07746259
000110 de fb 04 be 60 df d1 3c 1b 99 08 3d 5a 2c c7 bd
       -0.12986705 0.025619209 0.033349138 -0.09725256
000120 a4 0a 09 bd 39 93 98 bd 6b 93 21 3d e3 7c d1 bd
       -0.033457413 -0.074499555 0.03944723 -0.102288984
000130 79 e4 08 bc 37 79 cd 3d ba f2 85 3c 59 7c 94 bd
       -0.008355253 0.100328855 0.016351093 -0.0725028
000140 97 70 25 bd f7 0c a4 3b b1 ac 86 bd 0f 10 93 bc
       -0.040390577 0.0050064283 -0.06575907 -0.017951993
000150 76 e9 85 bd 36 35 c7 3d d4 e6 5c bd eb 9b 98 bd
       -0.0653867 0.09726946 -0.053931072 -0.07451614
000160 8d 90 bd 3d 89 52 c6 bd 4e 1e c1 bd 81 46 a3 3b
       0.092560865 -0.09683711 -0.09429608 0.00498277
000170 cc a0 b9 bd 64 54 b2 bd b9 ce 3d 3d 22 6d c4 3d
       -0.09063873 -0.087075025 0.046339724 0.09591128
000180 51 1b eb bd 53 b9 e6 3d fe f4 96 3c d8 87 cc bd
       -0.114798196 0.112658165 0.018427368 -0.09986848
000190 5b 0c bd bd 26 b6 ce bb c5 f4 51 3a eb a0 96 bc
       -0.09230872 -0.006308335 0.0008009191 -0.018387279
0001a0 fd d2 c1 3c ac e7 df 3d 7e cf e4 bd ac f2 6b bd
       0.023660177 0.1093286 -0.111723885 -0.057604477
0001b0 56 f7 e2 bc 79 e2 61 3a 87 99 b7 3d d7 e8 06 bd
       -0.02770583 0.0008616816 0.0896483 -0.032936897
0001c0 fc c5 28 3d 12 17 91 3d ca 28 bf bc 89 9f d8 3d
       0.041204438 0.070844784 -0.02333488 0.10577304
0001d0 a6 65 de 3d 3f c6 1d 3d 8c 0a b8 3d fd 04 4c 3d
       0.10859232 0.03851914 0.08986387 0.049809445
0001e0 e7 22 db 3d 63 af b3 3d 41 b3 97 bd 09 65 e8 bc
       0.107000165 0.08773687 -0.07407237 -0.02836849
0001f0 28 4c a2 3d 25 1a cc bd 66 38 b4 bd fe eb bd bd
       0.07924682 -0.09965924 -0.0879982 -0.092735276
000200 2f e9 05 3b e7 58 c9 3c 37 f3 f1 bd ab f0 fe 3c
       0.0020433178 0.024578525 -0.11813968 0.031120619
000210 4c ee 8b 3d d8 9b c1 bd 3e 8b e3 3c d7 91 d3 bc
       0.06832561 -0.09453553 0.027776357 -0.025826378
000220 1c 9b be bd be 38 31 3d 03 45 c9 3c 3a 5b 57 3d
       -0.093069285 0.043267004 0.02456904 0.052577235
000230 e0 53 92 bd 8a 1f 82 bd f7 12 92 bc 64 c7 ee bd
       -0.07144904 -0.06353672 -0.017831309 -0.116591245
000240 64 b4 69 3d d0 b5 7f 3d de 52 24 3d 8f a2 a2 3d
       0.0570568 0.06242925 0.04011809 0.07941162
000250 4d 31 b7 3d 8a a4 e0 3d 26 ed 96 bd b3 35 05 bd
       0.0894495 0.10968883 -0.07369451 -0.032521915
000260 e6 69 21 3d ef 2d 9a bd 08 e5 35 bd bc f5 77 bc
       0.039407633 -0.075282924 -0.044407874 -0.015134271
000270 bb 1b db 3d 67 76 1e bd f4 57 8a 3d 86 86 12 bc
       0.106986485 -0.038687136 0.06755057 -0.008943206
000280 70 b0 fb bc 02 d0 44 bd 5d 17 b0 bd 35 3c e0 3c
       -0.03072378 -0.048049934 -0.08598206 0.027372459
000290 3e 1d 32 bc 35 50 ce 3d 48 16 8f 3d 27 1b 29 3d
       -0.01087123 0.10073892 0.06986672 0.04128566
0002a0 2c 90 f5 3b dc e3 eb bc ae 33 41 3d 59 44 ad bd
       0.0074939933 -0.028795175 0.047168426 -0.08460302
0002b0 63 b6 ac 3d 47 3c 26 bc f1 1c bd 3c 00 5f d5 bd
       0.08433225 -0.010146207 0.02308509 -0.104185104
0002c0 f2 84 bf bc 60 b0 06 bd a7 2a 97 3c 90 42 b6 3c
       -0.023378823 -0.032883048 0.018452955 0.022248536
0002d0 8b 49 f1 3d ae e4 8e bd 84 26 42 3d 60 47 fa 3c
       0.11781605 -0.06977211 0.047400013 0.030551612
0002e0 01 61 ca 3d 79 e9 09 3d e1 bd 3d bd 2b 89 d9 3d
       0.09881783 0.033669923 -0.04632366 0.10621866
0002f0 eb 64 09 3d 18 a3 8a bd 65 f0 c2 3d d3 38 71 bd
       0.03354351 -0.06769389 0.09518508 -0.058892082
000300 50 ac e7 3d 2e f4 b6 3d e1 ae aa 3d 5b c3 e1 3d
       0.11312163 0.08933292 0.08334137 0.11023589
000310 6c be e0 3d c2 ce 55 3d 8b 27 4b bd 7b 0a 90 3c
       0.1097382 0.052199133 -0.049598258 0.017583122
000320 00 05 08 bd b0 04 ea 3d 9e 62 42 3d ff c6 ff 3a
       -0.033207893 0.11426675 0.04745733 0.0019514262
000330 77 53 97 bd fd 5b fb 3d ad ec 50 bd af 78 b2 bd
       -0.073889665 0.12273405 -0.05100696 -0.08714425
000340 75 26 41 bc a5 f8 02 bd 06 eb 80 3d 47 01 fe bc
       -0.011788954 -0.031975407 0.06294827 -0.031006468
000350 09 07 99 bd bb b3 fb 3d bb 3b b4 bd ba e2 3e bb
       -0.07472045 0.1229014 -0.08800455 -0.0029126839
000360 bc 4b 9c 3c 28 4e d3 bc b0 1b e1 3d 68 1c 1e 3d
       0.019079082 -0.025794104 0.10991609 0.03860131
000370 91 e6 fd 3d 15 46 83 bd 7a 4a 98 bc 4e 68 8b bd
       0.12397493 -0.064098515 -0.0185902 -0.06807004
000380 9f 31 31 3d 0f d6 b6 3d 22 1e d4 3c 64 7e c1 3c
       0.043260213 0.08927547 0.025893275 0.023619838
000390 12 a0 97 bc fe 2c b5 bd 62 07 18 3d 92 d5 07 3c
       -0.018508945 -0.08846472 0.037116416 0.008290665
0003a0 60 c8 c5 3d e1 ab 9c bd 3b bc 74 3d 64 31 61 3d
       0.09657359 -0.07649971 0.059749823 0.054978743
0003b0 10 b1 bf bb cf 63 af bd 18 41 2a bd a4 5a 97 3d
       -0.005849965 -0.08563959 -0.041565984 0.07390335
0003c0 36 18 c3 ba 1f 32 cb 3d 44 e1 eb bd 3e 27 bf bd
       -0.0014884535 0.09921669 -0.115175754 -0.09333657
0003d0 d8 ae f3 bd 13 de a1 3c c2 7d 9c bd a8 f3 c4 3d
       -0.11898583 0.019759214 -0.07641174 0.09616786
0003e0 78 28 8f 3d a5 53 95 bc c4 c9 ce 3d 90 da c8 bd
       0.06990141 -0.018228361 0.100970775 -0.098073125
0003f0 ae 81 b6 3b fc 13 dd 3d 82 e3 cc 3d ab 25 1c bd
       0.0055696582 0.10794827 0.10004331 -0.03812186

bias f4 [32]
000000 d4 96 11 3e e1 18 d6 bd 35 87 62 3d 21 0b 4b bd
       0.14217693 -0.10453964 0.055304725 -0.04957116
000010 f2 56 54 bd f0 ea 00 bd a1 83 7d bd 9f fe 8b bd
       -0.05184073 -0.031474054 -0.06189311 -0.068356745
000020 5c 88 e8 3c 6d 53 d8 3d 9f e0 fb 3d 07 02 98 bd
       0.028385334 0.10562787 0.122987024 -0.07422262
000030 b9 19 0f 3d 60 d1 90 bd 30 a0 aa 3d e6 7d b4 3c
       0.03493664 -0.07071185 0.083313346 0.02203269
000040 da 70 c3 bd 59 8b cd 3d 48 01 1c 3e 43 91 a5 3d
       -0.09543009 0.10036344 0.15234864 0.08084347
000050 50 58 a5 3c 15 cf 37 3d 31 6c dd bd 17 b2 9c bc
       0.020183712 0.044875223 -0.108116515 -0.019127889
000060 f3 ef 07 3d 87 af 15 bb f7 62 f9 3d d7 35 a0 bb
       0.033187818 -0.0022840218 0.12177079 -0.0048892307
000070 57 e1 a1 bd 3c 2f f7 bd e0 95 a8 bd b8 8c 42 3c
       -0.07904308 -0.12069556 -0.082317114 0.01187437

weight f4 [32, 32, 5, 5]
000000 28 2e 1e bc 4b 12 21 bc 99 16 b1 3c 29 26 97 ba
       -0.009654559 -0.009831022 0.02161722 -0.0011531758
000010 d0 c4 b3 3c 7e cb cf bb a7 80 4d 3a 42 74 ca 3b
       0.021944433 -0.006341397 0.00078393 0.00617841
000020 ea 4f 93 bc 1a 52 ae bb 06 cf 1c 3d 72 f8 06 3d
       -0.017982442 -0.005319846 0.03828337 0.03295178
000030 e4 b2 2b bb 4a d0 90 bc 44 3e bb bb d6 dc 10 3d
       -0.0026199156 -0.017677445 -0.0057142098 0.035366856
000040 59 5e fa bc 47 3e 59 37 d7 e7 05 3c 7c 4e 5a 3c
       -0.030562567 1.2948708e-05 0.008172951 0.013324376
000050 71 7e 95 bc 19 05 21 3c 17 ae cb 3a 59 aa b0 3b
       -0.018248769 0.0098278755 0.0015539554 0.005391401
000060 dd 02 6c 3c 47 5b 65 3c ae 57 c8 bc 00 83 23 bc
       0.01440498 0.013998813 -0.024455871 -0.009979963
000070 9f fc 0c 3d 98 9e ac bc 6d 21 a8 3c 19 3a 07 ba
       0.034420606 -0.021071717 0.020523751 -0.00051584985
000080 44 5d 70 3c e1 4d 03 3d 56 0d 44 3c a2 26 b0 bc
       0.014670674 0.032056693 0.01196607 -0.021502797
000090 38 36 b6 bc 9d 95 c2 bc 95 7a ee bc 52 70 4a bb
       -0.02224265 -0.023752982 -0.029111186 -0.0030889702
0000a0 38 c0 77 3c ca 4c b4 bc 46 22 fc 3c 01 c8 71 bc
       0.015121512 -0.022009272 0.030778062 -0.014757157
0000b0 a2 c0 e8 bc 3a 2a fd 3c 90 6a 75 3c 75 fe d6 3c
       -0.028412167 0.030903924 0.01497902 0.026244381
0000c0 66 ca 0e bd 21 9b e8 bc 76 45 94 3c fc 6f ff bc
       -0.03486099 -0.028394284 0.018099528 -0.031181328
0000d0 1d a9 76 3c 70 d6 95 3c ac 81 02 3d 43 bf a5 bc
       0.015054968 0.018290728 0.031861946 -0.020232802
0000e0 f1 c4 10 3d 7d 6b 9e bc a8 07 23 bc 7a af 0c bc
       0.035344068 -0.019338364 -0.009950556 -0.008586759
0000f0 0a 3c 05 3d a1 21 bf 3c 8e 8d 14 3d 0c 6e cb bc
       0.03252796 0.023331465 0.03626781 -0.024832748
000100 d9 7e fe 3c 9b 9a 64 3b 11 7d d3 bc d2 cc bc 3b
       0.031066345 0.003488219 -0.025816472 0.005761721
000110 d3 44 b9 bc 73 5d d4 3c f8 a9 a8 3b 00 2e b9 bb
       -0.022615826 0.025923466 0.005147215 -0.0056512356
000120 a1 f8 97 3c 14 c9 2e 3c b0 86 4f bb 60 84 9b bb
       0.018551173 0.010668058 -0.0031665973 -0.004746005
000130 82 86 ba ba cf 14 f1 3c b3 ae ab bc 04 06 87 3c
       -0.001423076 0.029428868 -0.020957327 0.01648236
000140 20 95 b7 3c 3d 79 13 3c 19 ad 8b bc 74 03 ce 3c
       0.022409976 0.009001073 -0.017050313 0.025148131
000150 55 c3 9b 3c f2 a2 f4 3b b0 a9 67 bc 69 74 fa 3c
       0.01901404 0.0074657137 -0.014139578 0.030573087
000160 91 c2 01 bd 5f 90 bc bc 5b f7 b1 3c c8 5c 04 3d
       -0.031679694 -0.02301806 0.021724394 0.032315046
000170 06 d1 99 ba b3 cf 2b bc 57 56 ea 3c e6 72 12 bc
       -0.0011735267 -0.010486531 0.028605623 -0.008938527
000180 56 0e f1 3c 79 8b 6c 3c 45 dd be 3c 7d 5b 85 bc
       0.029425781 0.01443755 0.023298869 -0.016278977
000190 64 85 08 3d 79 af cd 3c 56 4c b2 bc 8f ca 0b bd
       0.033330336 0.025108086 -0.021764915 -0.03412872
0001a0 71 b2 55 3c cb b2 9d 3b ec d4 0c 3d e3 5d ff bb
       0.013043032 0.0048125735 0.034382746 -0.0077931746
0001b0 e9 4b 1a bc 10 07 e1 ba 13 0f 04 3d 7d 39 06 bd
       -0.009417512 -0.0017168242 0.03224094 -0.03276967
0001c0 38 07 55 3c 2d 8e b8 3c 20 c1 ef 3a c6 a3 a0 3c
       0.013002209 0.022528732 0.0018291809 0.019609343
0001d0 5f ce 80 3b 57 7f 31 3c 6d 56 f3 3c dd 0a ab ba
       0.0039308514 0.010833583 0.029704297 -0.0013049502
0001e0 8c ff 1b 3c db e4 8f bc da fb 80 3c 80 64 7a 3c
       0.009521376 -0.017565181 0.015745092 0.01528275
0001f0 f3 fc e6 3a b0 6b b8 bb 4c 42 f3 bb d7 e2 42 3c
       0.0017622992 -0.0056280717 -0.0074236747 0.011894903
000200 f6 fd 63 bc 54 1f 4b 3c 00 11 5a 39 f1 25 f4 3c
       -0.0139155295 0.012397606 0.00020796433 0.029803248
000210 6e 09 f7 3c 9e 1e ca 3c a5 41 07 3d 9b f5 20 3b
       0.030155864 0.024672803 0.033021588 0.0024560455
000220 40 5b fc bc 80 0b 03 3d b1 61 9f bc 54 d9 78 3c
       -0.03080523 0.03199339 -0.019455763 0.015188534
000230 a0 35 a0 bb 5c f7 2b bc 86 cf b2 bc 00 0e 17 3d
       -0.004889205 -0.010495987 -0.02182747 0.036878586
000240 47 63 a4 3c 59 88 27 3c 8c 2d 8c 3c e5 75 bd bc
       0.02006687 0.010225379 0.017111562 -0.023127506
000250 cf 1c 07 3d 91 48 00 3d 73 2e c7 3c d6 62 d4 bc
       0.03298646 0.031319205 0.02431414 -0.025926035
000260 1b 3c 15 bb 28 26 6e bb 9c 65 25 3c 19 9e 03 3d
       -0.0022771421 -0.003633866 0.010095026 0.032133196
000270 38 df e2 bb 94 1a 9f bc a7 ea ca bc 1f 33 9f bc
       -0.0069235824 -0.019421853 -0.024770094 -0.019433556
000280 5c d4 0e 3d 73 1b 8f 3b 93 88 2b 3b cb b3 aa 3b
       0.03487049 0.004367286 0.0026173934 0.0052094213
000290 ab 02 b8 3c e4 4c e7 bb 03 d9 fe 3c 12 1a aa 3c
       0.02246221 -0.0070587266 0.031109339 0.020764384
0002a0 62 8b e3 bc 11 9e ab 3b cc f1 a9 3c e6 14 9c 3c
       -0.027776424 0.005237349 0.02074518 0.019052934
0002b0 2e 7d 0c 3d 9a a8 e2 bc 53 4c aa 3c 24 be 01 3d
       0.03429907 -0.027668286 0.020788347 0.031675473
0002c0 0f ca 0a bd 9b c8 02 3d 63 a7 77 bc 57 6b e9 3c
       -0.033884104 0.031929594 -0.015115592 0.028493566
0002d0 03 ed e6 3c 14 d2 1a bc 5a 4a 84 3c 9a e2 25 3c
       0.028189188 -0.009449501 0.016148735 0.010124827
0002e0 54 34 6e 3c 8f 73 82 3c 9b 53 9a bc 13 36 cb 3b
       0.014538843 0.015924243 -0.018838694 0.0062015145
0002f0 1c d7 06 3c f3 a0 fe bc c3 b5 d3 3c 5c 22 85 bc
       0.008229997 -0.031082606 0.025843507 -0.016251735
000300 43 34 0c bc 3e bb 18 3b 49 92 0d bd bc 08 ec 3c
       -0.008557382 0.0023304964 -0.034563337 0.028812759
000310 43 26 9f bc 30 ba 81 3c 93 74 bd bc 58 23 dd 3b
       -0.019427424 0.015835851 -0.023126876 0.006748598
000320 f2 9f a6 3c cd 3f 8f 3c cd 9c 32 3c b8 23 1e bc
       0.02033994 0.017486477 0.010901642 -0.009652071
000330 9f 01 76 3a 84 b9 07 39 93 1f 97 3c ce b0 eb bc
       0.0009384397 0.00012943713 0.018447673 -0.02877083
000340 a8 39 77 bb 66 68 b5 3c 01 90 5a bc c1 30 0b 3d
       -0.0037723575 0.022144508 -0.013339997 0.033982042
000350 e3 83 8f bc 18 90 98 3c 2a e6 b8 3c 66 ac 16 3c
       -0.017518943 0.018623397 0.022570688 0.009196376
000360 77 01 48 bb 6f ca cc bc 12 60 45 bb 4d 0b d9 bc
       -0.0030518451 -0.024998872 -0.0030117077 -0.026494646
000370 cd 22 23 3d 68 92 17 3d e6 c9 4c 3c e9 37 9a bc
       0.03982811 0.03700486 0.012499308 -0.018825488
000380 19 a5 ef bc 9b f5 b2 3c a2 c7 e6 bb a9 17 85 bc
       -0.02925353 0.02184563 -0.007042841 -0.016246634
000390 e1 ec 9e 3c eb bc dd bb d5 7c a4 bc 7b 5d 38 bc
       0.019400062 -0.0067669055 -0.020079056 -0.011252756
0003a0 39 75 1c bc b2 a2 68 3c fc d9 08 bb cf 96 ea bc
       -0.009549432 0.014198946 -0.0020881882 -0.028636364
0003b0 1b 36 15 3d 54 7b bd bc ee b5 24 3c 5d 42 a7 3c
       0.036428552 -0.023130096 0.010053141 0.020417387
0003c0 eb a4 c0 3b e5 4b 1a 3c 73 0a 81 bc a9 fa f9 bc
       0.0058790348 0.009417509 -0.015752053 -0.030515032
0003d0 75 34 da 3c e4 ad b7 3c 46 7d 14 3d 8b 12 11 3d
       0.026636342 0.022421785 0.036252283 0.035418075
0003e0 30 1f 50 3b 17 25 68 3c 51 92 7a bc f1 d4 ec bc
       0.003175687 0.014168999 -0.015293674 -0.028910132
0003f0 65 c8 06 3d a6 c9 b7 bb 61 a6 b9 bc 5a 3e 92 3c
       0.032905955 -0.005608755 -0.022662343 0.017851997

bias f4 [32]
000000 84 b7 e5 3b 82 60 b8 bc 97 43 0e bc d7 13 0f 3d
       0.007010402 -0.022506956 -0.008683107 0.03493103
000010 71 10 9e bc 41 1e 23 3c 34 d7 b6 bc 73 58 46 bd
       -0.01929495 0.009955944 -0.022319414 -0.048424195
000020 4e 7c 90 3c 5c 6d fc bb 38 ac 29 bc f9 52 b6 bc
       0.017637398 -0.0077034663 -0.010356002 -0.022256361
000030 b2 63 56 bc f7 4c 0b bd ad 92 1c bd 81 b5 11 3d
       -0.013085293 -0.034008946 -0.03822582 0.035573486
000040 b4 78 cd bc 4e 18 91 bc 55 64 8f bc ca 5a 31 3c
       -0.02508197 -0.017711785 -0.017503897 0.010824868
000050 70 7e 0e 3d db ef 49 bb ee 6e e8 bc e8 94 b3 3c
       0.03478855 -0.003081313 -0.028373208 0.02192159
000060 38 07 06 bc 93 52 56 bc 32 f8 0c bb 80 2b 1c bc
       -0.008180432 -0.013081211 -0.002151024 -0.009531856
000070 a6 1c 7b bc ce fe 29 3b 67 85 01 bd cd 22 c8 3c
       -0.015326655 0.002593923 -0.031621363 0.024430657

weight f4 [64, 32, 5, 5]
000000 8c 3a 6f 3c 84 e8 93 3c e0 b8 8c 3c c2 f7 c7 3c
       0.014601361 0.018055208 0.017177999 0.024410132
000010 d5 76 bc bc a0 09 4a 3c b0 36 03 3d 71 39 06 3c
       -0.023005882 0.012331396 0.032034576 0.008192406
000020 c4 d3 f1 3c f6 9d a6 3c 6a fc 46 3a 04 13 1e bc
       0.029519923 0.020338994 0.0007590713 -0.009648088
000030 9e cf 0b 3d 02 7a fe ba fb ab ac bb f7 70 cb 3c
       0.034133546 -0.0019415023 -0.005269525 0.02483414
000040 68 4e d1 bc 23 d9 33 3c c1 69 bd 3c cb aa 01 3c
       -0.025550082 0.010977062 0.023121716 0.007914255
000050 68 1c b1 bc ff 78 0b bd 54 a7 4d 3c 4c 7f 6f bc
       -0.02161999 -0.034050938 0.012552101 -0.014617752
000060 2c 11 27 3c 43 0b ba 3c 8b d2 94 bc cc ef d7 3b
       0.010196965 0.022710448 -0.018166801 0.0065898653
000070 b2 ac c7 3c 51 16 c9 bb 62 69 0d 3d 67 2b db bc
       0.02437434 -0.0061366935 0.03452433 -0.026754094
000080 41 8d 85 bb ae 63 02 bd c2 ca e2 bc 48 2a 09 bd
       -0.0040756767 -0.031833343 -0.027684573 -0.03348759
000090 7b dc 06 3c b7 cf bc 3c c4 d9 bc 3c 59 d7 94 bb
       0.008231278 0.023048265 0.023053057 -0.004542273
0000a0 a3 ba cb 3c 1d ff 01 3d 32 27 d6 bc be 4c d9 bc
       0.024869269 0.031737436 -0.026141737 -0.026525851
0000b0 6b 6f 06 3d 39 1e 35 bc dc b9 e4 bc 1d 41 0b 3d
       0.0328211 -0.011054569 -0.027920656 0.033997644
0000c0 e4 43 b4 bb 75 18 e9 3c 12 65 11 bb b9 cd aa bc
       -0.0055012573 0.028454045 -0.0022185487 -0.02085005
0000d0 22 a9 d2 3c a4 e8 0b bb 8a 26 93 bc 9e d2 ed 3c
       0.025715414 -0.0021348381 -0.017962713 0.029031094
0000e0 92 7c e1 bc 09 10 f0 3c 72 ce 05 3c 57 ef d2 bb
       -0.02752522 0.029304521 0.008166896 -0.006437223
0000f0 e0 d8 af bc be 59 39 bc cc 5a 92 3b fe 11 d7 3c
       -0.021465719 -0.0113129 0.0044663902 0.026253697
000100 0e 36 68 bc a2 fe 8d 3c 9b 21 c5 3c d6 b4 00 bd
       -0.014173044 0.017333332 0.024063876 -0.03142246
000110 b9 b8 10 3b a1 29 41 ba 22 d4 04 bd c7 56 89 bc
       0.002208276 -0.0007368569 -0.032428868 -0.016765011
000120 44 ef 9a bc 41 16 54 3b 6d a0 b9 bc 27 07 19 bc
       -0.018912919 0.0032361897 -0.022659505 -0.009340084
000130 28 b7 4a ba 47 bf 26 bc a0 0b 08 bd d8 fb 9c 3a
       -0.0007732981 -0.01017744 -0.03321421 0.0011976911
000140 53 ae e6 3c c3 3b 0f 3a 92 ad 4d bc a5 6e 80 bc
       0.028159296 0.0005463922 -0.012553589 -0.01567776
000150 0d f5 04 3c c4 29 02 bd 8b 48 a6 3b 29 28 1a 3b
       0.008115065 -0.031778112 0.0050745658 0.0023522472
000160 9c 44 09 3d f8 94 01 bd b6 10 be 3b 36 08 dc bb
       0.033512697 -0.03163621 0.005800332 -0.006714846
000170 31 58 eb 3c 77 93 d3 bc 52 05 9e bc da 9c b7 bc
       0.028728576 -0.025827153 -0.019289646 -0.02241366
000180 15 74 82 3c a6 9d e9 bc fd b4 fa b9 09 8a 07 3d
       0.015924493 -0.028517555 -0.00047818563 0.033090625
000190 30 fe 7d bc c1 cd 08 bd da c9 7f bc 4b 4d 8a bb
       -0.015502498 -0.033399347 -0.01561209 -0.00422064
0001a0 37 ac d9 3c 3a a0 c0 3b 04 90 08 bc 76 7c 41 bc
       0.026571376 0.0058784755 -0.008335117 -0.011809459
0001b0 9b 3c ea bb ab 92 98 bc 03 4a 01 3d 71 6c 8a 3b
       -0.007148338 -0.018624624 0.031564724 0.004224353
0001c0 1c 79 f6 bc 58 d9 99 bb c3 ef 0d 3b 03 1d 07 3d
       -0.030087046 -0.004695099 0.0021657802 0.032986652
0001d0 0c 5e 09 bd fc f6 57 bc 7d fd dc 3c 29 8e 62 3c
       -0.033536956 -0.013181444 0.026976341 0.013827839
0001e0 5a 26 8c bc 3b 72 9c bc 24 fb 6b 3c e6 ae 1e bc
       -0.017108131 -0.019097438 0.014403138 -0.009685254
0001f0 cc 7c b8 3c 6c 1e 86 bb 42 16 28 bc 42 8e 97 bb
       0.022520445 -0.004092982 -0.010259213 -0.0046251127
000200 42 a0 05 3d cb 8b d6 3c 01 70 09 3c d5 b0 63 3c
       0.032623537 0.026189705 0.00838852 0.0138971405
000210 2c 4f 94 3b 08 4f 28 bc 56 1a 84 bc ff eb b3 bc
       0.0045260396 -0.010272749 -0.01612584 -0.021963118
000220 6e 9a e2 bc 29 46 e2 3c 4f 0b c2 3b 33 45 93 3c
       -0.027661528 0.027621346 0.0059217582 0.017977333
000230 32 d2 c4 3b c2 75 70 bc 64 60 0b 3d 24 88 0b 3c
       0.0060065025 -0.014676513 0.034027472 0.008516345
000240 df 95 aa 3c 04 71 c3 3c 5d 0d 0e bd 59 36 8a 3c
       0.020823417 0.023857601 -0.034680713 0.016871618
000250 00 b0 2e 3c ec a6 6e bc 16 b8 30 bc 17 3a db bc
       0.010662079 -0.014566164 -0.010786077 -0.026761098
000260 25 31 05 3d ad 37 52 3c 05 ca 8c 3b 26 76 e5 3c
       0.03251757 0.012830657 0.0042965435 0.02801044
000270 ea 86 ac 3c 3d 03 a8 3c 34 50 d0 bc c0 68 08 bb
       0.021060426 0.020509357 -0.025428869 -0.002081439
000280 be 8d b8 3c a5 4c c4 bc e6 c4 01 bc 17 a5 bb bb
       0.022528525 -0.023962328 -0.007920479 -0.0057264674
000290 f7 52 42 bb 3a 6a 7a 3c 45 7d 07 3d 91 69 03 3d
       -0.0029651502 0.015284115 0.03307845 0.032083098
0002a0 a7 9f 35 bb b5 38 59 bc 0e 96 b3 bb eb b1 13 bc
       -0.0027713568 -0.013258149 -0.0054805344 -0.009014587
0002b0 3a f3 70 bc 5d 54 39 bb 20 7b 06 3d 19 94 07 bb
       -0.014706427 -0.0028279044 0.032832265 -0.0020687638
0002c0 77 18 f8 3b 13 3e 6c 3b 0d f4 0e 3d df 49 9c bc
       0.007571276 0.0036047741 0.034900714 -0.019078193
0002d0 52 1f 98 bb 92 65 b0 bc 98 4c 59 bc ef 52 fc 3c
       -0.0046424055 -0.021532807 -0.01326289 0.030801265
0002e0 2b 01 8b 3c 96 52 ae 3b cc 4d be 3c a2 70 f2 3c
       0.01696833 0.0053199036 0.023230456 0.029594723
0002f0 83 9a 04 3c 08 fe b6 3c b0 e5 50 3c 0f 4b f6 bc
       0.008093479 0.022337928 0.012750074 -0.030065088
000300 5d 8e 97 bc d6 df 03 3c c9 30 c6 bc 51 aa a3 bb
       -0.018500501 0.008048972 -0.024193184 -0.0049946685
000310 79 8f bc bc cd 0e 56 3b e6 3f 11 3c 96 f7 13 3d
       -0.023017632 0.003266263 0.008865332 0.03612479
000320 15 09 58 bc 9c 47 c0 bb a3 8d c7 bc 2a 6c d2 bc
       -0.013185759 -0.0058679115 -0.02435953 -0.025686342
000330 65 16 03 3d e8 4b b4 3b b2 22 cc 3c 33 bb d2 3a
       0.03200378 0.005502213 0.024918888 0.0016077518
000340 9d 71 23 3c e0 a0 4e bc 18 7f 4c bc b3 d5 90 3c
       0.009975818 -0.012611598 -0.012481473 0.017680025
000350 1e f3 d8 ba 0e 1a ab bc 0b 68 fe 3b de 1e 01 3c
       -0.0016551947 -0.020886447 0.0077638677 0.0078808945
000360 12 72 c4 3c c7 a8 7e bc 46 41 bb 3c 88 7b aa 3c
       0.023980174 -0.015543169 0.022858273 0.020810857
000370 33 f3 80 3c d0 48 a0 bc e5 f3 82 3c d8 6c dc 3c
       0.015740966 -0.01956597 0.015985439 0.02690737
000380 1b 47 06 3d 2c f4 38 bc d1 70 42 bc e1 2d d8 bc
       0.032782655 -0.011288684 -0.011867718 -0.026389064
000390 e3 9c fd 3c ff 13 3b 3a 07 e4 3f bc dd 9a 98 3c
       0.030958598 0.00071364635 -0.011712081 0.018628532
0003a0 dd bb 4b bc cb a5 a4 bc 88 79 0d 3d b5 70 91 3b
       -0.012434927 -0.020098587 0.03453973 0.0044384846
0003b0 3b b7 cf bc f9 b6 7c bc db 0d 11 bc 4e b9 a9 3c
       -0.025355926 -0.015424483 -0.008853401 0.020718243
0003c0 5b e3 6c bc 01 f8 80 bc 17 ba d1 3c 3a c7 98 bc
       -0.014458503 -0.015743257 0.02560143 -0.018649686
0003d0 6f 7c b2 3c c7 ab e5 3a 72 69 26 bb cc 90 f5 bc
       0.02178785 0.0017522507 -0.002539244 -0.029976271
0003e0 9f a5 0d bd df 21 09 3d d7 07 e0 bc cd ba 31 bc
       -0.034581777 0.033479568 -0.027347488 -0.010847759
0003f0 b6 56 bc bc 2c d1 03 bd 10 05 26 3c ed 0a b8 bc
       -0.022990566 -0.032181904 0.010133043 -0.022466147

bias f4 [64]
000000 3b 98 f9 3b f3 14 f3 bb fd 80 08 bd ad 19 c7 3c
       0.0076170242 -0.007418269 -0.033326138 0.024304235
000010 42 11 16 bc ec 7f c1 bb a7 1d 01 bd 89 42 fc bc
       -0.009159388 -0.005905142 -0.03152242 -0.030793445
000020 f9 b2 2b bd 5d 16 a6 3c 20 2e f8 3c 21 41 e6 bb
       -0.04191873 0.020274336 0.030295432 -0.007026807
000030 7d f4 80 bc 6e 38 15 3d 34 bf d1 3c 81 1a 0f 3d
       -0.015741581 0.03643077 0.025603868 0.034937385
000040 1f 79 89 bc aa db 1a bd ed c7 30 3c 4d 62 92 3c
       -0.016781388 -0.037807144 0.0107898535 0.01786914
000050 16 2b 29 bc 96 f9 06 36 88 e2 07 3d d3 b6 0d bb
       -0.010325214 2.0112834e-06 0.03317502 -0.0021623864
000060 4a 14 bf bc 26 73 74 bc 08 3f f0 bc af 32 cf bc
       -0.023325104 -0.014920032 -0.02932693 -0.025292723
000070 fd 91 11 3d 81 31 6c 3c 38 d5 20 3d 2b 78 ae 3b
       0.035539616 0.0144160995 0.03926584 0.0053243837
000080 2b 33 e0 3c 30 01 75 3b 13 e4 b7 3b 78 18 fb 3c
       0.027368149 0.003738474 0.0056119054 0.030651316
000090 83 00 b9 3c 31 78 1e 3c ba 48 35 3c b6 a1 de 3c
       0.022583252 0.009672211 0.011064703 0.02717672
0000a0 ee 93 7a bc 91 a9 5d 3b 12 8d 37 bc 67 b2 12 3d
       -0.015294058 0.0033822993 -0.011203067 0.03581467
0000b0 72 57 d3 3c 9f 30 69 3c b3 8d b6 3c b0 b8 3f bc
       0.025798533 0.014232784 0.022284364 -0.011701748
0000c0 5e 1f 44 bd 32 d2 a9 3c 60 b6 ab bc 7d b0 0b bd
       -0.047881477 0.020730112 -0.020960987 -0.03410386
0000d0 ba d8 81 3c 6b dc 7c 3c 88 3c e4 bc 9b 63 aa 3a
       0.015850414 0.015433411 -0.027860895 0.0012999655
0000e0 d2 7a c6 3c e9 39 94 bc 4e 98 f3 3c 00 6a f6 bc
       0.024228487 -0.01809402 0.02973571 -0.030079842
0000f0 d9 8f af 3a 7e b0 28 bb b2 c7 88 38 4b 02 b1 3c
       0.001339431 -0.0025739963 6.5221815e-05 0.021607539

weight f4 [64, 1024]
000000 94 e1 8b bc 70 a4 25 39 91 ab ad bc 3b 85 e1 3c
       -0.017075337 0.00015796884 -0.021199973 0.02752935
000010 c5 b5 97 3c 43 1d b3 3c e7 2a 25 bc 2a 73 27 bb
       0.018519292 0.021864539 -0.0100810295 -0.002555082
000020 20 ba 6f 3c bc 16 3b 3c e1 24 e5 bc 56 ca 87 3c
       0.014631778 0.0114189945 -0.027971687 0.016575973
000030 70 4d bb 3c 10 99 aa 3c b9 8e e2 3b 10 03 32 bc
       0.022864074 0.020824939 0.0069139865 -0.010864988
000040 7f f4 d8 bc 6c 17 90 3c ea 28 35 ba 14 17 9a bc
       -0.026483772 0.017589293 -0.0006910699 -0.018809833
000050 fd 78 b4 3c 0c 8b f8 3c f8 2e 9d bb 9d ef a1 3c
       0.022030348 0.03033974 -0.004796859 0.019767577
000060 a0 d6 66 3c 75 d4 f9 3c a5 26 8a bb 7e e3 7f 3c
       0.0140892565 0.030496815 -0.0042160326 0.015618203
000070 2e ea a1 bc 26 b3 24 bc 76 26 f3 3c 30 32 9a 3c
       -0.019764986 -0.010052478 0.029681426 0.01882276
000080 67 a7 43 3b 0d f9 88 3c d0 12 44 bb 62 53 a9 3c
       0.0029854418 0.01672032 -0.002991844 0.020669643
000090 37 fb f1 3c 8d 61 36 ba c0 ee ff ba 89 65 33 ba
       0.029538734 -0.0006957285 -0.0019526109 -0.0006843438
0000a0 dc 05 ff 3c 13 f1 e7 bc 8d 2a ed bb 62 13 ab 3c
       0.031130724 -0.028313195 -0.0072377385 0.020883266
0000b0 df 44 46 bc 24 eb 43 ba c6 bf c6 3c e3 df be bc
       -0.012101381 -0.00074736984 0.024261367 -0.023300117
0000c0 5b 7a f7 3c 68 a9 89 3b fa e1 2f bb 8d 9a 10 3c
       0.03020971 0.004201103 -0.0026837573 0.00882591
0000d0 0f 5d 8e bc 64 1f 5f 3c 31 64 f3 bc 47 4a e9 bc
       -0.017378358 0.013618324 -0.02971086 -0.028477801
0000e0 6e 15 a7 3c 0e 7d 60 3c c1 8f 9c 3a ba 11 f4 bc
       0.02039596 0.01370169 0.0011944697 -0.029793609
0000f0 01 90 5b bc 83 82 52 3c 3a 90 a1 3c 64 2d b6 3c
       -0.013401032 0.012848499 0.019722093 0.02223844
000100 1a 98 23 bc 47 40 ae bc cb 97 10 3c d9 cc 9a 3c
       -0.009984994 -0.021270884 0.008825253 0.018896507
000110 a9 8b ce 3c 4c aa b5 bc 9f 0d 2e 3a 05 50 1c bc
       0.02521308 -0.02217593 0.0006639603 -0.0095405625
000120 4d 4e 6c 3c 13 05 c8 3b 91 37 ee 3c d8 ce 34 bb
       0.014422965 0.0061041205 0.02907923 -0.0027589109
000130 37 e4 ad bc a7 45 12 3b 88 a9 66 bc 2a 14 8b 3c
       -0.021226985 0.0022319348 -0.014078505 0.016977388
000140 c7 c2 bb 3c 5e 59 dd 3c fd 13 35 bc c5 7e 93 3b
       0.022920026 0.027020153 -0.011052129 0.004501196
000150 e0 04 7f bc 55 00 af 3c 87 54 88 bb e3 7f e6 3c
       -0.015565127 0.021362463 -0.004160467 0.028137153
000160 94 f4 f1 bc e3 8c 56 3c 4e a1 89 3c 59 79 4e bc
       -0.02953557 0.013095113 0.016800549 -0.012602174
000170 78 94 09 3c 5b 5e e6 3b 66 99 d8 3c fd 73 a9 bb
       0.008397214 0.007030291 0.026440334 -0.0051712976
000180 48 27 b4 bc 87 82 3c bc 24 cb 88 3c 33 c0 12 bc
       -0.021991387 -0.0115057295 0.016698427 -0.008956957
000190 f4 b4 74 3c 86 48 b8 3c 6c ee 34 3b ee 12 cd bc
       0.014935721 0.02249552 0.002760793 -0.02503344
0001a0 e2 76 59 bb 42 f3 f3 bc d7 bd 86 ba a9 70 ab 3c
       -0.0033182432 -0.02977908 -0.0010279965 0.020927744
0001b0 3b ec e0 b9 0e eb 68 3b f9 9d e0 bc 2a 20 66 bc
       -0.00042900615 0.0035540494 -0.027419077 -0.014045754
0001c0 a8 0b 78 3c 29 22 df bb c8 8d 51 bc 01 0f 83 3c
       0.015139498 -0.006809492 -0.012790151 0.015998365
0001d0 4b cf 89 3c 82 5c da bc 1d de 16 bc f2 03 9a bc
       0.016822478 -0.02665544 -0.009208229 -0.01880071
0001e0 ff 16 80 3b 04 a8 aa 3c 6a f1 82 bb 0c 57 a7 3c
       0.0039089913 0.02083207 -0.003996064 0.02042725
0001f0 98 b7 af 3c 37 f4 94 bc 85 46 de ba db 61 18 3c
       0.021449849 -0.018182857 -0.0016958272 0.009300674
000200 8d 22 b8 bc 28 20 b7 3c eb 75 bc 3c fc 66 e7 3c
       -0.022477413 0.0223542 0.023005446 0.028247349
000210 37 95 41 bb db 09 d7 bb 6b e6 82 bc 0b 0a 2b bc
       -0.0029538402 -0.006562454 -0.015979012 -0.010439406
000220 cf 2c d8 3c 37 1d e1 3b d6 20 bf bc 8f 9d 85 3c
       0.026388554 0.0068699378 -0.023331087 0.016310481
000230 fa d3 0a 3c 0d c4 ef 3c 70 a2 eb bc 70 09 eb bc
       0.008473391 0.029268289 -0.02876398 -0.028691024
000240 68 19 c2 3c f6 65 14 3b c3 63 9c 3c 95 33 b3 bc
       0.023693755 0.0022643781 0.019090539 -0.021875182
000250 18 54 82 bc de 67 8a bb 32 f2 e9 3b 68 f3 c7 bc
       -0.01590924 -0.0042238077 0.0071394676 -0.024408057
000260 8d cb 1d bc 0a 4d c7 3c e8 21 db 3c 9b 0f e1 3c
       -0.00963105 0.024328727 0.026749566 0.027473262
000270 1e b2 f2 3b 73 3d 87 3c 64 ff 94 bc b8 83 87 3c
       0.007406487 0.016508793 -0.018188186 0.0165423
000280 45 04 db 3c 46 08 5c 3a 9a 69 ae bc 25 cc 97 3a
       0.026735434 0.0008393567 -0.02129059 0.0011581226
000290 af 5d 4f bc 54 23 85 bc c5 c7 64 3c 2d 46 26 ba
       -0.012656613 -0.016252197 0.013963644 -0.00063428545
0002a0 9c df dd 3c 76 ea 84 bc 82 e8 3c bc 32 47 c0 bc
       0.027084164 -0.016225081 -0.011530044 -0.023471449
0002b0 77 bf f6 3b fb d0 5e ba 8c d9 c6 3c 8b 7e e2 bc
       0.0075301486 -0.00084997684 0.024273656 -0.027648231
0002c0 9d dc b7 bc 60 ab 52 bc cc af 25 3c 79 0e 4d ba
       -0.022444064 -0.012858242 0.010112714 -0.0007822286
0002d0 57 82 64 3b 32 96 f3 3c 63 63 5c bc 34 17 db bc
       0.0034867728 0.029734705 -0.01345143 -0.026744463
0002e0 28 b3 87 bc aa 3a e0 3c f1 16 db bb 12 97 66 3b
       -0.01656492 0.027371723 -0.0066860844 0.003518526
0002f0 18 f0 aa bc af b9 e6 3c c2 a7 cc bc 6e c0 55 3b
       -0.020866439 0.028164713 -0.024982337 0.0032615918
000300 b7 c0 c8 3c 76 19 38 3b bf e0 de bc 36 69 80 3c
       0.024505956 0.0028091348 -0.027206777 0.015675168
000310 47 d6 af 3c 05 24 ca 3c 77 e1 84 3c 42 63 f5 b9
       0.02146448 0.024675379 0.016220791 -0.00046803994
000320 50 9b 55 3c c6 64 cf 3c d8 9c ef bc df 6f ec 3a
       0.013037518 0.025316607 -0.029249594 0.0018038711
000330 a1 0c ff bb 12 8c a0 bc eb ba 9e bc a0 fb 7d bc
       -0.007783488 -0.01959804 -0.019376239 -0.015501887
000340 af 23 02 3d 86 f6 c8 3c c4 30 5f 3c e7 48 5b 3c
       0.03177231 0.024531614 0.0136224665 0.0133840805
000350 51 b2 ab 3c 1b 64 e4 bc 49 d7 ff bb f3 65 f1 3c
       0.020959051 -0.027879765 -0.0078076464 0.029467558
000360 d1 2d 04 3c ef 3b fc 3c 53 1d 2d 3c b6 c4 af 3c
       0.008067564 0.030790297 0.0105660735 0.021456104
000370 6d 07 2d bb bb 02 f0 3c 84 8b 96 3c 8a e3 9d bc
       -0.0026402131 0.029298177 0.018377073 -0.019273538
000380 71 7e b8 3c c6 29 c3 bc 7e 83 52 bc 35 a5 31 bc
       0.02252123 -0.02382363 -0.012848733 -0.010842611
000390 e4 5f d3 bb bd a5 a6 3c 58 52 8e bb 0c 2b fb 3c
       -0.00645064 0.020342702 -0.0043433122 0.030660175
0003a0 48 07 ae bc 6a de 04 bd 0b c9 b0 bc 67 57 e6 3c
       -0.021243706 -0.032438673 -0.02158024 0.028117849
0003b0 9b 15 3f 3c bd 63 f4 bb 53 4b fa ba d2 ba 46 bc
       0.011662866 -0.007458179 -0.0019095935 -0.012129502
0003c0 65 5d d4 bc 10 77 0c bc 59 5c e5 3c d5 74 9a 3b
       -0.02592344 -0.008573309 0.027998136 0.0047136345
0003d0 6c 19 b9 bb 6f f8 e9 bc 02 4a c9 3c 13 6c a7 bc
       -0.0056487825 -0.028560845 0.024571422 -0.020437276
0003e0 6e 78 c7 bc 5a f1 1d bc da 11 d9 3b 46 af 89 bc
       -0.024349418 -0.009640062 0.0066244425 -0.01680721
0003f0 62 53 ad bc 50 2e 4d 3b d4 fd f3 3b 50 7e a2 3c
       -0.021157924 0.0031308122 0.00744603 0.019835621

bias f4 [64]
000000 8d 6f 9f bc 01 91 ed bc 34 49 eb 3c f2 f7 18 bb
       -0.019462371 -0.028999807 0.02872143 -0.0023341146
000010 f1 da 71 3b 21 ba 9c bc ac 78 3c bc 7d 96 8c 3c
       0.003690418 -0.019131722 -0.01150338 0.017161602
000020 be 73 b6 bc 5a 11 e6 bb 21 a7 a0 3b ae b6 72 bc
       -0.022271987 -0.0070211114 0.004902736 -0.014814062
000030 f3 22 c5 3c 06 da 05 3c a5 75 eb bb a3 65 16 bc
       0.024064517 0.008169657 -0.007185655 -0.0091795055
000040 4c bd 21 bc 27 e3 c5 3c 29 8f 4c 39 d6 85 17 3d
       -0.009871792 0.024156166 0.00019508287 0.03699287
000050 5d 1f 3e bc 79 f5 11 3d fd 4b a2 3c 30 ff f1 38
       -0.011604157 0.03563449 0.019811625 0.00011539308
000060 51 26 2a 3c 89 75 de bc 10 22 b1 3c ec bb e6 3a
       0.010385112 -0.027155655 0.021622688 0.0017603613
000070 fe 41 cb bc 7f 57 02 bd 66 3f 63 3c 71 f2 f0 ba
       -0.024811741 -0.031821724 0.013870096 -0.00183828
000080 d4 d2 88 3b 61 67 33 3c 58 4c 04 bd e8 ec c6 3c
       0.0041755233 0.01094994 -0.03229937 0.024282888
000090 c7 a1 80 bc 0a 34 2f 3d 78 3f 4c bc fd cb bd 3c
       -0.015702141 0.042774238 -0.012466304 0.023168558
0000a0 e2 f7 d1 ba 32 2a b5 3c 4f 55 a3 bc e5 7c fc 3c
       -0.0016019309 0.022114847 -0.01993814 0.030821273
0000b0 f9 70 b7 3c d6 79 01 3c 24 2f 1e bd 27 08 55 bb
       0.022392737 0.007902583 -0.038619176 -0.003250608
0000c0 ae 1b 2e 3d 29 6d 6a 3b 77 e3 ae bb 0b c3 f7 3b
       0.042506866 0.003577063 -0.0053371745 0.0075610927
0000d0 39 38 84 bb 2d e4 8a 3c 98 83 ec ba fa 27 4a 3c
       -0.0040350226 0.016954506 -0.0018044589 0.012338633
0000e0 34 89 68 3c 83 f0 a9 bc 29 55 2e bd ac 8f cd bb
       0.014192868 -0.020744568 -0.042561684 -0.0062732305
0000f0 46 e4 88 3c e4 30 7b 3b 71 3a 02 bd 65 30 e7 3c
       0.016710412 0.0038328702 -0.031794015 0.028221318

weight f4 [10, 64]
000000 de 88 a9 bd 0a b4 4c bc 74 5d ad bb 35 af 9d bb
       -0.082780585 -0.0124940965 -0.0052906815 -0.004812146
000010 b3 85 b3 3d 9f fd 6d bd be 78 cd 3d fc 64 82 3d
       0.087657355 -0.0581032 0.10032795 0.063669175
000020 24 d2 a0 3d 69 03 a9 bd 8a fb 09 bd 7e 44 f6 bc
       0.07852581 -0.082526036 -0.033687152 -0.030061956
000030 b4 5c 99 3c 54 fd 8a 3d 15 f2 45 bd 9f 21 90 bd
       0.018720962 0.067866 -0.04832657 -0.07037663
000040 36 04 c3 3b b7 92 1a bd fd 05 58 bb 7c 11 c4 bd
       0.0059514297 -0.037737574 -0.0032962554 -0.095736474
000050 75 f9 43 bd a8 ce 86 bd 1d cb e1 bd 23 f4 41 bd
       -0.047845323 -0.06582385 -0.11025069 -0.047351968
000060 32 ce 98 bd 2e dd 52 bc bc a1 6f bd 64 b1 1c 3c
       -0.07461204 -0.012870116 -0.05850385 0.009563778
000070 0b 6b aa bd a1 2c 8a 3d ae 1b 57 bd d0 a0 da bd
       -0.08321198 0.067467935 -0.05251663 -0.10675204
000080 ee b5 be 3d 92 44 f3 3d fb 5e cb 3b 75 7f 95 bb
       0.09312044 0.11878313 0.006206391 -0.004562313
000090 c0 b6 c5 3c 45 ec d7 bd 2d 3b b2 bd 16 24 93 bd
       0.024134994 -0.10543112 -0.08702693 -0.07184617
0000a0 f3 49 50 3d 58 fa e9 3d 4f 10 a2 bd f8 7b ff bd
       0.050851773 0.114247024 -0.07913267 -0.12474817
0000b0 76 91 75 3d 61 a2 e9 3d 75 61 b7 3d a9 3e f9 3c
       0.059953175 0.114079244 0.08954135 0.030425387
0000c0 84 d0 f9 bd f5 b3 d0 3c 14 64 c5 bd e8 2c d4 3c
       -0.12197974 0.025476435 -0.09638229 0.02590032
0000d0 79 47 45 3d 61 a1 fa bd f1 95 fb bc 2f 4b de bd
       0.048163865 -0.12237812 -0.030711146 -0.10854184
0000e0 f9 56 ac 3d b7 76 e8 bd 2f 25 9c 3d ab f4 09 3e
       0.08415026 -0.11350768 0.0762428 0.1347224
0000f0 39 fa f2 bd c5 bd 86 bd 79 b8 10 3e 0b 58 e1 bc
       -0.118641324 -0.065791644 0.1413287 -0.027507802
000100 ca f1 ae bd 3f 91 ba 3d 78 2a 12 3e da 9c 33 3d
       -0.08542211 0.09109735 0.14274013 0.043850757
000110 ed 09 d4 bc 7d 27 6c 3d e7 d1 5e bb 13 9d e6 bd
       -0.02588364 0.057654846 -0.0033999623 -0.11260428
000120 a1 82 e6 3d 2d 54 b8 3d 5d d7 05 be 7a 69 ba bd
       0.11255384 0.0900043 -0.13070436 -0.09102149
000130 1b c2 42 bb cb 16 4d 3c 6b 5f 64 3d fa 11 9a bc
       -0.0029717747 0.012517641 0.05575506 -0.0188074
000140 33 52 99 3d 4e 2f ac bd ca 0a c6 3d 3f 48 ca 3d
       0.074863814 -0.0840746 0.096700266 0.09877061
000150 c5 ab f9 bd cf f3 50 bd 04 63 ff bc 2f 86 f4 3b
       -0.121909656 -0.051013764 -0.031175144 0.007462285
000160 2b 0e aa bd 49 33 eb 3c f5 13 e4 bd fc ec e8 bc
       -0.083034836 0.028710978 -0.11136619 -0.028433315
000170 69 e3 96 bd d2 8f 08 3b 7f 82 bd bb 57 52 94 3d
       -0.07367594 0.0020837677 -0.0057833786 0.072422676
000180 a7 8d e9 3c 2e 2b 18 bd e4 19 d1 3b 87 2b a5 3d
       0.028509928 -0.037150554 0.00638126 0.08064943
000190 24 63 36 3d 79 70 54 bd 7b ba e7 3d f7 e3 aa bc
       0.04452814 -0.051865075 0.11314865 -0.020860655
0001a0 67 47 65 3d 59 cc be 3d b8 b4 d4 3d d9 2a e3 3c
       0.055976298 0.0931632 0.10386032 0.027730392
0001b0 d9 e5 b0 3d 1b 99 dc 3c ff 08 c1 3d be 82 74 3d
       0.0863759 0.026928475 0.09425544 0.059694998
0001c0 2f 56 67 bd 2a 1f e2 3c 92 80 77 3d 43 6d aa 3d
       -0.056478675 0.02760275 0.06042535 0.08321621
0001d0 77 e1 b6 bd d8 51 41 39 12 d8 9c bd 0c 1e 80 bd
       -0.08929723 0.00018436403 -0.076584 -0.06255731
0001e0 b8 95 7b 3d 96 fc eb bc 09 b8 c1 bd e1 d2 10 3d
       0.06142208 -0.028806966 -0.0945893 0.03535736
0001f0 51 9b 08 be a4 a3 42 3d 0b 53 f1 bc 4c 44 01 3e
       -0.13340499 0.04751934 -0.029458543 0.1262371
000200 09 e3 4d 3d 3d f2 cf 3d 23 83 ea bc 37 0e d5 3d
       0.050265346 0.10153625 -0.028626984 0.10403102
000210 ab d9 ff 3c c1 14 ae bd 11 76 e7 3d eb ab 07 3c
       0.031231722 -0.08500052 0.11301816 0.0082807345
000220 c2 20 63 bd 90 05 02 bc cc ea b7 bd b0 43 e8 3d
       -0.055451162 -0.0079358965 -0.08980331 0.11341035
000230 5b 12 14 bd 5e 29 d2 bc 97 49 2e bd 83 24 13 3d
       -0.036150318 -0.025654491 -0.04255065 0.035923492
000240 ed 25 8c bd 56 c4 02 3d 55 c6 69 3d f7 12 e5 3d
       -0.06843171 0.03192552 0.05707391 0.11185258
000250 01 f5 87 3d 2e be 9e bd e6 71 b8 bd 19 b9 d6 3d
       0.06638528 -0.07751118 -0.090060994 0.10484523
000260 d1 87 bc bd 9a b6 21 bc e2 bd c1 bc 6f 69 f6 bd
       -0.092055924 -0.009870196 -0.023650113 -0.120318286
000270 c3 db 48 3d 36 6e a6 3d f2 7d a3 bd 7d 6d cf bc
       0.049037706 0.0812649 -0.079830065 -0.025320763
000280 08 8f 92 bd 7b 07 d6 bd a3 ef b0 bd 8a f8 4b bd
       -0.07156187 -0.104506455 -0.08639457 -0.049797572
000290 9d 93 a8 3c 80 88 1a bd 5c a1 76 3d 08 89 f6 3d
       0.0205782 -0.037727833 0.060212478 0.120378554
0002a0 3c 40 61 bd 30 0c 05 3e 60 05 fc bc 5b f7 e9 bd
       -0.0549929 0.1299293 -0.030764282 -0.114241324
0002b0 87 fb 05 bd f8 2b e4 bd 7a 86 45 bd e5 15 4b bd
       -0.03271058 -0.11141199 -0.04822395 -0.049581427
0002c0 f4 3c 0a bd 99 e6 14 bb 97 cd ba 3d 95 84 69 bd
       -0.033749536 -0.0022720455 0.091212444 -0.057011206
0002d0 35 8b ea bd 45 20 9c bd 1c 4e ec 3d e8 4c ca 3d
       -0.11452333 -0.076233424 0.11538336 0.0987795
0002e0 fd ca 0c bc c9 7a 1e bd a3 1a bc 3c 10 e6 91 3d
       -0.008593318 -0.038691316 0.02296192 0.07123959
0002f0 12 3e a6 3d b1 8e c5 3d 47 24 af 3c fc 3e 81 3d
       0.08117308 0.09646357 0.021379603 0.063108414
000300 1c 4a 83 bc b4 6c 12 bc a4 d6 a2 3c 0e fb 8a bd
       -0.016026549 -0.00893705 0.01987774 -0.06786166
000310 a4 fb 32 bd f8 90 75 bd 35 72 01 be 4f 3e c0 3d
       -0.043697014 -0.059952706 -0.12641223 0.093868844
000320 9f 7f da 3d 83 e4 6c bd df 47 3f 3d c6 77 db 3d
       0.10668873 -0.057835113 0.0466994 0.10716204
000330 d9 b3 03 3e 1e 32 08 3d 54 9a dc bd 15 57 97 3d
       0.12861575 0.03325092 -0.10771623 0.073896565
000340 61 86 0f 3c 0d f2 e3 3d 57 36 b6 bd e4 ec c4 3d
       0.008760066 0.11130152 -0.08897083 0.09615496
000350 fb 32 92 bd 9a e9 ad 3d 59 6e ef 3d ca 50 b4 bd
       -0.0713863 0.084918216 0.11690969 -0.08804472
000360 e8 76 ff 3d 9f 6c 76 3d 41 2e 02 be bd ee eb 3d
       0.124738514 0.060162183 -0.12712957 0.11520145
000370 5a 08 77 bd 28 28 71 bd ef 9a d6 bd 22 80 f5 3c
       -0.0603107 -0.058876187 -0.1047877 0.029968325
000380 85 34 88 bd 77 db a8 3d ab 44 69 bd 5c 49 53 bd
       -0.06650642 0.082449846 -0.056950253 -0.051583633
000390 98 d0 d4 bd 84 0d 99 bc 82 6b 17 3d ce a7 01 be
       -0.103913486 -0.018683203 0.03696776 -0.12661669
0003a0 c0 cb c1 bd 22 69 d7 3c 4d 7c a6 bd 80 54 a7 bd
       -0.0946269 0.026295248 -0.08129177 -0.08170414
0003b0 ba cb d4 bd f7 86 bc 3d a3 0a b9 bd 2e f1 95 3c
       -0.1039042 0.0920543 -0.09035232 0.01830348
0003c0 ce 2a ae bd 11 d5 e1 bd e3 e9 02 3e aa 65 6d b8
       -0.08504258 -0.11026967 0.12784533 -5.6599885e-05
0003d0 56 4c f6 bc ed 77 c3 bd 8c e4 da bd b9 69 b4 3d
       -0.030065697 -0.095443584 -0.10688123 0.088092275
0003e0 79 67 58 3d dc 86 a0 bd 93 67 a1 bd d9 e2 f5 bc
       0.052833054 -0.078382224 -0.07881083 -0.030015396
0003f0 0a ca a6 3d 12 6d c7 bc 90 1f 30 3d e4 c8 c0 3d
       0.08144005 -0.024344001 0.04299885 0.09413317

bias f4 [10]
000000 bc c7 c3 3c 04 b8 b5 3d ee 68 8d 3c a4 c9 cc bd
       0.023898952 0.08872989 0.017261948 -0.099993974
000010 ee d3 89 3d 15 17 80 3c 04 6d 53 bd 0b c2 64 bd
       0.067298755 0.015636006 -0.051617637 -0.055849116
000020 75 40 c7 bd 22 22 ac 3c
       -0.09729091 0.02101237
